Char03 Actor-Critic/AC_CartPole_Model/ModelTraing20800Times.pkl (torch_old, 237192 bytes, 5 tensors)

weight f4 [32, 4]
0.24831876 0.1138201 1.4987795 0.6034796 -0.061393347 0.22638313 -0.36494178 -0.10304028
0.06950849 -0.061222076 0.13868046 0.024665892 -0.16918561 -0.40126896 -1.4275739 -0.6758571
0.098996185 0.3747534 2.5877247 0.68088806 -0.32556027 -0.58922327 -1.7928712 -0.3813424
0.21504681 0.20937228 1.6958666 0.6541895 -0.29349405 0.61884433 0.9891307 0.6770832
0.039445847 -0.29305944 0.14251384 -0.31150645 -0.099621244 -0.19890843 -0.6535351 -0.8241058
0.7998139 -0.22956677 1.5698421 -0.1553933 -0.023911707 0.20410429 -0.38671947 0.017529272
-0.26826525 -0.37760907 -2.078486 -0.25553057 0.24551058 0.5046894 2.3109467 0.523501
-0.17936216 -0.0637207 0.9131184 0.14107528 -0.49542788 0.6886899 0.32091197 1.0563896
0.048951253 -0.18460572 -1.4761078 -0.4404211 -0.72383285 -0.20896783 -0.71471447 -0.025364257
0.34757262 0.8578875 2.0145242 0.30481932 0.27786475 -0.0022678582 -1.4584365 0.010523422
-0.8163882 -0.15806441 -2.0090759 -0.3312828 0.08646253 -0.24109879 0.90583104 0.56128645
0.098266914 0.29175884 -0.10266723 -0.11093889 0.2112412 -0.20270237 -0.57068574 -0.48352325
0.1650996 0.11758799 0.1439561 0.03670975 0.6037949 0.19925655 1.6454101 0.2766488
-0.398443 -0.30287915 1.395906 0.47970614 0.45641232 0.124729626 1.2945069 0.59728324
0.35565552 -0.5412784 1.9678718 0.49594995 0.5448259 0.27776352 -0.33274055 -0.18375918
-0.1726813 -0.37756297 -1.048205 -0.84669113 0.0719649 -0.118369184 -0.6056502 -0.32240435
00000000: 4647 7e3e 831a e93d 02d8 bf3f a47d 1a3f
00000010: 9777 7bbd fbd0 673e a6d9 babe c806 d3bd
00000020: 785a 8e3d 00c4 7abd 4002 0e3e 2010 ca3c
00000030: fe3e 2dbe 2073 cdbe beba b6bf f904 2dbf
00000040: 83be ca3d addf bf3e 489d 2540 ae4e 2e3f
00000050: d6af a6be 56d7 16bf ce7c e5bf 503f c3be
00000060: 3b35 5c3e b065 563e 2812 d93f f778 273f
00000070: da44 96be 956c 1e3f ab37 7d3f 5355 2d3f
00000080: f891 213d e30b 96be 26ef 113e c67d 9fbe
00000090: 3906 ccbd a7ae 4bbe 144e 27bf 99f8 52bf
000000a0: 9bc0 4c3f 8d13 6bbe 96f0 c83f 6c1f 1fbe
000000b0: 7ce2 c3bc b700 513e 1800 c6be 8c99 8f3c
000000c0: 105a 89be fa55 c1be ea05 05c0 e7d4 82be
000000d0: 2067 7b3e 5333 013f 8de6 1340 2904 063f
000000e0: b7aa 37be 0080 82bd 21c2 693f 0a76 103e
000000f0: b9a8 fdbe fb4d 303f 934e a43e c637 873f
00000100: 1c81 483d 4809 3dbe 1af1 bcbf e07e e1be
00000110: 1c4d 39bf aafb 55be 87f7 36bf b4c8 cfbc
00000120: 0af5 b13e 849e 5b3f f7ed 0040 4711 9c3e
00000130: 4a44 8e3e 59a0 14bb 0cae babf 6e6a 2c3c
00000140: d1fe 50bf a3db 21be b394 00c0 e69d a9be
00000150: 4413 b13d 9ae2 76be 8be4 673f 78b0 0f3f
00000160: 2a40 c93d 6a61 953e 3243 d2bd ee33 e3bd
00000170: 9d4f 583e 3691 4fbe 7618 12bf 5c90 f7be
00000180: df0f 293e f9d1 f03d 3a69 133e f65c 163d
00000190: 4d92 1a3f e909 4c3e cc9c d23f e9a4 8d3e
000001a0: b900 ccbe fa12 9bbe 0cad b23f 0b9c f53e
000001b0: e0ae e93e 3f72 ff3d 67b2 a53f 8ee7 183f
000001c0: 7b18 b63e 3991 0abf 39e3 fb3f 27ed fd3e
000001d0: b679 0b3f 0537 8e3e f85c aabe 5e2b 3cbe
000001e0: 5ed3 30be ef4f c1be 952b 86bf c0c0 58bf
000001f0: 5562 933d 8b6b f2bd e40b 1bbf 2f12 a5be

bias f4 [32]
0.15469615 0.12204388 -0.3105194 -0.15455753 0.16863163 -0.64053375 0.29512098 -0.80672485
-0.26206928 -0.16580866 -0.08141458 -0.64020866 -0.63456655 0.35517746 -0.63355184 -0.29274607
-0.14830425 -0.67731124 0.0675868 -0.38476962 -0.43146086 -0.25589603 -0.46723986 0.23345087
-0.42695346 -0.053767376 -0.74320257 -0.40984985 -0.32509568 -0.37129766 -0.15747556 -0.6099456
00000000: ab68 1e3e 24f2 f93d 66fc 9ebe 5444 1ebe
00000010: c5ad 2c3e 05fa 23bf 191a 973e 8585 4ebf
00000020: f22d 86be bfc9 29be b0bc a6bd b7e4 23bf
00000030: f472 22bf d2d9 b53e 7430 22bf d0e2 95be
00000040: 12dd 17be 4564 2dbf f36a 8a3d 8600 c5be
00000050: 70e8 dcbe ce04 83be 103a efbe bf0d 6f3e
00000060: a599 dabe 2e3b 5cbd 8642 3ebf d7d7 d1be
00000070: f172 a6be ba1a bebe 4641 21be 6525 1cbf

weight f4 [2, 32]
-0.75135183 0.22366457 0.056598514 0.8370207 -1.0206739 0.6397856 -0.6650187 -0.5328775
-0.06368745 0.27992368 -0.39770114 0.19482836 0.54607004 -1.582206 -0.5278254 -0.43186754
0.58425385 0.027528137 -1.5842097 0.31724772 0.3213613 -0.37368864 0.052944705 0.31001493
-0.12431498 -0.8848988 -0.7733589 -0.5054384 -0.46344197 0.012185154 0.831966 0.10795603
0.5362214 -0.1456373 0.1279683 -0.8468728 1.0122123 -0.48788878 0.77358544 0.3694287
-0.034375478 -0.4912048 0.494485 -0.18780516 -0.4072928 1.6311356 0.6904995 0.5985189
-0.43363205 0.061432965 1.4902674 -0.12516835 -0.5245819 0.4881851 -0.051112324 -0.19880866
0.1409734 0.9197722 0.55500036 0.52351236 0.32279557 0.052604537 -0.9077474 -0.30052495
00000000: 9858 40bf 5308 653e d8d3 673d fd46 563f
00000010: 71a5 82bf fdc8 233f aa3e 2abf a96a 08bf
00000020: 916e 82bd 2852 8f3e 7c9f cbbe 1681 473e
00000030: 3fcb 0b3f ba85 cabf 911f 07bf be1d ddbe
00000040: a991 153f b082 e13c 62c7 cabf 4b6e a23e
00000050: 7889 a43e 1e54 bfbe 8cdc 583d 47ba 9e3e
00000060: da98 febd ba88 62bf d9fa 45bf 6964 01bf
00000070: 4448 edbe 3da4 473c b9fb 543f 0d18 dd3d
00000080: ce45 093f f221 15be 1f0a 033e a8cc 58bf
00000090: 2c90 813f 8fcc f9be b209 463f c225 bd3e
000000a0: 4dcd 0cbd 327f fbbe 232d fd3e ff4f 40be
000000b0: af88 d0be 0dc9 d03f 93c4 303f 8938 193f
000000c0: 0505 debe 22a1 7b3d 15c1 be3f 222c 00be
000000d0: 004b 06bf 66f3 f93e 285b 51bd 7f94 4bbe
000000e0: 555b 103e 3176 6b3f 8114 0e3f e804 063f
000000f0: 7645 a53e db77 573d 2262 68bf 68de 99be

bias f4 [2]
0.012047439 -0.052637313
00000000: 9f62 453c 399a 57bd

weight f4 [1, 32]
0.022979941 -0.0022401968 0.14002286 -0.016554903 0.01970483 -0.50774276 0.021062963 -0.2309405
-0.02962743 -0.12932418 -0.39051077 -0.11798695 -0.65189344 -0.12988661 0.12238303 -0.24640381
0.035512537 -0.39326987 0.018456783 -0.0113173 -0.3517738 0.056381594 -0.21929824 0.07808862
0.030705173 -0.36894652 -0.15943624 -0.15861173 0.02551781 -0.19464119 0.007267708 -0.007065734
00000000: 6e40 bc3c 44d0 12bb 2762 0f3e 269e 87bc
00000010: 066c a13c 6efb 01bf 3c8c ac3c ab7b 6cbe
00000020: 39b5 f2bc 8f6d 04be 07f1 c7be 24a3 f1bd
00000030: 7de2 26bf ff00 05be f4a3 fa3d 4851 7cbe
00000040: 9875 113d ab5a c9be ae32 973c 326c 39bc
00000050: b21b b4be 63f0 663d b88f 60be edec 9f3d
00000060: 6a89 fb3c 8fe6 bcbe 4143 23be 1d6b 22be
00000070: ba0a d13c 0550 47be f425 ee3b ac87 e7bb
