Actor-Critic/AC_MountainCar-v0_Model/ModelTraing2800Times.pkl (torch_old, 14034 bytes, 7 tensors)

weight f4 [64, 2]
0.908716 1.4630182 0.034393862 4.5471697 -0.5488361 2.287951 -0.12995115 5.719882
0.6311085 1.5757128 0.6253692 2.9665227 0.6312652 2.5934756 0.5697148 1.8928756
0.5857904 3.232165 0.11635607 5.834301 -0.26333097 -0.42706516 -0.11852217 -0.3050039
-0.22659132 0.033857405 0.056057565 6.65989 -0.69234806 4.7862897 0.013792936 6.8651695
1.0488594 1.5592122 -0.40520298 1.3182558 1.1703799 2.3155754 0.8811118 1.9895564
1.3050171 2.0139203 0.97015476 3.053917 -0.39616364 6.6155815 0.38419017 1.7032478
-0.13804294 0.4302541 -0.34210348 -0.015095946 0.3837002 -0.17188162 0.70431334 0.56680864
-0.033109307 -0.47198182 0.4306013 0.2194556 0.15495488 2.395574 0.35754108 0.54532474
-0.3963755 -0.11639398 -0.012292613 6.0855646 -0.0927139 -4.0509763 0.78064007 2.9681392
0.3454029 0.04031211 -0.009238005 6.358355 0.25710362 0.35052043 -0.36909387 3.3344278
-0.4670113 -0.49274814 0.043002248 -0.120496094 0.4153008 -0.40951073 -0.040524904 2.761073
-0.12500627 5.985555 0.33563226 2.9364433 0.7350377 2.7163923 0.124518506 -2.9535725
0.22614579 4.5625944 -0.13257483 0.15658456 0.6476268 -0.13082981 0.9149794 3.792967
-0.26243955 -0.4919324 0.9576819 1.6724714 0.48469204 0.14653474 0.22742158 0.52817947
0.670489 -0.4692226 0.62143034 4.1889 0.512253 0.43928188 -0.4642312 -0.5475427
-0.37799647 4.0761704 0.70474845 -0.4466621 0.3759078 1.3221749 -0.50709015 0.0066288174
00000000: 9da1 683f 2e44 bb3f 94e0 0c3d 6a82 9140
00000010: 8680 0cbf ca6d 1240 ea11 05be 4609 b740
00000020: 5490 213f f5b0 c93f 3218 203f 82db 3d40
00000030: 999a 213f 81fb 2540 d4d8 113f bf49 f23f
00000040: 5cf6 153f cbdb 4e40 174c ee3d 98b2 ba40
00000050: 51d3 86be 49a8 dabe c0bb f2bd 7929 9cbe
00000060: 8e07 68be 10ae 0a3d 9e9c 653d d21d d540
00000070: b93d 31bf 4929 9940 c4fb 613c 78af db40
00000080: 0641 863f 4494 c73f c476 cfbe 9bbc a83f
00000090: 02cf 953f 6332 1440 8b90 613f c9a9 fe3f
000000a0: cd0a a73f 12e4 0040 105c 783f 6073 4340
000000b0: f6d5 cabe d8b2 d340 93b4 c43e 0604 da3f
000000c0: 215b 0dbe 444a dc3e 3028 afbe fd54 77bc
000000d0: 5a74 c43e bc01 30be e14d 343f 5f1a 113f
000000e0: a09d 07bd 9aa7 f1be c677 dc3e f8b8 603e
000000f0: 7eac 1e3e 1651 1940 a00f b73e 679a 0b3f
00000100: bbf1 cabe f85f eebd f566 49bc f2bc c240
00000110: c9e0 bdbd 99a1 81c0 07d8 473f fef5 3d40
00000120: a6d8 b03e 501e 253d 005b 17bc a577 cb40
00000130: 16a3 833e 6a77 b33e dff9 bcbe 4467 5540
00000140: 1b1c efbe 7c49 fcbe 2023 303d a8c6 f6bd
00000150: 4ea2 d43e 64ab d1be 71fd 25bd 6cb5 3040
00000160: a501 00be ab89 bf40 fed7 ab3e b0ee 3b40
00000170: 6e2b 3c3f 5fd9 2d40 8f03 ff3d 5507 3dc0
00000180: c392 673e c600 9240 b2c1 07be b457 203e
00000190: dfca 253f 40f8 05be 173c 6a3f f9bf 7240
000001a0: 7a5e 86be 90de fbbe a42a 753f 8b13 d63f
000001b0: 8e29 f83e 340d 163e 34e1 683e c536 073f
000001c0: 2ba5 2b3f f23d f0be 0f16 1f3f 780b 8640
000001d0: 0323 033f 8ee9 e03e b6af edbe c22b 0cbf
000001e0: c188 c1be fd6f 8240 656a 343f e5b0 e4be
000001f0: fd76 c03e 073d a93f a9d0 01bf 8d36 d93b

bias f4 [64]
0.008550005 -0.01624562 -0.59825736 -0.08223321 0.029602638 -0.017248863 0.0034495266 -0.035600103
-0.0069020186 0.12525521 -0.48353386 -0.59379894 -0.32401088 0.10079911 -0.35128167 0.03581127
0.02132041 -0.5249172 0.07025807 0.0054776827 0.13432288 0.0954262 -0.14650176 -0.0070290887
-0.18611409 -0.43316963 -0.66742396 -0.45510536 -0.41309422 -0.30244577 -0.019617248 -0.30103147
-0.5284076 -0.00196935 0.2862166 0.0068266517 -0.36590806 0.015659207 -0.25742266 -0.40773612
-0.59586096 -0.32227165 -0.2165569 -0.1672374 -0.027709587 0.06778837 0.036029488 0.54437315
0.20997812 -0.17171943 -0.48917037 0.0777193 -0.37201893 0.0041885087 -0.60917175 -0.13967383
-0.45607525 -0.005539262 -0.6113087 -0.59464437 -0.28641918 -0.38234356 0.45409828 -0.664209
00000000: 5215 0c3c 8915 85bc 6527 19bf e369 a8bd
00000010: 3b81 f23c 7d4d 8dbc 7411 623b 6ad1 11bd
00000020: 542a e2bb e742 003e c091 f7be 3503 18bf
00000030: c1e4 a5be c46f ce3d 31db b3be d7ae 123d
00000040: 24a8 ae3c f960 06bf 77e3 8f3d 227e b33b
00000050: f08b 093e d06e c33d 8f04 16be 4554 e6bb
00000060: b194 3ebe 69c8 ddbe 4cdc 2abf 9203 e9be
00000070: 1681 d3be 2cda 9abe 5ab4 a0bc cc20 9abe
00000080: b845 07bf 3610 01bb fb8a 923e 1bb2 df3b
00000090: 4d58 bbbe bd47 803c e7cc 83be cac2 d0be
000000a0: 588a 18bf ca00 a5be 18c1 5dbe 4840 2bbe
000000b0: 37ff e2bc a1d4 8a3d a893 133d 0a5c 0b3f
000000c0: 8104 573e 38d7 2fbe 8a74 fabe 4c2b 9f3d
000000d0: 4479 bebe c23f 893b aef2 1bbf a806 0fbe
000000e0: b282 e9be b382 b5bb ba7e 1cbf 9d3a 18bf
000000f0: 89a5 92be 89c2 c3be 927f e83e 9a09 2abf

weight f4 [32, 64]
0.17262544 0.09887936 -0.04860391 0.3169062 0.1876933 0.3614299 0.29793692 0.062489763
0.23407164 0.2699433 0.10671878 -0.04848829 0.07529409 0.6072147 0.29450005 0.7630731
0.257391 -0.06129018 0.2994495 0.32843155 0.14960575 0.3713867 0.6818882 0.11039235
0.100246385 -0.115738295 -0.0463375 0.110215664 -0.09520732 0.11340265 -0.09558213 -0.25353026
0.06110975 0.38283518 -0.24439436 0.35090783 0.09901111 0.8237687 -0.025364682 -0.11090828
0.17366213 -0.02662827 -0.05142939 -0.006943085 0.773017 0.2019794 0.20455329 -0.22592162
0.05306615 -0.012165802 0.052503183 0.2829971 -0.1102729 0.22579153 -0.11749153 -0.088345125
-0.08321117 0.299976 0.11018823 0.029046604 0.101547405 0.05574724 -0.019226333 0.02138965
-0.0040537044 0.00035339015 -0.06577792 -0.08917449 0.0385896 0.034079887 -0.14638554 0.047851857
-0.043657925 -0.15834437 0.068426564 -0.093321815 0.11549108 -0.24820614 -0.0110098785 -0.04340654
-0.046782997 0.036705025 -0.12833677 -0.1291866 -0.1841522 -0.08148141 -0.11114027 -0.069239415
-0.092865884 -0.028606836 0.10813454 0.03688477 -0.040267527 -0.061337024 -0.18330966 0.10518086
-0.023680016 -0.05304687 -0.0630345 -0.15610123 0.070397675 -0.015011521 0.0062949955 -0.14033419
-0.113138676 0.0017213821 -0.07141715 -0.14271812 -0.09194132 -0.11300368 -0.044229705 -0.107579134
-0.09337492 -0.11791397 -0.11423257 0.032778375 -0.044715445 0.0396838 -0.020145133 -0.031414106
-0.11751327 -0.12250996 0.0819715 -0.18377985 -0.11188744 0.076157406 -0.0032755546 -0.022481916
-0.08479816 -0.06951947 -0.083793364 -0.10613506 -0.007889494 -0.10263037 -0.13027757 -0.03169749
-0.15040575 -0.08673186 0.0638767 0.046716183 0.10641727 -0.025812678 -0.058968205 -0.09696786
-0.12996958 -0.13037418 -0.028563045 -0.046976946 -0.12386107 -0.14816244 -0.16362102 0.062453035
-0.08136068 -0.08895942 -0.045964748 -0.06252073 -0.11431402 -0.07338238 0.01634849 0.027396977
-0.04409483 -0.10729405 0.019796668 0.03005052 0.12042929 -0.023591865 0.060388893 -0.070098534
-0.13313432 -0.12246022 0.07613678 -0.07822337 -0.008699322 -0.053902306 -0.17672013 -0.121379375
-0.024888543 -0.085355066 -0.12070781 -0.01622263 -0.05526106 -0.10022753 0.05049643 0.026389942
-0.046100378 0.0522385 0.06270994 -0.04435963 -0.08406144 -0.10587998 0.036454655 -0.09231003
-0.054426752 0.11762959 -0.117380746 0.31316504 0.0049509774 0.11640713 0.052838027 0.18408169
0.12181486 0.11032991 0.12417352 0.0026733875 0.098814696 0.46807665 0.23328425 0.60687494
-0.01656344 -0.03635838 0.08547931 0.0049143014 0.037243754 -0.04823464 0.3979508 -0.07472267
0.14685312 -0.0048208833 -0.021597117 0.059901923 0.050871328 -0.08249599 0.033535074 -0.18279098
-0.099388674 0.41497606 -0.107975185 0.009479561 -0.102960706 0.5414172 0.023802191 0.04087116
0.11483202 0.06794296 -0.03991069 -0.086681195 0.61258245 0.0177371 0.04521731 -0.10081118
0.079024725 0.07886294 0.04509349 0.030900579 0.09568631 0.09590413 0.08621471 0.08833924
-0.098439336 0.24584773 -0.12293135 0.1918467 0.068970665 0.059151098 -0.16861647 0.25452048
00000000: b9c4 303e 4381 ca3d e514 47bd 8841 a23e
00000010: ac32 403e 570d b93e 308b 983e 44f5 7f3d
00000020: 7ab0 6f3e 0236 8a3e 608f da3d a89b 46bd
00000030: ca33 9a3d 6c72 1b3f b6c8 963e c258 433f
00000040: c1c8 833e 690b 7bbd 7251 993e 2e28 a83e
00000050: 4032 193e 6626 be3e 3a90 2e3f 6215 e23d
00000060: fa4d cd3d 3308 edbd 64cc 3dbd c0b8 e13d
00000070: 0efc c2bd a63f e83d 90c0 c3bd b8ce 81be
00000080: 384e 7a3d f902 c43e 8442 7abe 31aa b33e
00000090: 56c6 ca3d 81e2 523f 98c9 cfbc e123 e3bd
000000a0: 7cd4 313e 8823 dabc a0a7 52bd d282 e3bb
000000b0: 71e4 453f b0d3 4e3e 6b76 513e ff57 67be
000000c0: e45b 593d 1253 47bc 940d 573d ffe4 903e
000000d0: c2d6 e1bd e535 673e 669f f0bd 4aee b4bd
000000e0: 9e6a aabd 7496 993e 5eaa e13d 25f3 ed3c
000000f0: 16f8 cf3d 3857 643d 8b80 9dbc 5939 af3c
00000100: f0d4 84bb 3947 b939 93b6 86bd 1da1 b6bd
00000110: 2110 1e3d 5a97 0b3d 17e6 15be 4f00 443d
00000120: a7d2 32bd 0725 22be 3a23 8c3d 821f bfbd
00000130: 9686 ec3d c029 7ebe c762 34bc 0ecb 31bd
00000140: 879f 3fbd 0258 163d b76a 03be 7e49 04be
00000150: 6592 3cbe badf a6bd 839d e3bd 65cd 8dbd
00000160: 7830 bebd e258 eabc a475 dd3d 7c14 173d
00000170: 90ef 24bd 883c 7bbd 87b5 3bbe 1069 d73d
00000180: 98fc c1bc ad47 59bd 3b18 81bd 00d9 1fbe
00000190: a82c 903d e2f2 75bc 4046 ce3b c4b3 0fbe
000001a0: 40b5 e7bd 00a0 e13a 2843 92bd b324 12be
000001b0: bb4b bcbd 796e e7bd 352a 35bd 7352 dcbd
000001c0: 5a3b bfbd e17c f1bd c4f2 e9bd 9e42 063d
000001d0: 8b27 37bd 7b8b 223d 6807 a5bc 14ac 00bd
000001e0: ccaa f0bd 80e6 fabd ace0 a73d c930 3cbe
000001f0: 3e25 e5bd 6af8 9b3d b0aa 56bb ff2b b8bc
00000200: a8aa adbd 3960 8ebd db9b abbd 575d d9bd
00000210: f042 01bc df2f d2bd 7c67 05be 3ad5 01bd
00000220: f703 1abe 79a0 b1bd cad1 823d 7859 3f3d
00000230: 4cf1 d93d 1c75 d3bc a588 71bd 1697 c6bd
00000240: bf16 05be cf80 05be 0cfd e9bc e66a 40bd
00000250: dfaa fdbd e5b7 17be 458c 27be c1ce 7f3d
00000260: 6ea0 a6bd 5b30 b6bd 8845 3cbd de0a 80bd
00000270: 781d eabd 8049 96bd 45ed 853c a06f e03c
00000280: c89c 34bd fcbc dbbd 9f2c a23c 822c f63c
00000290: a2a3 f63d ba43 c1bc 585a 773d d28f 8fbd
000002a0: 5d54 08be 6ccc fabd 9aed 9b3d 9333 a0bd
000002b0: 9a87 0ebc aac8 5cbd 1ff6 34be c095 f8bd
000002c0: 0fe3 cbbc a3ce aebd a835 f7bd 52e5 84bc
000002d0: 6c59 62bd 1744 cdbd 58d5 4e3d b82f d83c
000002e0: c0d3 3cbd 0af8 553d 126e 803d 72b2 35bd
000002f0: 6728 acbd 9ad7 d8bd 7a51 153d 0a0d bdbd
00000300: 96ee 5ebd c8e7 f03d 5165 f0bd 2b57 a03e
00000310: cf3b a23b dd66 ee3d b06c 583d e97f 3c3e
00000320: 127a f93d a6f4 e13d b04e fe3d 0034 2f3b
00000330: 5c5f ca3d bea7 ef3e 11e2 6e3e 285c 1b3f
00000340: 0db0 87bc 86ec 14bd c70f af3d 2608 a13b
00000350: e88c 183d b091 45bd 35c0 cb3e 3308 99bd
00000360: aa60 163e 80f8 9dbb 70ec b0bc b85b 753d
00000370: 745e 503d a8f3 a8bd 135c 093d 8f2d 3bbe
00000380: 4a8c cbbd be77 d43e 1822 ddbd 2950 1b3c
00000390: 10dd d2bd 519a 0a3f d0fc c23c 8468 273d
000003a0: 0d2d eb3d ae25 8b3d 6479 23bd e985 b1bd
000003b0: 34d2 1c3f 654d 913c c935 393d 1876 cebd
000003c0: b7d7 a13d e582 a13d f4b3 383d 3623 fd3c
000003d0: 2ff7 c33d 6269 c43d 5691 b03d 34eb b43d
000003e0: 909a c9bd 82bf 7b3e 6ec3 fbbd 7673 443e
000003f0: 7e40 8d3d 6c48 723d cca9 2cbe 8250 823e

bias f4 [32]
-0.21146676 0.055650804 -0.06699391 -0.24761605 -0.10416946 -0.08705394 0.020122733 -0.24211977
-0.16844583 -0.14545095 -0.14212056 -0.32938704 -0.18804757 -0.07323294 -0.36011425 -0.06939087
-0.074746326 -0.0982026 -0.30558392 -0.17352702 -0.25561845 1.2300336 -0.14916214 -0.0384284
-0.034530904 -0.32995278 -0.029488863 -0.1899064 -0.14505011 -0.1102985 -0.08043287 -0.4388226
00000000: be8a 58be 19f2 633d 1a34 89bd 108f 7dbe
00000010: cc56 d5bd 5649 b2bd 6ed8 a43c 3fee 77be
00000020: 107d 2cbe 18f1 14be 0d88 11be 6ba5 a8be
00000030: 8b8f 40be 27fb 95bd e560 b8be cd1c 8ebd
00000040: 9a14 99bd 721e c9bd 7f75 9cbe 11b1 31be
00000050: 6ce0 82be be71 9d3f f6bd 18be 1967 1dbd
00000060: 4770 0dbd 92ef a8be a192 f1bc d376 42be
00000070: 0488 14be 2ee4 e1bd fdb9 a4bd 5bad e0be

weight f4 [3, 32]
0.008093013 0.070273064 0.041092284 -0.05504042 -0.106429614 0.17623286 -0.11125064 -0.39951435
0.029745115 -0.051067233 0.15419677 -0.12451745 -0.169293 -0.0056172465 -0.215936 -0.0001331251
0.06973037 -0.053326853 -0.14929304 0.014728165 0.013771105 0.9508791 -0.07065317 -0.043213956
-0.10306124 -0.15489776 0.009640082 0.19383185 0.039700042 -0.0962825 0.0982416 -0.38282242
-0.16371928 0.12454785 0.18195513 -0.08939029 -0.042997964 -0.13664775 -0.068963215 -0.098426014
-0.38701883 -0.009894164 -0.12721235 -0.12054067 -0.34179768 0.095103025 -0.21798865 0.21802019
0.07169027 0.0015400059 -0.25427663 0.10086969 -0.14946996 -0.5735847 0.09266126 -0.014665493
-0.009998155 0.011117028 -0.047085684 -0.32373226 -0.051784445 -0.07039496 -0.11507263 -0.07688416
0.3065585 0.0014560935 0.08567486 0.10128331 -0.046886105 0.07232742 -0.030995676 0.26215404
0.36433464 -0.102303855 0.22761075 0.47435507 0.33371037 -0.009660336 0.35728124 -0.103110455
0.090792544 0.22777057 0.4777105 0.09480149 0.12184795 -0.3471872 0.010435037 0.070144154
-0.04877026 0.3637945 0.0829939 -0.27544144 0.013974834 -0.063130535 0.082658164 0.44451207
00000000: 8f98 043c 53eb 8f3d 6250 283d 1072 61bd
00000010: c5f7 d9bd 6376 343e 60d7 e3bd 258d ccbe
00000020: 07ac f33c e02b 51bd c2e5 1d3e 0103 ffbd
00000030: 255b 2dbe e110 b8bb 541e 5dbe 7f97 0bb9
00000040: ccce 8e3d 426d 5abd 46e0 18be 674e 713c
00000050: 33a0 613c d06c 733f 9cb2 90bd 1e01 31bd
00000060: c511 d3bd 859d 1ebe 6ff1 1d3c db7b 463e
00000070: 839c 223d c22f c5bd e432 c93d 4d01 c4be
00000080: 07a6 27be f112 ff3d 7252 3a3e 4212 b7bd
00000090: a21e 30bd 63ed 0bbe 963c 8dbd 9493 c9bd
000000a0: 5527 c6be 221b 22bc f443 02be 07de f6bd
000000b0: 1b00 afbe 60c5 c23d 6b38 5fbe af40 5f3e
000000c0: 59d2 923d 06da c93a 8c30 82be c594 ce3d
000000d0: a70e 19be 72d6 12bf 30c5 bd3d 8947 70bc
000000e0: 4dcf 23bc 3224 363c ebdc 40bd 3cc0 a5be
000000f0: ed1b 54bd 3c2b 90bd 33ab ebbd 7175 9dbd
00000100: 3cf5 9c3e 64da be3a 4d76 af3d a06d cf3d
00000110: a50b 40bd 6620 943d a5ea fdbc 0e39 863e
00000120: 128a ba3e af84 d1bd cb12 693e abde f23e
00000130: 16dc aa3e 6346 1ebc 91ed b63e 932b d3bd
00000140: 71f1 b93d b03c 693e 7896 f43e 4927 c23d
00000150: 6b8b f93d 85c2 b1be b8f7 2a3c bda7 8f3d
00000160: 53c3 47bd 4643 ba3e b5f8 a93d a906 8dbe
00000170: b4f6 643c 954a 81bd af48 a93d 1697 e33e

bias f4 [3]
0.9296333 -0.63216 -0.46320018
00000000: 73fc 6d3f 3dd5 21bf 9328 edbe

weight f4 [1, 32]
0.004999116 0.16336845 0.011376366 0.049069405 0.025098324 -0.02113983 0.12616722 0.1297674
-0.10191822 -0.10586704 -0.13745773 -0.04299134 -0.00398235 0.14795966 -0.17108822 0.12546782
-0.09874528 0.014439464 -0.008261502 0.09984709 -0.14788307 -0.12344904 0.0040543377 0.08914746
-0.08504772 0.05478862 -0.04671687 -0.16484794 0.020177275 -0.03767486 0.1045766 0.11643855
00000000: a0cf a33b 0f4a 273e f063 3a3c 00fd 483d
00000010: 009b cd3c 702d adbc fb31 013e bfe1 043e
00000020: 80ba d0bd d2d0 d8bd b8c1 0cbe b017 30bd
00000030: 607e 82bb bd82 173e c031 2fbe a37a 003e
00000040: f73a cabd 8093 6c3c 405b 07bc a27c cc3d
00000050: a96e 17be dad2 fcbd 40da 843b f292 b63d
00000060: 802d aebd 086a 603d 305a 3fbd e6cd 28be
00000070: d04a a53c f450 1abd 422c d63d 5677 ee3d
