Actor-Critic/AC_MountainCar-v0_Model/ModelTraing600Times.pkl (torch_old, 14034 bytes, 7 tensors)

weight f4 [64, 2]
00000000: fd83 3c3f e930 353f aae8 563e c438 1b40
00000010: 5b51 07bf 8601 ce3f ef94 d73c 5954 3540
00000020: e896 043f 694a 993f 9a4e e83e bbe3 0040
00000030: 4ec5 043f ee6d d63f cf76 de3e 0c2b b23f
00000040: 86c6 c13e 1da4 0440 7894 af3e a550 5140
00000050: 51d3 86be 49a8 dabe c0bb f2bd 7929 9cbe
00000060: 8e07 68be 10ae 0a3d 9112 a83e 667d 6b40
00000070: d1be 3bbf 5e4e 2a40 273a 8f3e 1d72 6840
00000080: 6c2e 5e3f 6a94 513f f83c 04bf 0f39 4a3f
00000090: fc71 823f 5d28 bd3f 63ec 303f f746 8f3f
000000a0: 9198 963f b5c0 963f 99bb 353f 50bb 0b40
000000b0: bdcb edbe e2a3 5240 2022 553c 9a6a cb3f
000000c0: 215b 0dbe 444a dc3e a04a e2be 44a7 86bc
000000d0: 5a74 c43e bc01 30be e14d 343f 5f1a 113f
000000e0: a09d 07bd 9aa7 f1be c677 dc3e f8b8 603e
000000f0: 58c3 3cbd 40ff db3f a00f b73e 679a 0b3f
00000100: bbf1 cabe f85f eebd 37f5 3a3e 0771 3a40
00000110: d60d 76be b2d5 87bf 47be 123f 48bd fc3f
00000120: a6d8 b03e 501e 253d 946b 753e e9c2 5240
00000130: 16a3 833e 6a77 b33e 38c0 13bf e416 0440
00000140: 1b1c efbe 7c49 fcbe 2023 303d a8c6 f6bd
00000150: 4ea2 d43e 64ab d1be abae 9bbe 010a ee3f
00000160: a5a9 fdbb 0293 4e40 3c9f 763e 009f dd3f
00000170: e574 023f a89c 0240 8ea8 08bc 21e9 ca3d
00000180: dce1 d33e cb46 2340 b2c1 07be b457 203e
00000190: dfca 253f 40f8 05be 032d 2c3f afce 2240
000001a0: 7a5e 86be 90de fbbe cb3d 593f 4301 643f
000001b0: 8e29 f83e 340d 163e 34e1 683e c536 073f
000001c0: 2ba5 2b3f f23d f0be dc3a fd3e 1cd6 2f40
000001d0: 0323 033f 8ee9 e03e 7e88 f1be 77bf 10bf
000001e0: d66e cdbe 6460 f23f 656a 343f e5b0 e4be
000001f0: 6df1 2c3f de10 3a3f 0d78 e2be a811 563e
0.736389 0.70777756 0.20987192 2.4253397 -0.52858514 1.6094215 0.026316134 2.8332732
0.51792765 1.1975833 0.45372468 2.0138996 0.51863563 1.6752298 0.4345002 1.3919387
0.37846774 2.0725167 0.3429296 3.2705472 -0.26333097 -0.42706516 -0.11852217 -0.3050039
-0.22659132 0.033857405 0.32826665 3.6795287 -0.7333804 2.6610332 0.27974054 3.631965
0.86789584 0.81867087 -0.5165553 0.78993315 1.0191035 1.4777943 0.691107 1.1193532
1.176531 1.177756 0.70989376 2.1833076 -0.46444502 3.2912526 0.013008624 1.5891907
-0.13804294 0.4302541 -0.4419756 -0.01643718 0.3837002 -0.17188162 0.70431334 0.56680864
-0.033109307 -0.47198182 0.4306013 0.2194556 -0.04608473 1.7187271 0.35754108 0.54532474
-0.3963755 -0.11639398 0.18257605 2.9131486 -0.24028715 -1.061209 0.5732159 1.9745264
0.3454029 0.04031211 0.23966819 3.2931464 0.25710362 0.35052043 -0.5771518 2.0638971
-0.4670113 -0.49274814 0.043002248 -0.120496094 0.4153008 -0.40951073 -0.304067 1.8596803
-0.0077411705 3.2277226 0.2408418 1.7314148 0.50959617 2.0408115 -0.008340968 0.09907747
0.41383255 2.5511959 -0.13257483 0.15658456 0.6476268 -0.13082981 0.6725618 2.543865
-0.26243955 -0.4919324 0.84859914 0.89064425 0.48469204 0.14653474 0.22742158 0.52817947
0.670489 -0.4692226 0.4945897 2.7474432 0.512253 0.43928188 -0.47174448 -0.5654215
-0.40123624 1.8935666 0.70474845 -0.4466621 0.67555887 0.7268199 -0.44232216 0.20905173

bias f4 [64]
00000000: 4198 8a3e 92be de3e 9ea7 13bf caba ff3d
00000010: 5870 a93e b18e 9e3e 88ff ba3e 6cd7 353e
00000020: d1ee 9a3e cb6f bb3e c091 f7be 3503 18bf
00000030: c1e4 a5be 4cdd ca3e 2eba a2be ab96 9f3e
00000040: 3e7f 9a3e d68f aebe c1bb b43e 43db 7a3e
00000050: 0227 d43e 8b27 fc3e e0cc 84bd d1e5 003f
00000060: b194 3ebe 5442 adbe 4cdc 2abf 9203 e9be
00000070: 1681 d3be 2cda 9abe addd a73e cc20 9abe
00000080: b845 07bf 9282 503e ba89 b83c 71b3 d33e
00000090: 4d58 bbbe 2b39 843e e7cc 83be d835 5bbe
000000a0: 588a 18bf ca00 a5be 18c1 5dbe e85e 193e
000000b0: fbb0 f13d 1410 a33e 80c0 053f 53f7 db3e
000000c0: 3631 de3e 38d7 2fbe 8a74 fabe 8d54 003f
000000d0: 4479 bebe 9bf4 e43d aef2 1bbf a806 0fbe
000000e0: b282 e9be fcdb d03e ba7e 1cbf e384 16bf
000000f0: b09c 24be 89c2 c3be 64c4 dd3d bec5 03bf
0.27069286 0.4350477 -0.5767764 0.12486799 0.33093524 0.3096824 0.3652308 0.17757958
0.30260327 0.3660873 -0.48353386 -0.59379894 -0.32401088 0.3962196 -0.3178267 0.31169638
0.30175203 -0.34094113 0.35299495 0.24497704 0.4143601 0.4924892 -0.06484389 0.5035067
-0.18611409 -0.33839667 -0.66742396 -0.45510536 -0.41309422 -0.30244577 0.32786313 -0.30103147
-0.5284076 0.20362309 0.02252661 0.4134784 -0.36590806 0.25824866 -0.25742266 -0.21407259
-0.59586096 -0.32227165 -0.2165569 0.1497761 0.118013345 0.31848204 0.52246857 0.4296213
0.4339692 -0.17171943 -0.48917037 0.50129014 -0.37201893 0.11179467 -0.60917175 -0.13967383
-0.45607525 0.40792835 -0.6113087 -0.5879652 -0.16075397 -0.38234356 0.10828474 -0.51473606

weight f4 [32, 64]
00000000: 7920 f43d 83d8 9e3d 47bf a43d 386b 153e
00000010: d434 023e c5c7 8d3e 7e11 863e af57 1a3d
00000020: b7c7 1c3e ec05 5c3e 608f da3d a89b 46bd
00000030: ca33 9a3d b06d dc3e c2cb c73d c254 ee3e
00000040: 05fd 5f3e 1ed8 bcba 46ab 813e 18a5 803e
00000050: aacb c93d ce90 943e 01b0 b13e a4f4 ca3d
00000060: fa4d cd3d 603c ddbd 64cc 3dbd c0b8 e13d
00000070: 0efc c2bd a63f e83d f439 b4bd b8ce 81be
00000080: 384e 7a3d d917 1e3e bbc9 2fbe 6dd8 873e
00000090: 56c6 ca3d 5dd9 0e3f 98c9 cfbc cda6 3c3b
000000a0: 7cd4 313e 8823 dabc a0a7 52bd 1dec cd3c
000000b0: b162 db3e 4931 8a3e 74c1 203e 0894 24be
000000c0: 6adb b03d 1253 47bc 940d 573d 3f76 453e
000000d0: c2d6 e1bd 71e9 503e 669f f0bd 4aee b4bd
000000e0: 9e6a aabd a0bb 5e3e 5eaa e13d 25f3 ed3c
000000f0: 66ae 8a3d 3857 643d 42b0 583e 4d59 f2bc
00000100: f0d4 84bb 34e8 103b 634c 92bd e637 b7bd
00000110: a68f 1e3d 5a97 0b3d a3c1 16be 4f00 443d
00000120: 6950 34bd 1d4a 22be 3a23 8c3d 821f bfbd
00000130: 9686 ec3d e4e9 1dbe 022e f1bc 67f9 16bd
00000140: 879f 3fbd 9bdf 083d b76a 03be 7e49 04be
00000150: 6592 3cbe b7dd a6bd bc69 01be b7ca 8dbd
00000160: 7830 bebd e258 eabc a475 dd3d 7c14 173d
00000170: 90ef 24bd 883c 7bbd 722b 3bbe 1069 d73d
00000180: 98fc c1bc 066d 4cbd 3158 8bbd 4b8a 1fbe
00000190: a82c 903d bf5c 95bb 4046 ce3b 9695 0fbe
000001a0: 40b5 e7bd 00a0 e13a 2843 92bd cb20 12be
000001b0: 9dfc babd 1b89 e7bd df11 35bd cc8d dabd
000001c0: 5d57 bdbd e17c f1bd c4f2 e9bd 48b1 063d
000001d0: 8b27 37bd 7b8b 223d 6807 a5bc 14ac 00bd
000001e0: ccaa f0bd 9de6 fabd ace0 a73d c930 3cbe
000001f0: 8d27 eabd 6af8 9b3d b0aa 56bb ff2b b8bc
00000200: a8aa adbd 3960 8ebd db9b abbd 575d d9bd
00000210: f042 01bc df2f d2bd 7c67 05be 3ad5 01bd
00000220: f703 1abe 79a0 b1bd cad1 823d 7859 3f3d
00000230: 4cf1 d93d 1c75 d3bc a588 71bd 1697 c6bd
00000240: bf16 05be cf80 05be 0cfd e9bc e66a 40bd
00000250: dfaa fdbd e5b7 17be 458c 27be c1ce 7f3d
00000260: 6ea0 a6bd 5b30 b6bd 8845 3cbd de0a 80bd
00000270: 781d eabd 8049 96bd 45ed 853c a06f e03c
00000280: c89c 34bd fcbc dbbd 9f2c a23c 822c f63c
00000290: a2a3 f63d ba43 c1bc 585a 773d d28f 8fbd
000002a0: 5d54 08be 6ccc fabd 9aed 9b3d 9333 a0bd
000002b0: 9a87 0ebc aac8 5cbd 1ff6 34be c095 f8bd
000002c0: 0fe3 cbbc a3ce aebd a835 f7bd 52e5 84bc
000002d0: 6c59 62bd 1744 cdbd 58d5 4e3d b82f d83c
000002e0: c0d3 3cbd 0af8 553d 126e 803d 72b2 35bd
000002f0: 6728 acbd 9ad7 d8bd 7a51 153d 0a0d bdbd
00000300: 5386 c5bc db9b 343e 557e 8f3d 4b73 6a3e
00000310: 5a20 2a3d adae 023e a94e 033e 62a1 4c3e
00000320: 3778 023e 4aa8 343e b04e fe3d 0034 2f3b
00000330: 5c5f ca3d 55c2 ed3e e1c7 873e 002f 023f
00000340: 680a ff3c 571f a13d 3db9 0b3e 65cf 5a3c
00000350: 8c8f ad3d 54d3 883b 62f3 5a3e 4d7d 35bd
00000360: aa60 163e 32da 5e3b 70ec b0bc b85b 753d
00000370: 745e 503d a8f3 a8bd 196a c43d 8f2d 3bbe
00000380: 4a8c cbbd 43e3 a83e 0c87 05be 1aaf 663d
00000390: 10dd d2bd 75de f03e d0fc c23c 5898 5d3e
000003a0: 0d2d eb3d ae25 8b3d 6479 23bd a644 5dbd
000003b0: f63c f33e 46f2 933d c1b0 a13d 9a52 81bd
000003c0: 2545 2a3e e582 a13d f4b3 383d 8c81 503d
000003d0: 2ff7 c33d 8b3f 4c3e 5691 b03d 34eb b43d
000003e0: 909a c9bd 8e58 7a3e 6ec3 fbbd 7673 443e
000003f0: 4866 e13d 6c48 723d fc98 ae3c 7f09 193e
0.11920256 0.0775614 0.08044296 0.14591682 0.12715465 0.27691475 0.2618522 0.037681278
0.1531056 0.21486634 0.10671878 -0.04848829 0.07529409 0.43052435 0.097556606 0.4654904
0.21873863 -0.001440767 0.25325984 0.25125957 0.09853299 0.29016727 0.34704593 0.09909943
0.100246385 -0.10802531 -0.0463375 0.110215664 -0.09520732 0.11340265 -0.08800116 -0.25353026
0.06110975 0.15438785 -0.17166798 0.26532307 0.09901111 0.5580042 -0.025364682 0.0028785944
0.17366213 -0.02662827 -0.05142939 0.025137002 0.42848733 0.26990727 0.15698797 -0.16072094
0.086356 -0.012165802 0.052503183 0.19283389 -0.1102729 0.20401551 -0.11749153 -0.088345125
-0.08321117 0.21751261 0.11018823 0.029046604 0.06771545 0.05574724 0.21160987 -0.029583598
-0.0040537044 0.002211106 -0.07143476 -0.08946209 0.038711213 0.034079887 -0.14722304 0.047851857
-0.044021998 -0.15848584 0.068426564 -0.093321815 0.11549108 -0.15421253 -0.029440884 -0.036858942
-0.046782997 0.03341637 -0.12833677 -0.1291866 -0.1841522 -0.081477575 -0.1263799 -0.069234304
-0.092865884 -0.028606836 0.10813454 0.03688477 -0.040267527 -0.061337024 -0.18278292 0.10518086
-0.023680016 -0.04990866 -0.068039306 -0.15580098 0.070397675 -0.0045581753 0.0062949955 -0.14021906
-0.113138676 0.0017213821 -0.07141715 -0.14270322 -0.091302134 -0.11305448 -0.044206496 -0.10671577
-0.09245179 -0.11791397 -0.11423257 0.032883912 -0.044715445 0.0396838 -0.020145133 -0.031414106
-0.11751327 -0.12251017 0.0819715 -0.18377985 -0.11433325 0.076157406 -0.0032755546 -0.022481916
-0.08479816 -0.06951947 -0.083793364 -0.10613506 -0.007889494 -0.10263037 -0.13027757 -0.03169749
-0.15040575 -0.08673186 0.0638767 0.046716183 0.10641727 -0.025812678 -0.058968205 -0.09696786
-0.12996958 -0.13037418 -0.028563045 -0.046976946 -0.12386107 -0.14816244 -0.16362102 0.062453035
-0.08136068 -0.08895942 -0.045964748 -0.06252073 -0.11431402 -0.07338238 0.01634849 0.027396977
-0.04409483 -0.10729405 0.019796668 0.03005052 0.12042929 -0.023591865 0.060388893 -0.070098534
-0.13313432 -0.12246022 0.07613678 -0.07822337 -0.008699322 -0.053902306 -0.17672013 -0.121379375
-0.024888543 -0.085355066 -0.12070781 -0.01622263 -0.05526106 -0.10022753 0.05049643 0.026389942
-0.046100378 0.0522385 0.06270994 -0.04435963 -0.08406144 -0.10587998 0.036454655 -0.09231003
-0.024111902 0.17637579 0.07006518 0.22895543 0.04153476 0.12761946 0.12822975 0.19983438
0.12741171 0.17642322 0.12417352 0.0026733875 0.098814696 0.46437326 0.26519683 0.50852966
0.031132892 0.07867306 0.13644882 0.013355111 0.08474645 0.004175583 0.21381906 -0.04430895
0.14685312 0.0034004566 -0.021597117 0.059901923 0.050871328 -0.08249599 0.09590549 -0.18279098
-0.099388674 0.32985887 -0.13039798 0.056319334 -0.102960706 0.4704472 0.023802191 0.21640146
0.11483202 0.06794296 -0.03991069 -0.054020546 0.47507447 0.07223944 0.07895041 -0.06314583
0.16627939 0.07886294 0.04509349 0.050904796 0.09568631 0.19946115 0.08621471 0.08833924
-0.098439336 0.24447843 -0.12293135 0.1918467 0.11005837 0.059151098 0.021313183 0.14945029

bias f4 [32]
00000000: ee15 5dbc a37b 303d 1a34 89bd 786a bbbb
00000010: cc56 d5bd 5649 b2bd 2491 1f3d 80b1 b1ba
00000020: 519c 69bd 18f1 14be 8643 9f3d 7c1e d43c
00000030: fd7f 8e3d 27fb 95bd 936e 09bd 14d2 2ebd
00000040: 9a14 99bd 721e c9bd 9dab 5a3c 93b4 e7bd
00000050: 890c 6dbe 90da e53d f6bd 18be 1967 1dbd
00000060: 4770 0dbd 455c b13d e740 37bd 00c5 3fba
00000070: 0488 14be 2ee4 e1bd fdb9 a4bd fc1f a4bd
-0.013493998 0.04308666 -0.06699391 -0.005719479 -0.10416946 -0.08705394 0.038956776 -0.0013556927
-0.05703384 -0.14545095 0.07776551 0.025893442 0.069580056 -0.07323294 -0.033552717 -0.042680815
-0.074746326 -0.0982026 0.01334658 -0.11313739 -0.23149313 0.11223328 -0.14916214 -0.0384284
-0.034530904 0.08660177 -0.04473963 -0.0007315427 -0.14505011 -0.1102985 -0.08043287 -0.08013913

weight f4 [3, 32]
00000000: 7c82 74bc f1cf 7a3d 6250 283d 8bce b7bd
00000010: c5f7 d9bd 6376 343e 6845 e4bd 7b93 22be
00000020: 81f2 16bd e02b 51bd 9a7f 86bd 0fed 0ebe
00000030: 6224 4fbe e110 b8bb 58dc 86be 9f2f 21b9
00000040: ccce 8e3d 426d 5abd 78a4 22be abe1 54bb
00000050: 192d 673c 528d d33d 9cb2 90bd 1e01 31bd
00000060: c511 d3bd 79be 59be 24bd 10bc b0bf 11be
00000070: 839c 223d c22f c5bd e432 c93d 4501 adbe
00000080: d98c 92bd d346 103e 7252 3a3e c9a3 f7bd
00000090: a21e 30bd 63ed 0bbe b698 8cbd 0dc0 113e
000000a0: e6fb 5cbe 221b 22bc aec6 bd3d 91c6 d93c
000000b0: 293c 64be 60c5 c23d 6d37 83bd d2a2 603e
000000c0: 59d2 923d 06da c93a 7b0a bcbd af0b f43d
000000d0: b0fc 1bbe 8277 5e3e 30c5 bd3d 8947 70bc
000000e0: 4dcf 23bc 918d 8e3d 74e9 96bd dab2 03be
000000f0: ed1b 54bd 3c2b 90bd 33ab ebbd 4787 153d
00000100: 3e23 813e 21b5 0c3c 4d76 af3d ae04 163e
00000110: a50b 40bd 6620 943d 857c fcbc 4040 af3c
00000120: ddf6 903e af84 d1bd 20e6 fd3b 4284 bc3e
00000130: e71b 873e 6346 1ebc d18f 853e 8c27 d4bd
00000140: 71f1 b93d b03c 693e 2d27 b73e 6e12 b93d
00000150: 6d12 fe3d e90c 36be b8f7 2a3c bda7 8f3d
00000160: 53c3 47bd ab45 ae3e 643b 183e b849 44bd
00000170: b4f6 643c 954a 81bd af48 a93d 62f3 a53e
-0.014923688 0.061233465 0.041092284 -0.08974942 -0.106429614 0.17623286 -0.11146051 -0.15876572
-0.036852363 -0.051067233 -0.06567307 -0.13957618 -0.20228723 -0.0056172465 -0.26339984 -0.00015371897
0.06973037 -0.053326853 -0.15883052 -0.0032483141 0.014109873 0.10329689 -0.07065317 -0.043213956
-0.10306124 -0.21264066 -0.008834157 -0.14233279 0.039700042 -0.0962825 0.0982416 -0.3379003
-0.07155771 0.14089517 0.18195513 -0.120917864 -0.042997964 -0.13664775 -0.06865065 0.14233418
-0.21580467 -0.009894164 0.09266411 0.026583942 -0.22288574 0.095103025 -0.06407056 0.21937111
0.07169027 0.0015400059 -0.091816865 0.11916291 -0.15233111 0.21725276 0.09266126 -0.014665493
-0.009998155 0.069605954 -0.073687464 -0.12861195 -0.051784445 -0.07039496 -0.11507263 0.036505964
0.252222 0.008588106 0.08567486 0.14650223 -0.046886105 0.07232742 -0.030821094 0.021392941
0.28313342 -0.102303855 0.0077483803 0.36819655 0.26388475 -0.009660336 0.26086286 -0.103591055
0.090792544 0.22777057 0.35772076 0.09036718 0.12405858 -0.17778362 0.010435037 0.070144154
-0.04877026 0.34037527 0.14866406 -0.047921866 0.013974834 -0.063130535 0.082658164 0.3241225

bias f4 [3]
00000000: aec1 423e 3c40 60be 1f5e d4bd
0.19019195 -0.21899503 -0.10369515

weight f4 [1, 32]
00000000: a0cf a33b 0f4a 273e f063 3a3c 00fd 483d
00000010: 009b cd3c 702d adbc fb31 013e bfe1 043e
00000020: 80ba d0bd d2d0 d8bd b8c1 0cbe b017 30bd
00000030: 607e 82bb bd82 173e c031 2fbe a37a 003e
00000040: f73a cabd 8093 6c3c 405b 07bc a27c cc3d
00000050: a96e 17be dad2 fcbd 40da 843b f292 b63d
00000060: 802d aebd 086a 603d 305a 3fbd e6cd 28be
00000070: d04a a53c f450 1abd 422c d63d 5677 ee3d
0.004999116 0.16336845 0.011376366 0.049069405 0.025098324 -0.02113983 0.12616722 0.1297674
-0.10191822 -0.10586704 -0.13745773 -0.04299134 -0.00398235 0.14795966 -0.17108822 0.12546782
-0.09874528 0.014439464 -0.008261502 0.09984709 -0.14788307 -0.12344904 0.0040543377 0.08914746
-0.08504772 0.05478862 -0.04671687 -0.16484794 0.020177275 -0.03767486 0.1045766 0.11643855
