Actor-Critic/AC_MountainCar-v0_Model/ModelTraing7500Times.pkl (torch_old, 14034 bytes, 7 tensors)

weight f4 [64, 2]
0.4464267 1.6641945 0.50068784 6.2554727 -0.49463052 2.274311 0.08261594 6.0455904
0.62603897 2.3201377 0.45992252 3.844121 0.6628115 3.2953682 0.45962462 3.0155246
0.4721003 3.8880155 0.32434815 6.759308 -0.26333097 -0.42706516 -0.11852217 -0.3050039
-0.22659132 0.033857405 -0.18694055 9.407412 -0.9155721 7.5333724 -0.2034518 9.69693
0.7089832 2.194892 -0.40520298 1.3182558 0.76255804 2.9953275 0.35778275 2.1847003
0.8794235 2.6359932 0.84864134 3.6398437 -0.648673 9.309057 0.48052585 2.4417083
-0.13804294 0.4302541 -0.34210348 -0.015095946 0.3837002 -0.17188162 0.70431334 0.56680864
-0.033109307 -0.47198182 0.4306013 0.2194556 0.22257797 2.9777687 0.35754108 0.54532474
-0.3963755 -0.11639398 -0.2195357 9.105677 0.16412973 -7.063094 0.7219041 3.6163142
0.3454029 0.04031211 -0.20832786 9.206074 0.25710362 0.35052043 -0.3082108 3.309661
-0.4670113 -0.49274814 0.043002248 -0.120496094 0.4153008 -0.40951073 0.05247167 2.6613524
-0.27018613 8.640239 0.26692328 3.634754 0.6939661 3.5428956 0.45404372 -5.4282894
0.061389584 6.0473394 -0.13257483 0.15658456 0.6476268 -0.13082981 1.0395346 4.4528875
-0.26243955 -0.4919324 0.70940965 2.467879 0.48469204 0.14653474 0.22742158 0.52817947
0.670489 -0.4692226 0.7080324 4.753237 0.512253 0.43928188 -0.4642312 -0.5475427
-0.105142295 4.82601 0.70474845 -0.4466621 0.4412606 1.145666 -0.50709015 0.0066288174
00000000: 0a92 e43e 5304 d53f 142d 003f d52c c840
00000010: 3640 fdbe 508e 1140 8c32 a93d 7a75 c140
00000020: 1744 203f 237d 1440 f77a eb3e 1406 7640
00000030: 04ae 293f 50e7 5240 eb53 eb3e 5bfe 4040
00000040: 21b7 f13e 3fd5 7840 f610 a63e 404c d840
00000050: 51d3 86be 49a8 dabe c0bb f2bd 7929 9cbe
00000060: 8e07 68be 10ae 0a3d 586d 3fbe c284 1641
00000070: ef62 6abf 6311 f140 ab55 50be a026 1b41
00000080: ec7f 353f 1c79 0c40 c476 cfbe 9bbc a83f
00000090: 0137 433f 72b3 3f40 4d2f b73e 21d2 0b40
000000a0: e621 613f 1db4 2840 8f40 593f 33f3 6840
000000b0: 6f0f 26bf e6f1 1441 7c07 f63e f344 1c40
000000c0: 215b 0dbe 444a dc3e 3028 afbe fd54 77bc
000000d0: 5a74 c43e bc01 30be e14d 343f 5f1a 113f
000000e0: a09d 07bd 9aa7 f1be c677 dc3e f8b8 603e
000000f0: 7beb 633e c393 3e40 a00f b73e 679a 0b3f
00000100: bbf1 cabe f85f eebd f7cd 60be dab0 1141
00000110: a011 283e de04 e2c0 b5ce 383f b171 6740
00000120: a6d8 b03e 501e 253d e653 55be 144c 1341
00000130: 16a3 833e 6a77 b33e cecd 9dbe 7cd1 5340
00000140: 1b1c efbe 7c49 fcbe 2023 303d a8c6 f6bd
00000150: 4ea2 d43e 64ab d1be 89ec 563d 9953 2a40
00000160: d655 8abe 6b3e 0a41 2baa 883e cf9f 6840
00000170: c3a7 313f cdbe 6240 6b78 e83e 8cb4 adc0
00000180: a573 7b3d ce83 c140 b2c1 07be b457 203e
00000190: dfca 253f 40f8 05be 780f 853f 0e7e 8e40
000001a0: 7a5e 86be 90de fbbe df9b 353f bbf1 1d40
000001b0: 8e29 f83e 340d 163e 34e1 683e c536 073f
000001c0: 2ba5 2b3f f23d f0be 9d41 353f 841a 9840
000001d0: 0323 033f 8ee9 e03e b6af edbe c22b 0cbf
000001e0: d854 d7bd ad6e 9a40 656a 343f e5b0 e4be
000001f0: e9ec e13e 2fa5 923f a9d0 01bf 8d36 d93b

bias f4 [64]
-0.53889185 -0.101161495 -0.63277704 -0.37198564 -0.41399387 -0.46810293 -0.4753463 -0.39438477
-0.46572763 -0.44162333 -0.48353386 -0.59379894 -0.32401088 -0.098787375 -0.32069582 -0.1049875
-0.44872618 -0.5249172 -0.48622194 -0.43586406 -0.4155159 -0.5406148 -0.3471663 -0.38327706
-0.18611409 -0.43316963 -0.66742396 -0.45510536 -0.41309422 -0.30244577 -0.3049345 -0.30103147
-0.5284076 0.014757545 0.1852488 -0.47223774 -0.36590806 -0.11010544 -0.25742266 -0.44821957
-0.59586096 -0.32227165 -0.2165569 -0.23908472 -0.16590148 -0.2988232 -0.47755876 0.3954899
-0.35207957 -0.17171943 -0.48917037 -0.4170831 -0.37201893 -0.45715624 -0.60917175 -0.13967383
-0.45607525 -0.5681269 -0.6113087 -0.59464437 -0.31857193 -0.38234356 -0.284115 -0.664209
00000000: d1f4 09bf c22d cfbd adfd 21bf e774 bebe
00000010: 01f7 d3be 30ab efbe 9760 f3be cdec c9be
00000020: da73 eebe 741c e2be c091 f7be 3503 18bf
00000030: c1e4 a5be 0951 cabd 3e32 a4be b003 d7bd
00000040: 70bf e5be f960 06bf 15f2 f8be 9329 dfbe
00000050: 80be d4be bb65 0abf c8bf b1be e43c c4be
00000060: b194 3ebe 69c8 ddbe 4cdc 2abf 9203 e9be
00000070: 1681 d3be 2cda 9abe 6020 9cbe cc20 9abe
00000080: b845 07bf a1c9 713c ddb1 3d3e 25c9 f1be
00000090: 4d58 bbbe f67e e1bd e7cc 83be 097d e5be
000000a0: 588a 18bf ca00 a5be 18c1 5dbe a0d2 74be
000000b0: 14e2 29be 5bff 98be 9582 f4be a77d ca3e
000000c0: c643 b4be 38d7 2fbe 8a74 fabe eb8b d5be
000000d0: 4479 bebe 6210 eabe aef2 1bbf a806 0fbe
000000e0: b282 e9be c470 11bf ba7e 1cbf 9d3a 18bf
000000f0: dc1b a3be 89c2 c3be 8577 91be 9a09 2abf

weight f4 [32, 64]
0.14664108 -0.22074829 -0.04229081 0.06340455 0.14789225 0.32151908 0.2860832 0.03380726
0.24379241 0.1601504 0.10671878 -0.04848829 0.07529409 0.32952598 0.41219252 0.5998025
0.17952548 -0.06129018 0.2750173 0.36184675 0.13666856 0.35416403 1.3075812 0.098571934
0.100246385 -0.115738295 -0.0463375 0.110215664 -0.09520732 0.11340265 -0.115713924 -0.25353026
0.06110975 0.1713615 -0.52438194 0.28390107 0.09901111 0.6309131 -0.025364682 -0.17464052
0.17366213 -0.02662827 -0.05142939 -0.010166383 0.58957493 0.12533875 0.17519431 -0.45925438
0.12450243 -0.012165802 0.052503183 0.2769811 -0.1102729 0.12753162 -0.11749153 -0.088345125
-0.08321117 0.3158065 0.11018823 0.029046604 -0.24195178 0.05574724 0.25997472 0.02138965
-0.0040537044 0.00031135013 -0.062526666 -0.08917449 0.0385896 0.034072567 -0.14638554 0.047851857
-0.048669733 -0.16345796 0.068426564 -0.093321815 0.11549108 -0.30428472 -0.059374407 -0.046792332
-0.046782997 0.036705025 -0.12833677 -0.1291866 -0.18417284 -0.08153553 -0.1334574 -0.069239885
-0.092865884 -0.028606836 0.10813454 0.03688477 -0.040267527 -0.061337024 -0.18330966 0.10518086
-0.023680016 -0.0611329 -0.08414596 -0.15610898 0.070397675 -0.019124208 0.0062949955 -0.13943988
-0.113138676 0.0017213821 -0.07141715 -0.14271812 -0.09969176 -0.1143585 -0.044229705 -0.11880926
-0.105345614 -0.11791397 -0.11423257 0.032773726 -0.044715445 0.0396838 -0.020145133 -0.031414106
-0.11751327 -0.12544908 0.0819715 -0.18377985 -0.111199655 0.076157406 -0.0013789082 -0.022481916
-0.08479816 -0.06951947 -0.083793364 -0.10613506 -0.007889494 -0.10263037 -0.13027757 -0.03169749
-0.15040575 -0.08673186 0.0638767 0.046716183 0.10641727 -0.025812678 -0.058968205 -0.09696786
-0.12996958 -0.13037418 -0.028563045 -0.046976946 -0.12386107 -0.14816244 -0.16362102 0.062453035
-0.08136068 -0.08895942 -0.045964748 -0.06252073 -0.11431402 -0.07338238 0.01634849 0.027396977
-0.04409483 -0.10729405 0.019796668 0.03005052 0.12042929 -0.023591865 0.060388893 -0.070098534
-0.13313432 -0.12246022 0.07613678 -0.07822337 -0.008699322 -0.053902306 -0.17672013 -0.121379375
-0.024888543 -0.085355066 -0.12070781 -0.01622263 -0.05526106 -0.10022753 0.05049643 0.026389942
-0.046100378 0.0522385 0.06270994 -0.04435963 -0.08406144 -0.10587998 0.036454655 -0.09231003
-0.10315533 0.09524943 -0.1156935 0.3042498 -0.013466535 0.09676031 0.072069995 0.19258933
0.12576675 0.25198635 0.12417352 0.0026733875 0.098814696 0.16767326 -0.15299428 0.3042536
-0.03916354 -0.03635838 0.17048226 0.019563235 0.09121033 -0.039822243 0.25987852 -0.054678135
0.14685312 -0.0048208833 -0.021597117 0.059901923 0.050871328 -0.08249599 0.06710134 -0.18279098
-0.099388674 0.007080967 -0.29692087 -0.02522521 -0.102960706 0.21424666 0.023802191 0.0048659863
0.11483202 0.06794296 -0.03991069 -0.09188235 0.31785735 0.07856259 0.040939916 -0.29156432
-0.15428783 0.07886294 0.04509349 0.03424398 0.09568631 0.06932963 0.08621471 0.08833924
-0.098439336 0.27960214 -0.12293135 0.1918467 -0.079573035 0.059151098 0.16622815 0.25452048
00000000: 1429 163e d70b 62be 2139 2dbd 3fda 813d
00000010: 1171 173e 269e a43e 7f79 923e 7b79 0a3d
00000020: b8a4 793e 77fe 233e 608f da3d a89b 46bd
00000030: ca33 9a3d a1b7 a83e e60a d33e a88c 193f
00000040: 87d5 373e 690b 7bbd 11cf 8c3e fa43 b93e
00000050: d8f2 0b3e fd54 b53e d25e a73f 15e0 c93d
00000060: fa4d cd3d 3308 edbd 64cc 3dbd c0b8 e13d
00000070: 0efc c2bd a63f e83d 6cfb ecbd b8ce 81be
00000080: 384e 7a3d 6479 2f3e e53d 06bf 7b5b 913e
00000090: 56c6 ca3d 8583 213f 98c9 cfbc f7d4 32be
000000a0: 7cd4 313e 8823 dabc a0a7 52bd e790 26bc
000000b0: 62ee 163f cd58 003e 2366 333e 6423 ebbe
000000c0: 21fb fe3d 1253 47bc 940d 573d 77d0 8d3e
000000d0: c2d6 e1bd a697 023e 669f f0bd 4aee b4bd
000000e0: 9e6a aabd 64b1 a13e 5eaa e13d 25f3 ed3c
000000f0: 35c2 77be 3857 643d 681b 853e 5939 af3c
00000100: f0d4 84bb b53c a339 fb0d 80bd 1da1 b6bd
00000110: 2110 1e3d ad8f 0b3d 17e6 15be 4f00 443d
00000120: ea59 47bd 8661 27be 3a23 8c3d 821f bfbd
00000130: 9686 ec3d 35cb 9bbe 9432 73bd 51a9 3fbd
00000140: 879f 3fbd 0258 163d b76a 03be 7e49 04be
00000150: ce97 3cbe 1afc a6bd 0fa9 08be a4cd 8dbd
00000160: 7830 bebd e258 eabc a475 dd3d 7c14 173d
00000170: 90ef 24bd 883c 7bbd 87b5 3bbe 1069 d73d
00000180: 98fc c1bc 7e66 7abd b854 acbd 08db 1fbe
00000190: a82c 903d 5faa 9cbc 4046 ce3b 54c9 0ebe
000001a0: 40b5 e7bd 00a0 e13a 2843 92bd b324 12be
000001b0: 322b ccbd ca34 eabd 352a 35bd 4552 f3bd
000001c0: 71bf d7bd e17c f1bd c4f2 e9bd be3d 063d
000001d0: 8b27 37bd 7b8b 223d 6807 a5bc 14ac 00bd
000001e0: ccaa f0bd b975 00be ace0 a73d c930 3cbe
000001f0: a5bc e3bd 6af8 9b3d 7bbc b4ba ff2b b8bc
00000200: a8aa adbd 3960 8ebd db9b abbd 575d d9bd
00000210: f042 01bc df2f d2bd 7c67 05be 3ad5 01bd
00000220: f703 1abe 79a0 b1bd cad1 823d 7859 3f3d
00000230: 4cf1 d93d 1c75 d3bc a588 71bd 1697 c6bd
00000240: bf16 05be cf80 05be 0cfd e9bc e66a 40bd
00000250: dfaa fdbd e5b7 17be 458c 27be c1ce 7f3d
00000260: 6ea0 a6bd 5b30 b6bd 8845 3cbd de0a 80bd
00000270: 781d eabd 8049 96bd 45ed 853c a06f e03c
00000280: c89c 34bd fcbc dbbd 9f2c a23c 822c f63c
00000290: a2a3 f63d ba43 c1bc 585a 773d d28f 8fbd
000002a0: 5d54 08be 6ccc fabd 9aed 9b3d 9333 a0bd
000002b0: 9a87 0ebc aac8 5cbd 1ff6 34be c095 f8bd
000002c0: 0fe3 cbbc a3ce aebd a835 f7bd 52e5 84bc
000002d0: 6c59 62bd 1744 cdbd 58d5 4e3d b82f d83c
000002e0: c0d3 3cbd 0af8 553d 126e 803d 72b2 35bd
000002f0: 6728 acbd 9ad7 d8bd 7a51 153d 0a0d bdbd
00000300: 1a43 d3bd 2212 c33d b7f0 ecbd a1c6 9b3e
00000310: bea2 5cbc 452a c63d 6f99 933d 2336 453e
00000320: 00c9 003e 5b04 813e b04e fe3d 0034 2f3b
00000330: 5c5f ca3d 8ab2 2b3e 88aa 1cbe 21c7 9b3e
00000340: f369 20bd 86ec 14bd e792 2e3e 1443 a03c
00000350: 7bcc ba3d a61c 23bd cc0e 853e 2ef6 5fbd
00000360: aa60 163e 80f8 9dbb 70ec b0bc b85b 753d
00000370: 745e 503d a8f3 a8bd 6d6c 893d 8f2d 3bbe
00000380: 4a8c cbbd 7507 e83b 0306 98be 19a5 cebc
00000390: 10dd d2bd 7a63 5b3e d0fc c23c da72 9f3b
000003a0: 0d2d eb3d ae25 8b3d 6479 23bd d02c bcbd
000003b0: 33be a23e 6ce5 a03d 9db0 273d eb47 95be
000003c0: a1fd 1dbe e582 a13d f4b3 383d 6a43 0c3d
000003d0: 2ff7 c33d b1fc 8d3d 5691 b03d 34eb b43d
000003e0: 909a c9bd 0328 8f3e 6ec3 fbbd 7673 443e
000003f0: 30f7 a2bd 6c48 723d b637 2a3e 8250 823e

bias f4 [32]
-0.6938113 0.0038076255 -0.06699391 -0.7541405 -0.10416946 -0.37387383 -0.005466705 -0.24211977
-0.35752866 -0.14545095 -0.14212056 -0.7189815 -0.5721756 -0.07323294 -0.6931831 -0.0751679
-0.074746326 -0.0982026 -0.54930645 -0.17332523 -0.25561845 1.062513 -0.14916214 -0.0384284
-0.034530904 -1.080519 -0.029488863 -0.1899064 -0.14505011 -0.1102985 -0.08043287 -0.7368747
00000000: 9e9d 31bf 5b89 793b 1a34 89bd 5a0f 41bf
00000010: cc56 d5bd 646c bfbe 0c22 b3bb 3fee 77be
00000020: ff0d b7be 18f1 14be 0d88 11be 2c0f 38bf
00000030: 1a7a 12bf 27fb 95bd 7374 31bf a1f1 99bd
00000040: 9a14 99bd 721e c9bd 599f 0cbf 2b7c 31be
00000050: 6ce0 82be 6d00 883f f6bd 18be 1967 1dbd
00000060: 4770 0dbd 724e 8abf a192 f1bc d376 42be
00000070: 0488 14be 2ee4 e1bd fdb9 a4bd d2a3 3cbf

weight f4 [3, 32]
0.23414564 0.024277538 0.041092284 -0.051249128 -0.106429614 -0.20832993 -0.11118603 -0.39951435
0.10889447 -0.051067233 0.15419677 1.252722e-05 0.066973396 -0.0056172465 -0.054813776 -0.00017626201
0.06973037 -0.053326853 -0.060482077 0.014708932 0.013771105 0.6631969 -0.07065317 -0.043213956
-0.10306124 -0.026790371 0.009640082 0.19383185 0.039700042 -0.0962825 0.0982416 -0.31049693
-0.2149427 0.113730736 0.18195513 -0.12435996 -0.042997964 0.04089037 -0.068270735 -0.098426014
-0.37805805 -0.009894164 -0.12721235 -0.20101476 -0.38116962 0.095103025 -0.2519706 0.21793328
0.07169027 0.0015400059 -0.28425008 0.10086738 -0.14946996 0.5238754 0.09266126 -0.014665493
-0.009998155 0.11919404 -0.047085684 -0.32373226 -0.051784445 -0.07039496 -0.11507263 -0.09673424
0.16972315 0.06219478 0.08567486 0.124618925 -0.046886105 0.17983237 -0.03126882 0.26215404
0.3376405 -0.102303855 0.22761075 0.44865403 0.19804053 -0.009660336 0.28377926 -0.10301839
0.090792544 0.22777057 0.46098536 0.09481484 0.12184795 -0.7819157 0.010435037 0.070144154
-0.04877026 0.20819423 0.0829939 -0.27544144 0.013974834 -0.063130535 0.082658164 0.41701192
00000000: e0c3 6f3e b0e1 c63c 6250 283d 9bea 51bd
00000010: c5f7 d9bd 7154 55be 80b5 e3bd 258d ccbe
00000020: 1004 df3d e02b 51bd c2e5 1d3e 002c 5237
00000030: 5929 893d e110 b8bb 6984 60bd f9d2 38b9
00000040: ccce 8e3d 426d 5abd 0ebc 77bd bbfd 703c
00000050: 33a0 613c 46c7 293f 9cb2 90bd 1e01 31bd
00000060: c511 d3bd 7b77 dbbc 6ff1 1d3c db7b 463e
00000070: 839c 223d c22f c5bd e432 c93d 74f9 9ebe
00000080: f019 5cbe a9eb e83d 7252 3a3e 6fb0 febd
00000090: a21e 30bd a97c 273d 87d1 8bbd 9493 c9bd
000000a0: d390 c1be 221b 22bc f443 02be d0d6 4dbe
000000b0: aa28 c3be 60c5 c23d 4a02 81be e729 5f3e
000000c0: 59d2 923d 06da c93a 3a89 91be 8f93 ce3d
000000d0: a70e 19be b31c 063f 30c5 bd3d 8947 70bc
000000e0: 4dcf 23bc 011c f43d ebdc 40bd 3cc0 a5be
000000f0: ed1b 54bd 3c2b 90bd 33ab ebbd 9a1c c6bd
00000100: e8cb 2d3e f4bf 7e3d 4d76 af3d 3538 ff3d
00000110: a50b 40bd fa25 383e bc13 00bd 0e39 863e
00000120: 37df ac3e af84 d1bd cb12 693e fbb5 e53e
00000130: 23cb 4a3e 6346 1ebc 844b 913e 4efb d2bd
00000140: 71f1 b93d b03c 693e 4606 ec3e 482e c23d
00000150: 6b8b f93d a12b 48bf b8f7 2a3c bda7 8f3d
00000160: 53c3 47bd de30 553e b5f8 a93d a906 8dbe
00000170: b4f6 643c 954a 81bd af48 a93d 9682 d53e

bias f4 [3]
0.6910983 0.12339489 -0.69518733
00000000: d1eb 303f 76b6 fc3d ccf7 31bf

weight f4 [1, 32]
0.004999116 0.16336845 0.011376366 0.049069405 0.025098324 -0.02113983 0.12616722 0.1297674
-0.10191822 -0.10586704 -0.13745773 -0.04299134 -0.00398235 0.14795966 -0.17108822 0.12546782
-0.09874528 0.014439464 -0.008261502 0.09984709 -0.14788307 -0.12344904 0.0040543377 0.08914746
-0.08504772 0.05478862 -0.04671687 -0.16484794 0.020177275 -0.03767486 0.1045766 0.11643855
00000000: a0cf a33b 0f4a 273e f063 3a3c 00fd 483d
00000010: 009b cd3c 702d adbc fb31 013e bfe1 043e
00000020: 80ba d0bd d2d0 d8bd b8c1 0cbe b017 30bd
00000030: 607e 82bb bd82 173e c031 2fbe a37a 003e
00000040: f73a cabd 8093 6c3c 405b 07bc a27c cc3d
00000050: a96e 17be dad2 fcbd 40da 843b f292 b63d
00000060: 802d aebd 086a 603d 305a 3fbd e6cd 28be
00000070: d04a a53c f450 1abd 422c d63d 5677 ee3d
