Char03 Actor-Critic/AC_MountainCar-v0_Model/ModelTraing5000Times.pkl (torch_old, 14034 bytes, 7 tensors)

weight f4 [64, 2]
0.6578322 1.4944832 0.21582155 5.523258 -0.49463052 2.274311 0.045779053 6.2236304
0.55761576 1.8213067 0.599432 3.8150635 0.6133174 3.0570593 0.5172267 2.5209718
0.53377134 3.9813051 0.2428345 6.911432 -0.26333097 -0.42706516 -0.11852217 -0.3050039
-0.22659132 0.033857405 -0.0047824807 8.082351 -0.70403063 6.276024 -0.07033354 8.418201
0.7131189 1.6406269 -0.40520298 1.3182558 0.9572626 2.809087 0.65556496 2.3153412
1.0248487 2.4466164 0.928933 3.4663692 -0.4268647 8.022979 0.40320814 2.138127
-0.13804294 0.4302541 -0.34210348 -0.015095946 0.3837002 -0.17188162 0.70431334 0.56680864
-0.033109307 -0.47198182 0.4306013 0.2194556 0.1963899 2.8597097 0.35754108 0.54532474
-0.3963755 -0.11639398 -0.07449538 7.6770077 0.065325625 -5.54195 0.7445529 3.4359658
0.3454029 0.04031211 -0.05752718 7.903711 0.25710362 0.35052043 -0.34363186 3.3262424
-0.4670113 -0.49274814 0.043002248 -0.120496094 0.4153008 -0.40951073 -0.042733688 2.759727
-0.10356683 7.5291023 0.31857017 3.6787765 0.7638746 3.2989368 0.3904589 -4.291963
0.108480975 5.850792 -0.13257483 0.15658456 0.6476268 -0.13082981 0.92980385 4.2730484
-0.26243955 -0.4919324 0.7705257 1.7593442 0.48469204 0.14653474 0.22742158 0.52817947
0.670489 -0.4692226 0.6457338 4.9401503 0.512253 0.43928188 -0.4642312 -0.5475427
-0.3630839 4.7246523 0.70474845 -0.4466621 0.59634537 0.9387358 -0.50709015 0.0066288174
00000000: b167 283f 3a4b bf3f 5300 5d3e 88be b040
00000010: 3640 fdbe 508e 1140 d182 3b3d fb27 c740
00000020: e8bf 0e3f 9420 e93f 6074 193f 002a 7440
00000030: 5e02 1d3f dca6 4340 f868 043f 9a57 2140
00000040: 3da5 083f b4cd 7e40 9ba9 783e 732a dd40
00000050: 51d3 86be 49a8 dabe c0bb f2bd 7929 9cbe
00000060: 8e07 68be 10ae 0a3d 5bb6 9cbb 4f51 0141
00000070: 5a3b 34bf 30d5 c840 080b 90bd f4b0 0641
00000080: f68e 363f 1000 d23f c476 cfbe 9bbc a83f
00000090: 290f 753f 15c8 3340 1bd3 273f 8d2e 1440
000000a0: 3e2e 833f 5d95 1c40 8ece 6d3f fed8 5d40
000000b0: 038e dabe 1f5e 0041 4c71 ce3e 13d7 0840
000000c0: 215b 0dbe 444a dc3e 3028 afbe fd54 77bc
000000d0: 5a74 c43e bc01 30be e14d 343f 5f1a 113f
000000e0: a09d 07bd 9aa7 f1be c677 dc3e f8b8 603e
000000f0: 6f1a 493e 7c05 3740 a00f b73e 679a 0b3f
00000100: bbf1 cabe f85f eebd 0991 98bd 0caa f540
00000110: 71c9 853d a857 b1c0 059b 3e3f dde6 5b40
00000120: a6d8 b03e 501e 253d 9fa1 6bbd 33eb fc40
00000130: 16a3 833e 6a77 b33e 84f0 afbe 28e1 5440
00000140: 1b1c efbe 7c49 fcbe 2023 303d a8c6 f6bd
00000150: 4ea2 d43e 64ab d1be 8509 2fbd 5e9f 3040
00000160: d91a d4bd 68ee f040 a11b a33e 1371 6b40
00000170: 498d 433f c821 5340 3bea c73e c357 89c0
00000180: 462b de3d b039 bb40 b2c1 07be b457 203e
00000190: dfca 253f 40f8 05be a007 6e3f d0bc 8840
000001a0: 7a5e 86be 90de fbbe 2c41 453f 3132 e13f
000001b0: 8e29 f83e 340d 163e 34e1 683e c536 073f
000001c0: 2ba5 2b3f f23d f0be cf4e 253f b615 9e40
000001d0: 0323 033f 8ee9 e03e b6af edbe c22b 0cbf
000001e0: 22e6 b9be 5a30 9740 656a 343f e5b0 e4be
000001f0: 17aa 183f fd50 703f a9d0 01bf 8d36 d93b

bias f4 [64]
-0.12994248 0.010771594 -0.63277704 -0.16042414 -0.036454845 0.12437075 -0.053002026 -0.005543877
0.11074827 0.012285981 -0.48353386 -0.59379894 -0.32401088 0.18226553 -0.2996214 0.13341123
-0.054281835 -0.5249172 0.24285744 0.08695157 0.3559851 0.01959379 -0.12643598 -0.0021536206
-0.18611409 -0.43316963 -0.66742396 -0.45510536 -0.41309422 -0.30244577 0.019908778 -0.30103147
-0.5284076 0.11625883 0.15964828 0.027144639 -0.36590806 0.12802976 -0.25742266 -0.42377698
-0.59586096 -0.32227165 -0.2165569 -0.16780584 0.0945782 0.122708365 0.017714804 0.3084835
0.1648327 -0.17171943 -0.48917037 0.046020295 -0.37201893 -0.08142058 -0.60917175 -0.13967383
-0.45607525 -0.0007058942 -0.6113087 -0.59464437 -0.09816071 -0.38234356 0.14889988 -0.664209
00000000: a40f 05be 577b 303c adfd 21bf 3a46 24be
00000010: ad51 15bd 17b6 fe3d a718 59bd 69a9 b5bb
00000020: fdcf e23d 244b 493c c091 f7be 3503 18bf
00000030: c1e4 a5be d1a3 3a3e fa67 99be f49c 083e
00000040: a156 5ebd f960 06bf 9faf 783e aa13 b23d
00000050: ae43 b63e 2883 a03c 6f78 01be c223 0dbb
00000060: b194 3ebe 69c8 ddbe 4cdc 2abf 9203 e9be
00000070: 1681 d3be 2cda 9abe bc17 a33c cc20 9abe
00000080: b845 07bf 1c19 ee3d d77a 233e 6f5e de3c
00000090: 4d58 bbbe 3c1a 033e e7cc 83be 4cf9 d8be
000000a0: 588a 18bf ca00 a5be 18c1 5dbe 4bd5 2bbe
000000b0: 37b2 c13d 864e fb3d a31e 913c 8df1 9d3e
000000c0: e7c9 283e 38d7 2fbe 8a74 fabe c77f 3c3d
000000d0: 4479 bebe d5bf a6bd aef2 1bbf a806 0fbe
000000e0: b282 e9be c20b 39ba ba7e 1cbf 9d3a 18bf
000000f0: 7b08 c9bd 89c2 c3be 3679 183e 9a09 2abf

weight f4 [32, 64]
0.16638222 0.16024077 -0.04229081 0.3730613 0.19293636 0.32914877 0.3210956 0.052712157
0.18181741 0.5158486 0.10671878 -0.04848829 0.07529409 0.8734364 0.23433599 1.1179595
0.24531421 -0.06129018 0.3169316 0.23592593 0.13952439 0.3957258 0.90475 0.11630959
0.100246385 -0.115738295 -0.0463375 0.110215664 -0.09520732 0.11340265 -0.11001851 -0.25353026
0.06110975 0.6858209 -0.33736682 0.35752663 0.09901111 1.1463298 -0.025364682 -0.13394052
0.17366213 -0.02662827 -0.05142939 -0.0068536727 1.0857699 0.17609245 0.22614743 -0.17104343
0.22874935 -0.012165802 0.052503183 0.3197311 -0.1102729 0.21321969 -0.11749153 -0.088345125
-0.08321117 0.3258313 0.11018823 0.029046604 -0.0887194 0.05574724 0.19294576 0.02138965
-0.0040537044 0.00031135013 -0.062526666 -0.08917449 0.0385896 0.034072567 -0.14638554 0.047851857
-0.048669733 -0.16345796 0.068426564 -0.093321815 0.11549108 -0.30428472 -0.03990744 -0.046792332
-0.046782997 0.036705025 -0.12833677 -0.1291866 -0.18417284 -0.08153553 -0.1334574 -0.069239885
-0.092865884 -0.028606836 0.10813454 0.03688477 -0.040267527 -0.061337024 -0.18330966 0.10518086
-0.023680016 -0.061055835 -0.08414596 -0.15610898 0.070397675 -0.019124208 0.0062949955 -0.13943988
-0.113138676 0.0017213821 -0.07141715 -0.14271812 -0.09969176 -0.1143585 -0.044229705 -0.11834051
-0.105345614 -0.11791397 -0.11423257 0.032773726 -0.044715445 0.0396838 -0.020145133 -0.031414106
-0.11751327 -0.12544908 0.0819715 -0.18377985 -0.111199655 0.076157406 -0.0013789082 -0.022481916
-0.08479816 -0.06951947 -0.083793364 -0.10613506 -0.007889494 -0.10263037 -0.13027757 -0.03169749
-0.15040575 -0.08673186 0.0638767 0.046716183 0.10641727 -0.025812678 -0.058968205 -0.09696786
-0.12996958 -0.13037418 -0.028563045 -0.046976946 -0.12386107 -0.14816244 -0.16362102 0.062453035
-0.08136068 -0.08895942 -0.045964748 -0.06252073 -0.11431402 -0.07338238 0.01634849 0.027396977
-0.04409483 -0.10729405 0.019796668 0.03005052 0.12042929 -0.023591865 0.060388893 -0.070098534
-0.13313432 -0.12246022 0.07613678 -0.07822337 -0.008699322 -0.053902306 -0.17672013 -0.121379375
-0.024888543 -0.085355066 -0.12070781 -0.01622263 -0.05526106 -0.10022753 0.05049643 0.026389942
-0.046100378 0.0522385 0.06270994 -0.04435963 -0.08406144 -0.10587998 0.036454655 -0.09231003
-0.041009773 0.1504356 -0.1156935 0.3462095 0.027868625 0.110988155 0.08955826 0.20691817
0.09261986 0.29764068 0.12417352 0.0026733875 0.098814696 0.6005585 0.1768951 0.7442565
0.014786879 -0.03635838 0.146987 -0.036369734 0.07659724 -0.0017192686 0.5132177 -0.06411644
0.14685312 -0.0048208833 -0.021597117 0.059901923 0.050871328 -0.08249599 0.04656639 -0.18279098
-0.099388674 0.49427304 -0.15144996 0.036194675 -0.102960706 0.66283685 0.023802191 0.01983008
0.11483202 0.06794296 -0.03991069 -0.08661787 0.7316012 0.058667917 0.075691275 -0.10280561
0.115278564 0.07886294 0.04509349 0.08319109 0.09568631 0.12504683 0.08621471 0.08833924
-0.098439336 0.2810654 -0.12293135 0.1918467 0.050469555 0.059151098 0.10511242 0.25452048
00000000: 1a60 2a3e 2816 243e 2139 2dbd e401 bf3e
00000010: 1c91 453e 3086 a83e a466 a43e b4e8 573d
00000020: 582e 3a3e a70e 043f 608f da3d a89b 46bd
00000030: ca33 9a3d 8799 5f3f c6f5 6f3e 4c19 8f3f
00000040: a633 7b3e 690b 7bbd dc44 a23e 9196 713e
00000050: 7bdf 0e3e 929c ca3e b29d 673f b933 ee3d
00000060: fa4d cd3d 3308 edbd 64cc 3dbd c0b8 e13d
00000070: 0efc c2bd a63f e83d 6251 e1bd b8ce 81be
00000080: 384e 7a3d f591 2f3f 58bb acbe bb0d b73e
00000090: 56c6 ca3d efba 923f 98c9 cfbc b427 09be
000000a0: 7cd4 313e 8823 dabc a0a7 52bd c694 e0bb
000000b0: 82fa 8a3f 9451 343e 3193 673e 0226 2fbe
000000c0: 453d 6a3e 1253 47bc 940d 573d cbb3 a33e
000000d0: c2d6 e1bd 4356 5a3e 669f f0bd 4aee b4bd
000000e0: 9e6a aabd 5cd3 a63e 5eaa e13d 25f3 ed3c
000000f0: 84b2 b5bd 3857 643d 9393 453e 5939 af3c
00000100: f0d4 84bb b53c a339 fb0d 80bd 1da1 b6bd
00000110: 2110 1e3d ad8f 0b3d 17e6 15be 4f00 443d
00000120: ea59 47bd 8661 27be 3a23 8c3d 821f bfbd
00000130: 9686 ec3d 35cb 9bbe fc75 23bd 51a9 3fbd
00000140: 879f 3fbd 0258 163d b76a 03be 7e49 04be
00000150: ce97 3cbe 1afc a6bd 0fa9 08be a4cd 8dbd
00000160: 7830 bebd e258 eabc a475 dd3d 7c14 173d
00000170: 90ef 24bd 883c 7bbd 87b5 3bbe 1069 d73d
00000180: 98fc c1bc af15 7abd b854 acbd 08db 1fbe
00000190: a82c 903d 5faa 9cbc 4046 ce3b 54c9 0ebe
000001a0: 40b5 e7bd 00a0 e13a 2843 92bd b324 12be
000001b0: 322b ccbd ca34 eabd 352a 35bd 825c f2bd
000001c0: 71bf d7bd e17c f1bd c4f2 e9bd be3d 063d
000001d0: 8b27 37bd 7b8b 223d 6807 a5bc 14ac 00bd
000001e0: ccaa f0bd b975 00be ace0 a73d c930 3cbe
000001f0: a5bc e3bd 6af8 9b3d 7bbc b4ba ff2b b8bc
00000200: a8aa adbd 3960 8ebd db9b abbd 575d d9bd
00000210: f042 01bc df2f d2bd 7c67 05be 3ad5 01bd
00000220: f703 1abe 79a0 b1bd cad1 823d 7859 3f3d
00000230: 4cf1 d93d 1c75 d3bc a588 71bd 1697 c6bd
00000240: bf16 05be cf80 05be 0cfd e9bc e66a 40bd
00000250: dfaa fdbd e5b7 17be 458c 27be c1ce 7f3d
00000260: 6ea0 a6bd 5b30 b6bd 8845 3cbd de0a 80bd
00000270: 781d eabd 8049 96bd 45ed 853c a06f e03c
00000280: c89c 34bd fcbc dbbd 9f2c a23c 822c f63c
00000290: a2a3 f63d ba43 c1bc 585a 773d d28f 8fbd
000002a0: 5d54 08be 6ccc fabd 9aed 9b3d 9333 a0bd
000002b0: 9a87 0ebc aac8 5cbd 1ff6 34be c095 f8bd
000002c0: 0fe3 cbbc a3ce aebd a835 f7bd 52e5 84bc
000002d0: 6c59 62bd 1744 cdbd 58d5 4e3d b82f d83c
000002e0: c0d3 3cbd 0af8 553d 126e 803d 72b2 35bd
000002f0: 6728 acbd 9ad7 d8bd 7a51 153d 0a0d bdbd
00000300: ddf9 27bd ca0b 1a3e b7f0 ecbd 5f42 b13e
00000310: be4c e43c c24d e33d 526a b73d 5be2 533e
00000320: 7baf bd3d 5c64 983e b04e fe3d 0034 2f3b
00000330: 5c5f ca3d 34be 193f fd23 353e 9887 3e3f
00000340: aa44 723c 86ec 14bd c383 163e 6ef8 14bd
00000350: 04df 9c3d 1559 e1ba 3c62 033f 7b4f 83bd
00000360: aa60 163e 80f8 9dbb 70ec b0bc b85b 753d
00000370: 745e 503d a8f3 a8bd 66bc 3e3d 8f2d 3bbe
00000380: 4a8c cbbd 5b11 fd3e b315 1bbe de40 143d
00000390: 10dd d2bd adaf 293f d0fc c23c b172 a23c
000003a0: 0d2d eb3d ae25 8b3d 6479 23bd b664 b1bd
000003b0: 374a 3b3f c54d 703d 0704 9b3d bf8b d2bd
000003c0: 2b17 ec3d e582 a13d f4b3 383d 1760 aa3d
000003d0: 2ff7 c33d 470c 003e 5691 b03d 34eb b43d
000003e0: 909a c9bd cee7 8f3e 6ec3 fbbd 7673 443e
000003f0: 2ab9 4e3d 6c48 723d 2e45 d73d 8250 823e

bias f4 [32]
-0.19884023 0.014075359 -0.06699391 -0.30779302 -0.10416946 -0.08705394 0.020122733 -0.24211977
-0.08146686 -0.14545095 -0.14212056 -0.34338224 -0.18295917 -0.07323294 -0.33803195 -0.0751679
-0.074746326 -0.0982026 -0.2705943 -0.17332523 -0.25561845 1.2776334 -0.14916214 -0.0384284
-0.034530904 -0.34709772 -0.029488863 -0.1899064 -0.14505011 -0.1102985 -0.08043287 -0.4472246
00000000: c69c 4bbe 569c 663c 1a34 89bd 0c97 9dbe
00000010: cc56 d5bd 5649 b2bd 6ed8 a43c 3fee 77be
00000020: 19d8 a6bd 18f1 14be 0d88 11be cccf afbe
00000030: a659 3bbe 27fb 95bd 8612 adbe a1f1 99bd
00000040: 9a14 99bd 721e c9bd 568b 8abe 2b7c 31be
00000050: 6ce0 82be 7e89 a33f f6bd 18be 1967 1dbd
00000060: 4770 0dbd cbb6 b1be a192 f1bc d376 42be
00000070: 0488 14be 2ee4 e1bd fdb9 a4bd 9ffa e4be

weight f4 [3, 32]
-0.01893851 0.024171133 0.041092284 -0.053641513 -0.106429614 0.17623286 -0.11125064 -0.39951435
-0.016432488 -0.051067233 0.15419677 -0.20539182 -0.20227054 -0.0056172465 -0.30025113 -0.00017626201
0.06973037 -0.053326853 -0.23399834 0.014708932 0.013771105 1.0373461 -0.07065317 -0.043213956
-0.10306124 -0.25407055 0.009640082 0.19383185 0.039700042 -0.0962825 0.0982416 -0.5248461
-0.31732607 0.11427308 0.18195513 -0.13966624 -0.042997964 -0.13664775 -0.068963215 -0.098426014
-0.52457166 -0.009894164 -0.12721235 -0.2525636 -0.50543326 0.095103025 -0.3622143 0.21793328
0.07169027 0.0015400059 -0.41154802 0.10086738 -0.14946996 -0.4438955 0.09266126 -0.014665493
-0.009998155 -0.106183074 -0.047085684 -0.32373226 -0.051784445 -0.07039496 -0.11507263 -0.17501797
0.42947674 0.062185816 0.08567486 0.1340678 -0.046886105 0.07232742 -0.030995676 0.26215404
0.48681894 -0.102303855 0.22761075 0.62410086 0.4649014 -0.009660336 0.5151645 -0.10301839
0.090792544 0.22777057 0.6436902 0.09481484 0.12184795 -0.5010963 0.010435037 0.070144154
-0.04877026 0.5157262 0.0829939 -0.27544144 0.013974834 -0.063130535 0.082658164 0.61189854
00000000: ef24 9bbc 8a02 c63c 6250 283d 34b7 5bbd
00000010: c5f7 d9bd 6376 343e 60d7 e3bd 258d ccbe
00000020: 6d9d 86bc e02b 51bd c2e5 1d3e 3c52 52be
00000030: 0220 4fbe e110 b8bb 84ba 99be f9d2 38b9
00000040: ccce 8e3d 426d 5abd 439d 6fbe bbfd 703c
00000050: 33a0 613c c2c7 843f 9cb2 90bd 1e01 31bd
00000060: c511 d3bd 8915 82be 6ff1 1d3c db7b 463e
00000070: 839c 223d c22f c5bd e432 c93d 505c 06bf
00000080: 9078 a2be 0108 ea3d 7252 3a3e ab04 0fbe
00000090: a21e 30bd 63ed 0bbe 963c 8dbd 9493 c9bd
000000a0: 544a 06bf 221b 22bc f443 02be 0450 81be
000000b0: 1364 01bf 60c5 c23d 2774 b9be e729 5f3e
000000c0: 59d2 923d 06da c93a 6cb6 d2be 8f93 ce3d
000000d0: a70e 19be 4546 e3be 30c5 bd3d 8947 70bc
000000e0: 4dcf 23bc 8376 d9bd ebdc 40bd 3cc0 a5be
000000f0: ed1b 54bd 3c2b 90bd 33ab ebbd e937 33be
00000100: 60e4 db3e 8eb6 7e3d 4d76 af3d 1249 093e
00000110: a50b 40bd 6620 943d a5ea fdbc 0e39 863e
00000120: 5540 f93e af84 d1bd cb12 693e 13c5 1f3f
00000130: 8e07 ee3e 6346 1ebc d2e1 033f 4efb d2bd
00000140: 71f1 b93d b03c 693e e2c8 243f 482e c23d
00000150: 6b8b f93d d947 00bf b8f7 2a3c bda7 8f3d
00000160: 53c3 47bd a206 043f b5f8 a93d a906 8dbe
00000170: b4f6 643c 954a 81bd af48 a93d 62a5 1c3f

bias f4 [3]
1.0480042 -0.7256517 -0.5234267
00000000: 0025 863f 4fc4 39bf 4bff 05bf

weight f4 [1, 32]
0.004999116 0.16336845 0.011376366 0.049069405 0.025098324 -0.02113983 0.12616722 0.1297674
-0.10191822 -0.10586704 -0.13745773 -0.04299134 -0.00398235 0.14795966 -0.17108822 0.12546782
-0.09874528 0.014439464 -0.008261502 0.09984709 -0.14788307 -0.12344904 0.0040543377 0.08914746
-0.08504772 0.05478862 -0.04671687 -0.16484794 0.020177275 -0.03767486 0.1045766 0.11643855
00000000: a0cf a33b 0f4a 273e f063 3a3c 00fd 483d
00000010: 009b cd3c 702d adbc fb31 013e bfe1 043e
00000020: 80ba d0bd d2d0 d8bd b8c1 0cbe b017 30bd
00000030: 607e 82bb bd82 173e c031 2fbe a37a 003e
00000040: f73a cabd 8093 6c3c 405b 07bc a27c cc3d
00000050: a96e 17be dad2 fcbd 40da 843b f292 b63d
00000060: 802d aebd 086a 603d 305a 3fbd e6cd 28be
00000070: d04a a53c f450 1abd 422c d63d 5677 ee3d
