Char03 Actor-Critic/AC_MountainCar-v0_Model/ModelTraing200Times.pkl (torch_old, 14034 bytes, 7 tensors)

weight f4 [64, 2]
0	0x3f349932	0.7054626
1	0x3e87dad6	0.26534146
2	0x3d7af1fe	0.061265938
3	0x3fcfeff5	1.6245104
4	0xbf28a84f	-0.6588182
5	0x3fc3081e	1.5236852
6	0x3d0bdb42	0.034144647
7	0x3fc8b7e0	1.5681114
8	0x3ea24afb	0.3169783
9	0x3f4e9331	0.80693346
10	0x3ed890fd	0.42298117
11	0x3f95fbea	1.1717503
12	0x3ed73ef2	0.4204021
13	0x3f737d9a	0.9511353
14	0x3e8497dc	0.2589711
15	0x3f5cc9a6	0.8624519
16	0x3e813580	0.2523613
17	0x3f9a0156	1.2031658
18	0x3f233728	0.63756037
19	0x3f93ae3c	1.1537547
20	0xbe86d351	-0.26333097
21	0xbedaa849	-0.42706516
22	0xbdf2bbc0	-0.11852217
23	0xbe9c2979	-0.3050039
24	0xbe68078e	-0.22659132
25	0x3d0aae10	0.033857405
26	0x3f0e5dbf	0.55611795
27	0x3fd38235	1.6524111
28	0xbf2f13ce	-0.68389595
29	0x3fde2440	1.7354813
30	0x3eb57f75	0.35448804
31	0x3ff146a3	1.8849682
32	0x3f4b9738	0.79527617
33	0x3eaa96ec	0.3331827
34	0xbf1d60d3	-0.6147587
35	0x3f1e6d38	0.61885405
36	0x3f6a80dc	0.91602874
37	0x3f73abdd	0.9518412
38	0x3f1f359b	0.6219117
39	0x3f321be9	0.6957384
40	0x3f88d30c	1.0689406
41	0x3f388fd9	0.72094494
42	0x3f35db35	0.7103761
43	0x3fa993c7	1.3248223
44	0xbec1c0f3	-0.3784252
45	0x3fd74e31	1.6820737
46	0xbe5f0e09	-0.21782698
47	0x3fb3228a	1.3994915
48	0xbe0d635e	-0.13807437
49	0x3edc458e	0.43021816
50	0xbeda5a71	-0.42647126
51	0x3c18612f	0.009300514
52	0x3ec4745a	0.3837002
53	0xbe3001bc	-0.17188162
54	0x3f344de1	0.70431334
55	0x3f111a5f	0.56680864
56	0xbd079da0	-0.033109307
57	0xbef1a79a	-0.47198182
58	0x3edc77c6	0.4306013
59	0x3e60b8f8	0.2194556
60	0xbe89b9fd	-0.2689971
61	0x3fc7cf57	1.561015
62	0x3eebc599	0.46049193
63	0x3f27f9f8	0.656158
64	0xbecaf1bb	-0.3963755
65	0xbdee5ff8	-0.11639398
66	0x3e58dffd	0.21179195
67	0x3fc3a428	1.5284472
68	0xbedda2a8	-0.4328816
69	0x3e757665	0.23970945
70	0x3f0fa41d	0.5610979
71	0x3f885d8e	1.0653551
72	0x3eb0d8a6	0.3454029
73	0x3d251e50	0.04031211
74	0x3e783141	0.24237539
75	0x3fc3550a	1.5260327
76	0x3e83a316	0.25710362
77	0x3eb3776a	0.35052043
78	0xbf04519f	-0.51687044
79	0x3fb48177	1.410201
80	0xbeef1c1b	-0.4670113
81	0xbefc497c	-0.49274814
82	0x3d302320	0.043002248
83	0xbdf6c6a8	-0.120496094
84	0x3ed4a24e	0.4153008
85	0xbed1ab64	-0.40951073
86	0xbef7a267	-0.4836609
87	0x3fc10f6f	1.5082835
88	0x3d990a20	0.07472634
89	0x3fc4abbb	1.5364908
90	0x3ef1b644	0.4720937
91	0x3f1eeb57	0.6207785
92	0x3ea8be79	0.3295782
93	0x3fb1c075	1.3886858
94	0xbe8c1b90	-0.2736478
95	0x3f26539a	0.64971316
96	0x3ee32404	0.44363415
97	0x3fc30a87	1.5237588
98	0xbe07cdd9	-0.13262118
99	0x3e205335	0.15656741
100	0x3f25cadf	0.6476268
101	0xbe05f840	-0.13082981
102	0x3f2069b1	0.6266127
103	0x3fd0d754	1.6315713
104	0xbea4dc5e	-0.32199377
105	0xbefa6e93	-0.48912486
106	0x3f425055	0.75903827
107	0x3eb841de	0.35987753
108	0x3ef8298e	0.48469204
109	0x3e160d34	0.14653474
110	0x3e68e134	0.22742158
111	0x3f0736c5	0.52817947
112	0x3f2ba52b	0.670489
113	0xbef03df2	-0.4692226
114	0x3e8a1350	0.2696786
115	0x3fe1fdc9	1.7655574
116	0x3f032303	0.512253
117	0x3ee0e98e	0.43928188
118	0xbf001093	-0.5002529
119	0xbf11bb68	-0.56926584
120	0xbea1219c	-0.31470954
121	0x3f7f05b5	0.99618083
122	0x3f346a65	0.70474845
123	0xbee4b0e5	-0.4466621
124	0x3f0d0a43	0.55093783
125	0x3eccb9c1	0.3998547
126	0xbefd6390	-0.49490023
127	0x3e4dbe7f	0.200922

bias f4 [64]
0	0x3e93c378	0.28860068
1	0x3f1b8572	0.60750496
2	0xbee9276d	-0.45537892
3	0x3e142bd4	0.14469844
4	0x3f07fb86	0.5311817
5	0x3ec2905f	0.3800077
6	0x3eec72a4	0.46181214
7	0x3ead13d2	0.33804184
8	0x3ee08b7b	0.43856415
9	0x3e96f4c9	0.2948363
10	0xbef791c0	-0.48353386
11	0xbf180335	-0.59379894
12	0xbea5e4c1	-0.32401088
13	0x3e9da2e7	0.30788347
14	0xbedb8bfa	-0.4288023
15	0x3e9a2d53	0.30112705
16	0x3ea65ead	0.32494107
17	0xbe8741d3	-0.26417407
18	0x3ecaea4d	0.39631882
19	0x3e8a211b	0.26978382
20	0x3ef70e11	0.4825292
21	0x3f0b66cb	0.54453725
22	0xbe677099	-0.22601546
23	0x3f369ab8	0.7132983
24	0xbe3e8c2d	-0.1860816
25	0xbeb41aea	-0.35176784
26	0xbf2adc4c	-0.66742396
27	0xbee90392	-0.45510536
28	0xbed38116	-0.41309422
29	0xbe9ada2c	-0.30244577
30	0x3f0a455e	0.54012096
31	0xbe57c7b5	-0.21072276
32	0xbf0745b8	-0.5284076
33	0x3e572a32	0.2101219
34	0x3e2672b4	0.16254693
35	0x3ef2cb88	0.47420907
36	0xbebb584d	-0.36590806
37	0x3e8c20ea	0.2736886
38	0xbe83cce7	-0.25742266
39	0xbe9e10d4	-0.30872214
40	0xbf188a58	-0.59586096
41	0xbea500ca	-0.32227165
42	0xbe5dc118	-0.2165569
43	0x3ea287d3	0.3174425
44	0x3dec627b	0.11542221
45	0x3e75f99f	0.24021004
46	0x3f35b5f5	0.7098077
47	0x3f24fb4b	0.6444594
48	0x3ef14cf4	0.47129023
49	0xbe2fcd29	-0.17168106
50	0xbefa748a	-0.48917037
51	0x3f158ad7	0.5841498
52	0xbea7de93	-0.32786998
53	0x3ddec6b0	0.108777404
54	0xbf1bf2ae	-0.60917175
55	0xbe0f06a8	-0.13967383
56	0xbee982b2	-0.45607525
57	0x3f1f18da	0.62147295
58	0xbf1c7eba	-0.6113087
59	0xbf0ff322	-0.56230366
60	0xbe673d44	-0.22581965
61	0xbec3c289	-0.38234356
62	0x3e6517b2	0.2237232
63	0xbef05928	-0.4694302

weight f4 [32, 64]
0	0x3e0620de	0.13098475
1	0x3e05994f	0.13046764
2	0x3e25b928	0.16183913
3	0x3d8b6596	0.06806485
4	0x3e3fca45	0.18729503
5	0x3e81897e	0.2530021
6	0x3e866ff2	0.26257282
7	0x3d1f6eb3	0.03892393
8	0x3e2b746a	0.16743627
9	0x3e14dfd9	0.14538516
10	0x3dda8f60	0.10671878
11	0xbd469ba8	-0.04848829
12	0x3d9a33ca	0.07529409
13	0x3e8c8ff0	0.27453566
14	0x3dbb3d80	0.091425896
15	0x3e9fe10d	0.31226388
16	0x3e6042f8	0.21900547
17	0x3d3785c5	0.044805307
18	0x3e7b7329	0.24555649
19	0x3e79992d	0.24374838
20	0x3dc6ac22	0.097008005
21	0x3e910bbc	0.28329265
22	0x3e7ba2a1	0.24573757
23	0x3e47eaf3	0.1952322
24	0x3dcd53e4	0.100257665
25	0xbdbca7b0	-0.09211671
26	0xbd3dcc64	-0.0463375
27	0x3de1b8c0	0.110215664
28	0xbdc2fc0e	-0.09520732
29	0x3de83fa6	0.11340265
30	0xbb11ccbc	-0.0022247275
31	0xbd795954	-0.060876206
32	0x3d7a4e38	0.06110975
33	0x3d9a0764	0.07520941
34	0xbd0cf6b1	-0.03441495
35	0x3e8599d1	0.26093915
36	0x3dcac656	0.09901111
37	0x3ecf2683	0.4045907
38	0xbccfc998	-0.025364682
39	0x3c348df1	0.01102017
40	0x3e31d47c	0.17366213
41	0xbcda2388	-0.02662827
42	0xbd52a7a0	-0.05142939
43	0x3dcd36bd	0.10020206
44	0x3e4cdbc1	0.20005704
45	0x3e7fdcbe	0.2498655
46	0x3e5c4949	0.21512331
47	0xbd184bd3	-0.037181687
48	0x3d8462ed	0.06464181
49	0xbc473573	-0.012158739
50	0x3d570d94	0.052503183
51	0x3e3c2c36	0.1837624
52	0xbdbe9dad	-0.09307418
53	0x3e39dc18	0.18150365
54	0xbdf09f66	-0.11749153
55	0xbdb4ee4a	-0.088345125
56	0xbdaa6a9e	-0.08321117
57	0x3e81b604	0.2533418
58	0x3de1aa5e	0.11018823
59	0xbd46261f	-0.0483762
60	0x3d834884	0.06410316
61	0x3d645738	0.05574724
62	0x3e547cd6	0.20750746
63	0xbc54b1fc	-0.012981888
64	0xbb84d4f0	-0.0040537044
65	0x3b10e834	0.002211106
66	0xbd924c63	-0.07143476
67	0xbdb737e6	-0.08946209
68	0x3d1e8fa6	0.038711213
69	0x3d0b975a	0.034079887
70	0xbe16c1a3	-0.14722304
71	0x3d44004f	0.047851857
72	0xbd345069	-0.044021998
73	0xbe224a1d	-0.15848584
74	0x3d8c233a	0.068426564
75	0xbdbf1f82	-0.093321815
76	0x3dec8696	0.11549108
77	0xbe1de9e4	-0.15421253
78	0xbcf12e02	-0.029440884
79	0xbd16f967	-0.036858942
80	0xbd3f9f87	-0.046782997
81	0x3d08df9b	0.03341637
82	0xbe036ab7	-0.12833677
83	0xbe04497e	-0.1291866
84	0xbe3c9265	-0.1841522
85	0xbda6ddb7	-0.081477575
86	0xbe0169bc	-0.1263799
87	0xbd8dcab7	-0.069234304
88	0xbdbe3078	-0.092865884
89	0xbcea58e2	-0.028606836
90	0x3ddd75a4	0.10813454
91	0x3d17147c	0.03688477
92	0xbd24ef90	-0.040267527
93	0xbd7b3c88	-0.061337024
94	0xbe3b2b72	-0.18278292
95	0x3dd76910	0.10518086
96	0xbcc1fc98	-0.023680016
97	0xbd4c6d06	-0.04990866
98	0xbd8b5831	-0.068039306
99	0xbe1f8a4b	-0.15580098
100	0x3d902ca8	0.070397675
101	0xbb955cbf	-0.0045581753
102	0x3bce4640	0.0062949955
103	0xbe0f9596	-0.14021906
104	0xbde7b540	-0.113138676
105	0x3ae1a000	0.0017213821
106	0xbd924328	-0.07141715
107	0xbe1220cb	-0.14270322
108	0xbdbafc9d	-0.091302134
109	0xbde7891b	-0.11305448
110	0xbd3511df	-0.044206496
111	0xbdda8dcc	-0.10671577
112	0xbdbd575d	-0.09245179
113	0xbdf17ce1	-0.11791397
114	0xbde9f2c4	-0.11423257
115	0x3d06b148	0.032883912
116	0xbd37278b	-0.044715445
117	0x3d228b7b	0.0396838
118	0xbca50768	-0.020145133
119	0xbd00ac14	-0.031414106
120	0xbdf0aacc	-0.11751327
121	0xbdfae69d	-0.12251017
122	0x3da7e0ac	0.0819715
123	0xbe3c30c9	-0.18377985
124	0xbdea278d	-0.11433325
125	0x3d9bf86a	0.076157406
126	0xbb56aab0	-0.0032755546
127	0xbcb82bff	-0.022481916
128	0xbdadaaa8	-0.08479816
129	0xbd8e6039	-0.06951947
130	0xbdab9bdb	-0.083793364
131	0xbdd95d57	-0.10613506
132	0xbc0142f0	-0.007889494
133	0xbdd22fdf	-0.10263037
134	0xbe05677c	-0.13027757
135	0xbd01d53a	-0.03169749
136	0xbe1a03f7	-0.15040575
137	0xbdb1a079	-0.08673186
138	0x3d82d1ca	0.0638767
139	0x3d3f5978	0.046716183
140	0x3dd9f14c	0.10641727
141	0xbcd3751c	-0.025812678
142	0xbd7188a5	-0.058968205
143	0xbdc69716	-0.09696786
144	0xbe0516bf	-0.12996958
145	0xbe0580cf	-0.13037418
146	0xbce9fd0c	-0.028563045
147	0xbd406ae6	-0.046976946
148	0xbdfdaadf	-0.12386107
149	0xbe17b7e5	-0.14816244
150	0xbe278c45	-0.16362102
151	0x3d7fcec1	0.062453035
152	0xbda6a06e	-0.08136068
153	0xbdb6305b	-0.08895942
154	0xbd3c4588	-0.045964748
155	0xbd800ade	-0.06252073
156	0xbdea1d78	-0.11431402
157	0xbd964980	-0.07338238
158	0x3c85ed45	0.01634849
159	0x3ce06fa0	0.027396977
160	0xbd349cc8	-0.04409483
161	0xbddbbcfc	-0.10729405
162	0x3ca22c9f	0.019796668
163	0x3cf62c82	0.03005052
164	0x3df6a3a2	0.12042929
165	0xbcc143ba	-0.023591865
166	0x3d775a58	0.060388893
167	0xbd8f8fd2	-0.070098534
168	0xbe08545d	-0.13313432
169	0xbdfacc6c	-0.12246022
170	0x3d9bed9a	0.07613678
171	0xbda03393	-0.07822337
172	0xbc0e879a	-0.008699322
173	0xbd5cc8aa	-0.053902306
174	0xbe34f61f	-0.17672013
175	0xbdf895c0	-0.121379375
176	0xbccbe30f	-0.024888543
177	0xbdaecea3	-0.085355066
178	0xbdf735a8	-0.12070781
179	0xbc84e552	-0.01622263
180	0xbd62596c	-0.05526106
181	0xbdcd4417	-0.10022753
182	0x3d4ed558	0.05049643
183	0x3cd82fb8	0.026389942
184	0xbd3cd3c0	-0.046100378
185	0x3d55f80a	0.0522385
186	0x3d806e12	0.06270994
187	0xbd35b272	-0.04435963
188	0xbdac2867	-0.08406144
189	0xbdd8d79a	-0.10587998
190	0x3d15517a	0.036454655
191	0xbdbd0d0a	-0.09231003
192	0xbbaa8fd9	-0.0052051363
193	0x3e386862	0.18008569
194	0x3e217d23	0.15770392
195	0x3e15e80c	0.146393
196	0x3dae9915	0.08525292
197	0x3dd492a1	0.1037953
198	0x3dfd932f	0.12381589
199	0x3e4b7b0d	0.19871159
200	0x3e05e9cb	0.13077466
201	0x3dd367ad	0.10322509
202	0x3dfe4eb0	0.12417352
203	0x3b2f3400	0.0026733875
204	0x3dca5f5c	0.098814696
205	0x3e905499	0.28189543
206	0x3e74bc98	0.23900068
207	0x3eabd515	0.33561006
208	0x3d157847	0.03649166
209	0x3ddf8624	0.10914257
210	0x3e08e5f4	0.1336897
211	0x3c2b74a9	0.010464826
212	0x3db316e7	0.08744603
213	0xbc0c9bce	-0.008582069
214	0x3d9d3f90	0.07678139
215	0xbc9b13f0	-0.018930405
216	0x3e1662d2	0.14686134
217	0x3caa1ec3	0.020766621
218	0xbcb0ec70	-0.021597117
219	0x3d755bb8	0.059901923
220	0x3d505e74	0.050871328
221	0xbda8f3a8	-0.08249599
222	0x3df1e928	0.11812049
223	0x3dac86da	0.084241584
224	0xbdcb8c4a	-0.099388674
225	0x3e746e01	0.23870088
226	0xbdbf6ecf	-0.09347307
227	0x3d3b19d6	0.045678936
228	0xbdd2dd10	-0.102960706
229	0x3e97740e	0.2958073
230	0x3cc2fcd0	0.023802191
231	0x3e55cb15	0.20878251
232	0x3deb2d0d	0.11483202
233	0x3d8b25ae	0.06794296
234	0xbd237964	-0.03991069
235	0xbd56a49e	-0.052403085
236	0x3e7f39ad	0.24924345
237	0x3d6cb49a	0.057789423
238	0x3dd4c1e1	0.10388542
239	0xbca68245	-0.02032579
240	0x3e0f4426	0.1399084
241	0x3da18587	0.078867964
242	0x3d38b3f4	0.04509349
243	0x3d091b55	0.03347333
244	0x3de0e0e7	0.10980397
245	0x3e3e6329	0.18592514
246	0x3db09156	0.08621471
247	0x3db4eb34	0.08833924
248	0xbdc99a90	-0.098439336
249	0x3e7e6109	0.24841703
250	0xbdfbc36e	-0.12293135
251	0x3e2fb71a	0.17159691
252	0x3dad5a4c	0.084644884
253	0x3d72486c	0.059151098
254	0x3cb791b6	0.022408348
255	0x3e2a71d5	0.16644986

bias f4 [32]
0	0x3e09a679	0.1344241
1	0x3d307ba3	0.04308666
2	0xbd89341a	-0.06699391
3	0x3d38b57a	0.045094945
4	0xbdd556cc	-0.10416946
5	0xbdb24956	-0.08705394
6	0x3d1f9124	0.038956776
7	0xbab1b180	-0.0013556927
8	0x3cd38874	0.025821902
9	0xbe14f118	-0.14545095
10	0x3d9f4386	0.07776551
11	0x3dae361b	0.085064135
12	0x3e248cb5	0.160693
13	0xbd95fb27	-0.07323294
14	0xbc676e4c	-0.014125418
15	0xbd2ed214	-0.042680815
16	0xbd99149a	-0.074746326
17	0xbdc91e72	-0.0982026
18	0x3dc11735	0.094282545
19	0xbdd456cc	-0.10368118
20	0xbdb14098	-0.086548984
21	0xbce25b08	-0.027631298
22	0xbe18bdf6	-0.14916214
23	0xbd1d6719	-0.0384284
24	0xbd0d7047	-0.034530904
25	0x3de6f410	0.1127702
26	0xbd3740e7	-0.04473963
27	0xba3fc500	-0.0007315427
28	0xbe148804	-0.14505011
29	0xbde1e42e	-0.1102985
30	0xbda4b9fd	-0.08043287
31	0xbdcd1b38	-0.10014957

weight f4 [3, 32]
0	0x3dc4d1c7	0.09610324
1	0x3d7acff1	0.061233465
2	0x3d285062	0.041092284
3	0x3d2bf9bb	0.04198621
4	0xbdd9f7c5	-0.106429614
5	0x3e347663	0.17623286
6	0xbde44568	-0.11146051
7	0xbe22937b	-0.15876572
8	0x3d9fe132	0.078066245
9	0xbd512be0	-0.051067233
10	0xbd867f9a	-0.06567307
11	0xbc923b63	-0.017850583
12	0xbdc13fd6	-0.09436004
13	0xbbb810e1	-0.0056172465
14	0xbdcc3d3b	-0.09972616
15	0xb9212f9c	-0.00015371892
16	0x3d8ececc	0.06973037
17	0xbd5a6d42	-0.053326853
18	0xbc996590	-0.018725187
19	0xbd7e77f2	-0.062126108
20	0x39df8800	0.00042635202
21	0x3dd444e2	0.10364701
22	0xbd90b29c	-0.07065317
23	0xbd31011e	-0.043213956
24	0xbdd311c5	-0.10306124
25	0xbb9f9f1d	-0.0048712627
26	0xbc10bd24	-0.008834157
27	0xbe11bfb0	-0.14233279
28	0x3d229c83	0.039700042
29	0xbdc52fc2	-0.0962825
30	0x3dc932e4	0.0982416
31	0xbe0648e7	-0.13113748
32	0xbdf93921	-0.121690996
33	0x3e1046d3	0.14089517
34	0x3e3a5272	0.18195513
35	0xbe1a92c6	-0.15095052
36	0xbd301ea2	-0.042997964
37	0xbe0bed63	-0.13664775
38	0xbd8c98b6	-0.06865065
39	0x3e11c00d	0.14233418
40	0xbe8fffed	-0.28124943
41	0xbc221b22	-0.009894164
42	0x3dbdc6ae	0.09266411
43	0xb9070556	-0.00012876591
44	0xbe845284	-0.25844204
45	0x3dc2c560	0.095103025
46	0xbd9d00f3	-0.07666197
47	0x3e60a2d2	0.21937111
48	0x3d92d259	0.07169027
49	0x3ac9da24	0.0015400094
50	0xbe0745a9	-0.13210167
51	0x3e116f51	0.1420262
52	0xbc93d1c0	-0.018044353
53	0xbdd4bddf	-0.103877775
54	0x3dbdc530	0.09266126
55	0xbc704789	-0.014665493
56	0xbc23cf4d	-0.009998155
57	0x3d96f3ac	0.073706955
58	0xbd96e974	-0.073687464
59	0xbe03b2da	-0.12861195
60	0xbd541bed	-0.051784445
61	0xbd902b3c	-0.07039496
62	0xbdebab33	-0.11507263
63	0x3d0ef42e	0.034900837
64	0x3e62da9f	0.2215371
65	0x3c0cb521	0.008588106
66	0x3daf764d	0.08567486
67	0x3dbaee7c	0.091275185
68	0xbd400ba5	-0.046886105
69	0x3d942066	0.07232742
70	0xbcfc7c85	-0.030821094
71	0x3caf4040	0.021392941
72	0x3e828772	0.25493962
73	0xbdd184af	-0.102303855
74	0x3bfde620	0.0077483803
75	0x3e9f3d92	0.31101662
76	0x3e65d052	0.22442749
77	0xbc1e4663	-0.009660336
78	0x3e37ce70	0.17949843
79	0xbdd4278c	-0.103591055
80	0x3db9f171	0.090792544
81	0x3e693cb0	0.22777057
82	0x3e9a9710	0.30193377
83	0x3dd4bcc3	0.10387566
84	0x3d8341a6	0.06409006
85	0xbcf057d8	-0.029338762
86	0x3c2af7b8	0.010435037
87	0x3d8fa7bd	0.070144154
88	0xbd47c353	-0.04877026
89	0x3e6aeb6e	0.22941372
90	0x3e183b64	0.14866406
91	0xbd4449b8	-0.047921866
92	0x3c64f6b4	0.013974834
93	0xbd814a95	-0.063130535
94	0x3da948af	0.082658164
95	0x3e60db1c	0.21958584

bias f4 [3]
0	0x3e17e8c8	0.14834893
1	0xbe70b643	-0.23507027
2	0xbd63f87d	-0.0556569

weight f4 [1, 32]
0	0x3ba3cfa0	0.004999116
1	0x3e274a0f	0.16336845
2	0x3c3a63f0	0.011376366
3	0x3d48fd00	0.049069405
4	0x3ccd9b00	0.025098324
5	0xbcad2d70	-0.02113983
6	0x3e0131fb	0.12616722
7	0x3e04e1bf	0.1297674
8	0xbdd0ba80	-0.10191822
9	0xbdd8d0d2	-0.10586704
10	0xbe0cc1b8	-0.13745773
11	0xbd3017b0	-0.04299134
12	0xbb827e60	-0.00398235
13	0x3e1782bd	0.14795966
14	0xbe2f31c0	-0.17108822
15	0x3e007aa3	0.12546782
16	0xbdca3af7	-0.09874528
17	0x3c6c9380	0.014439464
18	0xbc075b40	-0.008261502
19	0x3dcc7ca2	0.09984709
20	0xbe176ea9	-0.14788307
21	0xbdfcd2da	-0.12344904
22	0x3b84da40	0.0040543377
23	0x3db692f2	0.08914746
24	0xbdae2d80	-0.08504772
25	0x3d606a08	0.05478862
26	0xbd3f5a30	-0.04671687
27	0xbe28cde6	-0.16484794
28	0x3ca54ad0	0.020177275
29	0xbd1a50f4	-0.03767486
30	0x3dd62c42	0.1045766
31	0x3dee7756	0.11643855
