Char03 Actor-Critic/AC_MountainCar-v0_Model/ModelTraing4300Times.pkl (torch_old, 14034 bytes, 7 tensors)

weight f4 [64, 2]
0.6739756 1.4691435 0.18872167 5.3988733 -0.49463052 2.274311 0.04463715 6.225164
0.5577625 1.8043003 0.6323028 3.6010482 0.60896146 2.9922035 0.53915393 2.498238
0.42591324 3.8795838 0.20755021 6.8863125 -0.26333097 -0.42706516 -0.11852217 -0.3050039
-0.22659132 0.033857405 -0.04723396 7.6581535 -0.7884004 5.8333707 -0.14898041 7.976255
0.7486149 1.6012458 -0.40520298 1.3182558 0.7850844 2.550458 0.7176525 2.1814663
0.9949631 2.210003 0.92118436 3.4033334 -0.4742803 7.6414366 0.40042162 2.111053
-0.13804294 0.4302541 -0.34210348 -0.015095946 0.3837002 -0.17188162 0.70431334 0.56680864
-0.033109307 -0.47198182 0.4306013 0.2194556 0.16390699 2.8272486 0.35754108 0.54532474
-0.3963755 -0.11639398 -0.13540268 7.256698 0.095374726 -5.1762533 0.744956 3.382996
0.3454029 0.04031211 -0.13161127 7.472831 0.25710362 0.35052043 -0.34359285 3.3263342
-0.4670113 -0.49274814 0.043002248 -0.120496094 0.4153008 -0.40951073 -0.042718712 2.7597022
-0.21860032 7.060319 0.28738025 3.6528509 0.77779615 3.2578092 0.31908488 -4.1038523
-0.013024275 5.613305 -0.13257483 0.15658456 0.6476268 -0.13082981 0.91776294 4.205568
-0.26243955 -0.4919324 0.7772739 1.7677159 0.48469204 0.14653474 0.22742158 0.52817947
0.670489 -0.4692226 0.6245709 4.884424 0.512253 0.43928188 -0.4642312 -0.5475427
-0.4109841 4.2664585 0.70474845 -0.4466621 0.5513718 0.89427376 -0.50709015 0.0066288174
00000000: aa89 2c3f e50c bc3f 4140 413e 92c3 ac40
00000010: 3640 fdbe 508e 1140 72d5 363d 8b34 c740
00000020: 86c9 0e3f 50f3 e63f 99de 213f 9377 6640
00000030: e6e4 1b3f 4380 3f40 fe05 0a3f 22e3 1f40
00000040: 4d11 da3e 1a4b 7840 0b88 543e ac5c dc40
00000050: 51d3 86be 49a8 dabe c0bb f2bd 7929 9cbe
00000060: 8e07 68be 10ae 0a3d 6678 41bd 980f f540
00000070: 9cd4 49bf f9aa ba40 528e 18be 7b3d ff40
00000080: 3aa5 3f3f 9ff5 cc3f c476 cfbe 9bbc a83f
00000090: 4bfb 483f b43a 2340 13b8 373f 259d 0b40
000000a0: e7b5 7e3f b070 0d40 bdd2 6b3f 37d0 5940
000000b0: ded4 f2be a686 f440 1004 cd3e 7e1b 0740
000000c0: 215b 0dbe 444a dc3e 3028 afbe fd54 77bc
000000d0: 5a74 c43e bc01 30be e14d 343f 5f1a 113f
000000e0: a09d 07bd 9aa7 f1be c677 dc3e f8b8 603e
000000f0: 3cd7 273e a4f1 3440 a00f b73e 679a 0b3f
00000100: bbf1 cabe f85f eebd 00a7 0abe df36 e840
00000110: d353 c33d dea3 a5c0 70b5 3e3f 0283 5840
00000120: a6d8 b03e 501e 253d 1bc5 06be 6e21 ef40
00000130: 16a3 833e 6a77 b33e 67eb afbe a9e2 5440
00000140: 1b1c efbe 7c49 fcbe 2023 303d a8c6 f6bd
00000150: 4ea2 d43e 64ab d1be d1f9 2ebd f69e 3040
00000160: c3d8 5fbe 22ee e140 8123 933e 4fc8 6940
00000170: a61d 473f f27f 5040 185f a33e c252 83c0
00000180: c563 55bc 32a0 b340 b2c1 07be b457 203e
00000190: dfca 253f 40f8 05be 83f2 6a3f 0394 8640
000001a0: 7a5e 86be 90de fbbe 6cfb 463f 8444 e23f
000001b0: 8e29 f83e 340d 163e 34e1 683e c536 073f
000001c0: 2ba5 2b3f f23d f0be e1e3 1f3f 344d 9c40
000001d0: 0323 033f 8ee9 e03e b6af edbe c22b 0cbf
000001e0: 826c d2be d486 8840 656a 343f e5b0 e4be
000001f0: b426 0d3f 20ef 643f a9d0 01bf 8d36 d93b

bias f4 [64]
-0.08033979 0.001381126 -0.63277704 -0.1595321 -0.011853161 0.036169063 -0.00039084413 0.0511461
0.16368952 0.026906375 -0.48353386 -0.59379894 -0.32401088 0.19662322 -0.16150948 0.15973547
0.0045097675 -0.5249172 0.21565086 0.035792112 0.24048182 0.07312318 -0.07729239 -0.001979281
-0.18611409 -0.43316963 -0.66742396 -0.45510536 -0.41309422 -0.30244577 0.03518958 -0.30103147
-0.5284076 0.13145009 0.13651097 0.046744753 -0.36590806 0.14759967 -0.25742266 -0.42380714
-0.59586096 -0.32227165 -0.2165569 -0.16781932 0.14225733 0.14327201 0.021524228 0.35912463
0.25992566 -0.17171943 -0.48917037 0.0660999 -0.37201893 -0.07882358 -0.60917175 -0.13967383
-0.45607525 0.06885724 -0.6113087 -0.59464437 -0.17453894 -0.38234356 0.19096544 -0.664209
00000000: 3089 a4bd e606 b53a adfd 21bf 625c 23be
00000010: c333 42bc 0326 143d 36ea ccb9 937e 513d
00000020: 3a9e 273e c26a dc3c c091 f7be 3503 18bf
00000030: c1e4 a5be 9957 493e be62 25be b291 233e
00000040: acc6 933b f960 06bf 94d3 5c3e c09a 123d
00000050: de40 763e 9bc1 953d 794b 9ebd d3b6 01bb
00000060: b194 3ebe 69c8 ddbe 4cdc 2abf 9203 e9be
00000070: 1681 d3be 2cda 9abe f322 103d cc20 9abe
00000080: b845 07bf da9a 063e 88c9 0b3e 6d77 3f3d
00000090: 4d58 bbbe 5e24 173e e7cc 83be 40fd d8be
000000a0: 588a 18bf ca00 a5be 18c1 5dbe d4d8 2bbe
000000b0: e8ab 113e e6b5 123e 9453 b03c 2fdf b73e
000000c0: fa14 853e 38d7 2fbe 8a74 fabe 625f 873d
000000d0: 4479 bebe 426e a1bd aef2 1bbf a806 0fbe
000000e0: b282 e9be 0605 8d3d ba7e 1cbf 9d3a 18bf
000000f0: 56ba 32be 89c2 c3be 728c 433e 9a09 2abf

weight f4 [32, 64]
0.17971288 0.1444009 -0.04229081 0.3731656 0.18934521 0.37592492 0.31896612 0.0465002
0.16245623 0.5026004 0.10671878 -0.04848829 0.07529409 0.8440225 0.35905826 1.1077756
0.23813394 -0.06129018 0.2761117 0.296352 0.13799657 0.3905437 0.9251194 0.11655296
0.100246385 -0.115738295 -0.0463375 0.110215664 -0.09520732 0.11340265 -0.123786636 -0.25353026
0.06110975 0.68720037 -0.1872605 0.35874408 0.09901111 1.1450359 -0.025364682 -0.13436672
0.17366213 -0.02662827 -0.05142939 -0.006853947 1.1397341 0.12042385 0.23072134 -0.1256594
0.30197254 -0.012165802 0.052503183 0.31576794 -0.1102729 0.2348115 -0.11749153 -0.088345125
-0.08321117 0.31465507 0.11018823 0.029046604 0.029569147 0.05574724 0.16458258 0.02138965
-0.0040537044 0.00031135013 -0.062526666 -0.08917449 0.0385896 0.034072567 -0.14638554 0.047851857
-0.048669733 -0.16345796 0.068426564 -0.093321815 0.11549108 -0.30428472 -0.03990744 -0.046792332
-0.046782997 0.036705025 -0.12833677 -0.1291866 -0.18417284 -0.08153553 -0.1334574 -0.069239885
-0.092865884 -0.028606836 0.10813454 0.03688477 -0.040267527 -0.061337024 -0.18330966 0.10518086
-0.023680016 -0.061055835 -0.08414596 -0.15610898 0.070397675 -0.019124208 0.0062949955 -0.13943988
-0.113138676 0.0017213821 -0.07141715 -0.14271812 -0.09969176 -0.1143585 -0.044229705 -0.11834051
-0.105345614 -0.11791397 -0.11423257 0.032773726 -0.044715445 0.0396838 -0.020145133 -0.031414106
-0.11751327 -0.12544908 0.0819715 -0.18377985 -0.111199655 0.076157406 -0.0013789082 -0.022481916
-0.08479816 -0.06951947 -0.083793364 -0.10613506 -0.007889494 -0.10263037 -0.13027757 -0.03169749
-0.15040575 -0.08673186 0.0638767 0.046716183 0.10641727 -0.025812678 -0.058968205 -0.09696786
-0.12996958 -0.13037418 -0.028563045 -0.046976946 -0.12386107 -0.14816244 -0.16362102 0.062453035
-0.08136068 -0.08895942 -0.045964748 -0.06252073 -0.11431402 -0.07338238 0.01634849 0.027396977
-0.04409483 -0.10729405 0.019796668 0.03005052 0.12042929 -0.023591865 0.060388893 -0.070098534
-0.13313432 -0.12246022 0.07613678 -0.07822337 -0.008699322 -0.053902306 -0.17672013 -0.121379375
-0.024888543 -0.085355066 -0.12070781 -0.01622263 -0.05526106 -0.10022753 0.05049643 0.026389942
-0.046100378 0.0522385 0.06270994 -0.04435963 -0.08406144 -0.10587998 0.036454655 -0.09231003
-0.027895866 0.14533778 -0.1156935 0.34627604 0.029760243 0.16454075 0.09514349 0.2141612
0.08208501 0.28688186 0.12417352 0.0026733875 0.098814696 0.60281473 0.15594395 0.77786976
0.019510053 -0.03635838 0.13063653 0.038066696 0.08893488 0.0076727914 0.490638 -0.061598204
0.14685312 -0.0048208833 -0.021597117 0.059901923 0.050871328 -0.08249599 0.04261425 -0.18279098
-0.099388674 0.53281635 -0.14047788 0.05053996 -0.102960706 0.7040869 0.023802191 0.019621091
0.11483202 0.06794296 -0.03991069 -0.086618006 0.77540857 0.011967193 0.08815955 -0.09022112
0.18542095 0.07886294 0.04509349 0.092297696 0.09568631 0.15531607 0.08621471 0.08833924
-0.098439336 0.2778492 -0.12293135 0.1918467 -0.024349615 0.059151098 0.08237124 0.25452048
00000000: a706 383e d4dd 133e 2139 2dbd 900f bf3e
00000010: b6e3 413e 3b79 c03e 874f a33e fe76 3e3d
00000020: ed5a 263e 6baa 003f 608f da3d a89b 46bd
00000030: ca33 9a3d dc11 583f 7cd6 b73e 97cb 8d3f
00000040: 62d9 733e 690b 7bbd 835e 8d3e 73bb 973e
00000050: f94e 0d3e 58f5 c73e a0d4 6c3f 51b3 ee3d
00000060: fa4d cd3d 3308 edbd 64cc 3dbd c0b8 e13d
00000070: 0efc c2bd a63f e83d d983 fdbd b8ce 81be
00000080: 384e 7a3d 5dec 2f3f 37c1 3fbe 4ead b73e
00000090: 56c6 ca3d 8990 923f 98c9 cfbc 6e97 09be
000000a0: 7cd4 313e 8823 dabc a0a7 52bd 1397 e0bb
000000b0: cfe2 913f c8a0 f63d 3742 6c3e dcac 00be
000000c0: 259c 9a3e 1253 47bc 940d 573d 56ac a13e
000000d0: c2d6 e1bd 6d72 703e 669f f0bd 4aee b4bd
000000e0: 9e6a aabd 781a a13e 5eaa e13d 25f3 ed3c
000000f0: ff3a f23c 3857 643d 5688 283e 5939 af3c
00000100: f0d4 84bb b53c a339 fb0d 80bd 1da1 b6bd
00000110: 2110 1e3d ad8f 0b3d 17e6 15be 4f00 443d
00000120: ea59 47bd 8661 27be 3a23 8c3d 821f bfbd
00000130: 9686 ec3d 35cb 9bbe fc75 23bd 51a9 3fbd
00000140: 879f 3fbd 0258 163d b76a 03be 7e49 04be
00000150: ce97 3cbe 1afc a6bd 0fa9 08be a4cd 8dbd
00000160: 7830 bebd e258 eabc a475 dd3d 7c14 173d
00000170: 90ef 24bd 883c 7bbd 87b5 3bbe 1069 d73d
00000180: 98fc c1bc af15 7abd b854 acbd 08db 1fbe
00000190: a82c 903d 5faa 9cbc 4046 ce3b 54c9 0ebe
000001a0: 40b5 e7bd 00a0 e13a 2843 92bd b324 12be
000001b0: 322b ccbd ca34 eabd 352a 35bd 825c f2bd
000001c0: 71bf d7bd e17c f1bd c4f2 e9bd be3d 063d
000001d0: 8b27 37bd 7b8b 223d 6807 a5bc 14ac 00bd
000001e0: ccaa f0bd b975 00be ace0 a73d c930 3cbe
000001f0: a5bc e3bd 6af8 9b3d 7bbc b4ba ff2b b8bc
00000200: a8aa adbd 3960 8ebd db9b abbd 575d d9bd
00000210: f042 01bc df2f d2bd 7c67 05be 3ad5 01bd
00000220: f703 1abe 79a0 b1bd cad1 823d 7859 3f3d
00000230: 4cf1 d93d 1c75 d3bc a588 71bd 1697 c6bd
00000240: bf16 05be cf80 05be 0cfd e9bc e66a 40bd
00000250: dfaa fdbd e5b7 17be 458c 27be c1ce 7f3d
00000260: 6ea0 a6bd 5b30 b6bd 8845 3cbd de0a 80bd
00000270: 781d eabd 8049 96bd 45ed 853c a06f e03c
00000280: c89c 34bd fcbc dbbd 9f2c a23c 822c f63c
00000290: a2a3 f63d ba43 c1bc 585a 773d d28f 8fbd
000002a0: 5d54 08be 6ccc fabd 9aed 9b3d 9333 a0bd
000002b0: 9a87 0ebc aac8 5cbd 1ff6 34be c095 f8bd
000002c0: 0fe3 cbbc a3ce aebd a835 f7bd 52e5 84bc
000002d0: 6c59 62bd 1744 cdbd 58d5 4e3d b82f d83c
000002e0: c0d3 3cbd 0af8 553d 126e 803d 72b2 35bd
000002f0: 6728 acbd 9ad7 d8bd 7a51 153d 0a0d bdbd
00000300: df85 e4bc 6dd3 143e b7f0 ecbd 184b b13e
00000310: c1cb f33c 5f7d 283e 97da c23d 134d 5b3e
00000320: 301c a83d 2ee2 923e b04e fe3d 0034 2f3b
00000330: 5c5f ca3d 1152 1a3f c5af 1f3e 7922 473f
00000340: 8cd3 9f3c 86ec 14bd 95c5 053e d3eb 1b3d
00000350: 7e23 b63d 0a6c fb3b e734 fb3e 664e 7cbd
00000360: aa60 163e 80f8 9dbb 70ec b0bc b85b 753d
00000370: 745e 503d a8f3 a8bd 488c 2e3d 8f2d 3bbe
00000380: 4a8c cbbd a766 083f 6fd9 0fbe fd02 4f3d
00000390: 10dd d2bd 0a3f 343f d0fc c23c 69bc a03c
000003a0: 0d2d eb3d ae25 8b3d 6479 23bd c864 b1bd
000003b0: 2d81 463f 0c12 443c ff8c b43d dac5 b8bd
000003c0: fdde 3d3e e582 a13d f4b3 383d 9306 bd3d
000003d0: 2ff7 c33d 2d0b 1f3e 5691 b03d 34eb b43d
000003e0: 909a c9bd 4042 8e3e 6ec3 fbbd 7673 443e
000003f0: d878 c7bc 6c48 723d 41b2 a83d 8250 823e

bias f4 [32]
-0.066643365 0.014075359 -0.06699391 -0.2736182 -0.10416946 -0.08705394 0.020122733 -0.24211977
-0.043579638 -0.14545095 -0.14212056 -0.29541516 -0.083087906 -0.07323294 -0.29498985 -0.0751679
-0.074746326 -0.0982026 -0.20423041 -0.17332523 -0.25561845 1.2552938 -0.14916214 -0.0384284
-0.034530904 -0.35794097 -0.029488863 -0.1899064 -0.14505011 -0.1102985 -0.08043287 -0.49092272
00000000: 517c 88bd 569c 663c 1a34 89bd af17 8cbe
00000010: cc56 d5bd 5649 b2bd 6ed8 a43c 3fee 77be
00000020: 9080 32bd 18f1 14be 0d88 11be a840 97be
00000030: fe29 aabd 27fb 95bd e908 97be a1f1 99bd
00000040: 9a14 99bd 721e c9bd c721 51be 2b7c 31be
00000050: 6ce0 82be 78ad a03f f6bd 18be 1967 1dbd
00000060: 4770 0dbd 0a44 b7be a192 f1bc d376 42be
00000070: 0488 14be 2ee4 e1bd fdb9 a4bd 395a fbbe

weight f4 [3, 32]
-0.004987169 0.024171133 0.041092284 -0.10487761 -0.106429614 0.17623286 -0.11125064 -0.39951435
-0.00044054224 -0.051067233 0.15419677 -0.18286613 -0.18860175 -0.0056172465 -0.2801836 -0.00017626201
0.06973037 -0.053326853 -0.21481271 0.014708932 0.013771105 0.9910354 -0.07065317 -0.043213956
-0.10306124 -0.24548903 0.009640082 0.19383185 0.039700042 -0.0962825 0.0982416 -0.509189
-0.3171044 0.11427308 0.18195513 -0.13903135 -0.042997964 -0.13664775 -0.068963215 -0.098426014
-0.5296434 -0.009894164 -0.12721235 -0.24336028 -0.5017589 0.095103025 -0.35211444 0.21793328
0.07169027 0.0015400059 -0.4039885 0.10086738 -0.14946996 -0.4029628 0.09266126 -0.014665493
-0.009998155 -0.08828188 -0.047085684 -0.32373226 -0.051784445 -0.07039496 -0.11507263 -0.15604366
0.41854632 0.062185816 0.08567486 0.17052324 -0.046886105 0.07232742 -0.030995676 0.26215404
0.47666502 -0.102303855 0.22761075 0.6005642 0.45201123 -0.009660336 0.49319437 -0.10301839
0.090792544 0.22777057 0.6239014 0.09481484 0.12184795 -0.47278008 0.010435037 0.070144154
-0.04877026 0.496984 0.0829939 -0.27544144 0.013974834 -0.063130535 0.082658164 0.58724886
00000000: 686b a3bb 8a02 c63c 6250 283d 13ca d6bd
00000010: c5f7 d9bd 6376 343e 60d7 e3bd 258d ccbe
00000020: 94f8 e6b9 e02b 51bd c2e5 1d3e 4241 3bbe
00000030: d120 41be e110 b8bb 3a74 8fbe f9d2 38b9
00000040: ccce 8e3d 426d 5abd ddf7 5bbe bbfd 703c
00000050: 33a0 613c 7fb4 7d3f 9cb2 90bd 1e01 31bd
00000060: c511 d3bd 7a61 7bbe 6ff1 1d3c db7b 463e
00000070: 839c 223d c22f c5bd e432 c93d 365a 02bf
00000080: 825b a2be 0108 ea3d 7252 3a3e 3c5e 0ebe
00000090: a21e 30bd 63ed 0bbe 963c 8dbd 9493 c9bd
000000a0: b696 07bf 221b 22bc f443 02be 7033 79be
000000b0: 4573 00bf 60c5 c23d 5848 b4be e729 5f3e
000000c0: 59d2 923d 06da c93a 95d7 cebe 8f93 ce3d
000000d0: a70e 19be 2451 cebe 30c5 bd3d 8947 70bc
000000e0: 4dcf 23bc 21cd b4bd ebdc 40bd 3cc0 a5be
000000f0: ed1b 54bd 3c2b 90bd 33ab ebbd e9c9 1fbe
00000100: b44b d63e 8eb6 7e3d 4d76 af3d a59d 2e3e
00000110: a50b 40bd 6620 943d a5ea fdbc 0e39 863e
00000120: 700d f43e af84 d1bd cb12 693e 93be 193f
00000130: 046e e73e 6346 1ebc f983 fc3e 4efb d2bd
00000140: 71f1 b93d b03c 693e 01b8 1f3f 482e c23d
00000150: 6b8b f93d 3b10 f2be b8f7 2a3c bda7 8f3d
00000160: 53c3 47bd b074 fe3e b5f8 a93d a906 8dbe
00000170: b4f6 643c 954a 81bd af48 a93d f155 163f

bias f4 [3]
1.0140208 -0.68631595 -0.51219356
00000000: 6fcb 813f 67b2 2fbf 1e1f 03bf

weight f4 [1, 32]
0.004999116 0.16336845 0.011376366 0.049069405 0.025098324 -0.02113983 0.12616722 0.1297674
-0.10191822 -0.10586704 -0.13745773 -0.04299134 -0.00398235 0.14795966 -0.17108822 0.12546782
-0.09874528 0.014439464 -0.008261502 0.09984709 -0.14788307 -0.12344904 0.0040543377 0.08914746
-0.08504772 0.05478862 -0.04671687 -0.16484794 0.020177275 -0.03767486 0.1045766 0.11643855
00000000: a0cf a33b 0f4a 273e f063 3a3c 00fd 483d
00000010: 009b cd3c 702d adbc fb31 013e bfe1 043e
00000020: 80ba d0bd d2d0 d8bd b8c1 0cbe b017 30bd
00000030: 607e 82bb bd82 173e c031 2fbe a37a 003e
00000040: f73a cabd 8093 6c3c 405b 07bc a27c cc3d
00000050: a96e 17be dad2 fcbd 40da 843b f292 b63d
00000060: 802d aebd 086a 603d 305a 3fbd e6cd 28be
00000070: d04a a53c f450 1abd 422c d63d 5677 ee3d
