Char3 Actor-Critic/AC_CartPole_Model/ModelTraing21000Times.pkl (torch_old, 237192 bytes, 5 tensors)

weight f4 [32, 4]
0.4713132 0.22218226 1.4865657 0.5086665 -0.10970857 0.20427671 -0.48593417 -0.09958303
0.06950849 -0.061222076 0.13868046 0.024665892 -0.33107856 -0.3992323 -1.7978967 -0.78134453
0.3332577 0.3995287 2.371967 0.6758221 -0.33707038 -0.612515 -1.8338399 -0.31548992
0.39505738 0.23941454 1.6092708 0.5923367 -0.26363057 0.6163641 0.9944535 0.67653626
0.03983392 -0.29216102 0.14218564 -0.3108507 0.10597416 -0.2704164 -0.7665938 -0.61163074
0.85198706 -0.22180142 1.4521471 -0.11841205 -0.023911707 0.20410429 -0.38671947 0.017529272
-0.24610412 -0.37642625 -2.0894256 -0.24482393 0.4507063 0.44364476 2.0788112 0.6994742
-0.17696442 -0.062201526 0.91044146 0.13793667 -0.42480925 0.6890001 0.26699162 1.1500866
-0.11936397 -0.06862716 -1.7526621 -0.74291456 -0.62138975 -0.12455013 -0.7445151 -0.17888217
0.4757174 0.6075414 1.9465605 0.5643713 0.27786475 -0.0022678582 -1.4584365 0.010523422
-0.9471867 -0.0044986713 -2.442337 -0.55333674 0.12176907 -0.21452211 1.0571139 0.5112695
0.09633941 0.29630873 -0.10855667 -0.13077816 0.2662972 -0.22855525 -0.6263531 -0.6018269
0.1650996 0.11758799 0.1439561 0.03670975 0.6493566 0.20165186 1.487504 0.24019814
-0.3582167 -0.1583194 1.5619699 0.3142455 0.45718712 0.1254699 1.3131251 0.5993914
0.44332737 -0.4160638 2.061363 0.3769558 0.5451916 0.27059448 -0.34038758 -0.16765188
-0.2985077 -0.27190486 -1.4350468 -1.0307171 0.0719649 -0.118369184 -0.6056502 -0.32240435
00000000: f74f f13e bf83 633e c947 be3f f837 023f
00000010: e3ae e0bd ea2d 513e 5dcc f8be 30f2 cbbd
00000020: 785a 8e3d 00c4 7abd 4002 0e3e 2010 ca3c
00000030: 2183 a9be 2d68 ccbe 7b21 e6bf 3206 48bf
00000040: c1a0 aa3e 078f cc3e 4fce 1740 ad02 2d3f
00000050: 7d94 acbe c8cd 1cbf 44bb eabf e587 a1be
00000060: f644 ca3e 1629 753e 96fc cd3f 61a3 173f
00000070: 96fa 86be 0aca 1d3f 8194 7e3f 7b31 2d3f
00000080: e428 233d 2196 95be 1d99 113e d327 9fbe
00000090: fb08 d93d 0574 8abe 7e3f 44bf d593 1cbf
000000a0: d31b 5a3f e91f 63be f5df b93f 0482 f2bd
000000b0: 7ce2 c3bc b700 513e 1800 c6be 8c99 8f3c
000000c0: b802 7cbe f1ba c0be 26b9 05c0 20b3 7abe
000000d0: fac2 e63e 6825 e33e 3e0b 0540 be10 333f
000000e0: 2936 35be 07c7 7ebd b112 693f 453f 0d3e
000000f0: 9980 d9be 5062 303f 20b3 883e 0a36 933f
00000100: 1975 f4bd 658c 8cbd 3b57 e0bf a62f 3ebf
00000110: 6613 1fbf 2314 ffbd 8b98 3ebf e32c 37be
00000120: 3b91 f33e d587 1b3f e528 f93f a37a 103f
00000130: 4a44 8e3e 59a0 14bb 0cae babf 6e6a 2c3c
00000140: d47a 72bf 9769 93bb 404f 1cc0 7aa7 0dbf
00000150: 1062 f93d afab 5bbe 824f 873f 8fe2 023f
00000160: 994d c53d c7b5 973e f652 debd b6ea 05be
00000170: 1b58 883e 630a 6abe ad58 20bf 5411 1abf
00000180: df0f 293e f9d1 f03d 3a69 133e f65c 163d
00000190: 3c3c 263f d37d 4e3e 8866 be3f 80f6 753e
000001a0: 2e68 b7be 7b1e 22be a1ee c73f c9e4 a03e
000001b0: 6e14 ea3e 2e7b 003e 7c14 a83f b771 193f
000001c0: cefb e23e 5006 d5be 5fed 0340 5a00 c13e
000001d0: ad91 0b3f 5c8b 8a3e 4847 aebe efac 2bbe
000001e0: 00d6 98be 1d37 8bbe 9daf b7bf 8aee 83bf
000001f0: 5562 933d 8b6b f2bd e40b 1bbf 2f12 a5be

bias f4 [32]
0.065313675 0.2051809 -0.3105194 0.13603413 0.0077225766 -0.63653374 0.13906048 -0.8357058
-0.26267835 -0.39200252 -0.0053603407 -0.64020866 -0.6537743 0.16248636 -0.6350162 -0.32931486
-0.0014533291 -0.7795027 -0.018916938 -0.38476962 -0.22918084 -0.28835723 -0.46521342 0.2234229
-0.42695346 -0.027800584 -0.82983315 -0.40507367 -0.43511257 -0.37398976 0.10907331 -0.6099456
00000000: 2dc3 853d f11a 523e 66fc 9ebe 884c 0b3e
00000010: ab0d fd3b e0f3 22bf df65 0e3e d1f0 55bf
00000020: c77d 86be 8eb4 c8be cca5 afbb b7e4 23bf
00000030: c15d 27bf d362 263e 6c90 22bf f59b a8be
00000040: a27d beba 7d8d 47bf b2f7 9abc 8600 c5be
00000050: 62ae 6abe 8fa3 93be 7430 eebe f9c8 643e
00000060: a599 dabe 0dbe e3bc f26f 54bf d165 cfbe
00000070: 13c7 debe 967b bfbe d461 df3d 6525 1cbf

weight f4 [2, 32]
-0.78929216 0.32579568 0.056598514 1.0378036 -0.9898593 0.65546674 -0.6279756 -0.5297848
-0.06370344 0.27209306 -0.43929344 0.19482836 0.5531367 -1.4169936 -0.52782434 -0.39126942
0.7429864 0.047695793 -1.4982193 0.31724772 0.53466785 -0.3485534 0.053936522 0.38632
-0.12431498 -0.9056943 -0.7766875 -0.50143015 -0.4608964 0.012000642 0.9963982 0.10795603
0.57416147 -0.24776848 0.1279683 -1.0476556 0.98139757 -0.50356984 0.73654234 0.36633596
-0.034359466 -0.48337418 0.5360776 -0.18780516 -0.41435924 1.4659233 0.6904984 0.5579209
-0.59236467 0.041265298 1.404277 -0.12516835 -0.7378884 0.4630499 -0.05210414 -0.27511388
0.1409734 0.94056773 0.558329 0.51950413 0.32024994 0.052789044 -1.0721798 -0.30052495
00000000: 0d0f 4abf b1ce a63e d8d3 673d c0d6 843f
00000010: 6b67 7dbf abcc 273f 02c3 20bf fa9f 07bf
00000020: f376 82bd c84f 8b3e 12eb e0be 1681 473e
00000030: 5e9a 0d3f 0c60 b5bf 7f1f 07bf 7754 c8be
00000040: 5b34 3e3f aa5c 433d a6c5 bfbf 4b6e a23e
00000050: fedf 083f 9775 b2be 8bec 5c3d bccb c53e
00000060: da98 febd 95db 67bf fed4 46bf ba5d 00bf
00000070: 9dfa ebbe 579e 443c f413 7f3f 0d18 dd3d
00000080: 3ffc 123f 05b7 7dbe 1f0a 033e 9419 86bf
00000090: df3c 7b3f f4e9 00bf 0a8e 3c3f 6390 bb3e
000000a0: 83bc 0cbd d27c f7be 623c 093f ff4f 40be
000000b0: e526 d4be 60a3 bb3f 81c4 303f e7d3 0e3f
000000c0: 36a5 17bf cd05 293d 59bf b33f 222c 00be
000000d0: 41e6 3cbf e014 ed3e 276b 55bd badb 8cbe
000000e0: 555b 103e 0cc9 703f a6ee 0e3f 39fe 043f
000000f0: cdf7 a33e 5339 583d 303d 89bf 68de 99be

bias f4 [2]
0.26852682 -0.30911657
00000000: 597c 893e 8744 9ebe

weight f4 [1, 32]
0.12656434 -0.058026597 0.14002286 -0.058739033 0.011849568 -0.5043425 0.028346095 -0.2246806
-0.029558865 -0.21084408 -0.41120493 -0.11798695 -0.64508134 -0.050122693 0.12231138 -0.20698452
0.034202382 -0.34435165 0.050975703 -0.0113173 -0.35300782 0.07964018 -0.22005855 0.09503007
0.030705173 -0.372629 -0.13426661 -0.15758328 -0.032183863 -0.19434342 -0.005818423 -0.007065734
00000000: 159a 013e 4cad 6dbd 2762 0f3e 5798 70bd
00000010: b124 423c 971c 01bf 1236 e83c ac12 66be
00000020: 6f25 f2bc 83e7 57be 7489 d2be 24a3 f1bd
00000030: 0d24 25bf 744d 4dbd 647e fa3d c0f3 53be
00000040: cc17 0c3d dc4e b0be e6cb 503d 326c 39bc
00000050: 71bd b4be 641a a33d 0757 61be 209f c23d
00000060: 6a89 fb3c 3ac9 bebe 307d 09be 835d 21be
00000070: 3ad3 03bd f601 47be 78a8 bebb ac87 e7bb
