Actor-Critic/AC_CartPole_Model/ModelTraing20400Times.pkl (torch_old, 237192 bytes, 5 tensors)

weight f4 [32, 4]
0.20236151 0.03066586 1.2234216 0.6413714 -0.35956618 0.3337298 -0.25653833 -0.0320323
0.06950849 -0.061222076 0.13868046 0.024665892 0.008263645 -0.37129444 -0.8731611 -0.44645908
0.083697386 0.2905376 1.8990664 0.63373965 -0.2604706 -0.75556636 -1.3777859 -0.8284987
-0.062213674 0.0075942194 1.0338285 0.81491476 -0.61041754 0.49570248 0.9117661 0.7170203
0.038632363 -0.299469 0.14421226 -0.30043358 0.103450544 -0.29804248 -0.54176277 -0.49281347
0.6357469 -0.13856259 1.460566 -0.07703079 -0.2892154 0.021445764 -0.4500592 0.15985128
-0.20224908 -0.52891976 -1.8344575 -0.46251112 0.18446572 0.17001799 1.8927054 0.66646355
-0.21724044 -0.09135743 0.907558 0.17687719 -0.26096785 0.66730154 1.2077987 0.9589422
-0.046193667 -0.15366773 -1.0567638 -0.22817273 -0.7325689 -0.39524522 -0.011160253 -0.37286255
0.3309521 0.45758483 1.7324114 0.41086006 0.31379396 -0.0026820265 -1.4774847 0.0046231346
-0.69084346 -0.4502175 -0.67157614 -0.6339192 -0.104239896 -0.10478198 0.4635591 0.33281288
0.103836134 0.33900455 -0.072521865 -0.24720168 0.015215468 -0.15877225 -0.59259915 -0.2686933
0.16509847 0.11758687 0.14395529 0.03670973 0.4475657 0.25159103 1.6362522 0.46082872
-0.47633484 -0.25597143 1.0030224 0.2002369 0.44947174 0.1787637 1.2344612 0.5796661
0.16198106 -0.035997663 1.171755 0.2963604 0.52437466 0.43182597 -0.42944145 -0.47060275
-0.14719692 -0.17618579 -0.52157825 -0.7431137 0.071965344 -0.11836974 -0.6056502 -0.32240367
00000000: db37 4f3e f836 fb3c 1499 9c3f eb30 243f
00000010: 0f19 b8be a2de aa3e fe58 83be 4d34 03bd
00000020: 785a 8e3d 00c4 7abd 4002 0e3e 2010 ca3c
00000030: 3d64 073c 4e1a bebe 7c87 5fbf 4996 e4be
00000040: 8969 ab3d 58c1 943e 9c14 f33f c33c 223f
00000050: 675c 85be cc6c 41bf 4a5b b0bf 7e18 54bf
00000060: c4d3 7ebd eed8 f83b 7e54 843f 419e 503f
00000070: 5344 1cbf b7cc fd3e 8169 693f a48e 373f
00000080: f83c 1e3d 0054 99be 61ac 133e 6ed2 99be
00000090: e1dd d33d 0699 98be f7b0 0abf 0c52 fcbe
000000a0: 4fc0 223f 5ae3 0dbe d4f3 ba3f 52c2 9dbd
000000b0: 0a14 94be 07af af3c 296e e6be 0eb0 233e
000000c0: 621a 4fbe 4967 07bf 81cf eabf 42ce ecbe
000000d0: 95e4 3c3e 3219 2e3e 2c44 f23f 5b9d 2a3f
000000e0: 4774 5ebe 9b19 bbbd b955 683f 4b1f 353e
000000f0: 949d 85be 46d4 2a3f 2699 9a3f 3c7d 753f
00000100: 9235 3dbd 135b 1dbe 0944 87bf 1da6 69be
00000110: a389 3bbf 955d cabe 7ed9 36bc d7e7 bebe
00000120: 8e72 a93e 8f48 ea3e a8bf dd3f 405c d23e
00000130: 9aa9 a03e f0c4 2fbb 381e bdbf aa7d 973b
00000140: 1edb 30bf e882 e6be 6aec 2bbf 8748 22bf
00000150: ba7b d5bd ef97 d6bd 9e57 ed3e 7366 aa3e
00000160: 0aa8 d43d 0192 ad3e 5886 94bd 7022 7dbe
00000170: 4c4a 793c 3195 22be 94b4 17bf 2b92 89be
00000180: 930f 293e 63d1 f03d 0469 133e f15c 163d
00000190: 5527 e53e 8ad0 803e b670 d13f bef1 eb3e
000001a0: 29e2 f3be b00e 83be 0a63 803f e70a 4d3e
000001b0: 2921 e63e d50d 373e d302 9e3f ff64 143f
000001c0: 5dde 253e 4972 13bd 11fc 953f 8dbc 973e
000001d0: 6b3d 063f 4b18 dd3e c0df dbbe d8f2 f0be
000001e0: caba 16be 0c6a 34be 2786 05bf b33c 3ebf
000001f0: 9162 933d d66b f2bd e40b 1bbf 1812 a5be

bias f4 [32]
0.08714716 0.4661013 -0.3105194 -0.02669728 0.30928636 -0.17917997 0.32720253 -0.42062375
-0.2562313 -0.24650352 -0.3032505 -0.412089 -0.19263592 -0.04571894 -0.61359084 -0.15275224
-0.06411384 -0.2842936 0.31114036 -0.33803266 -0.18911211 -0.29250905 -0.4308351 0.5155104
-0.4269526 -0.23191695 -0.7152963 -0.41775575 -0.4676303 -0.33582056 0.18149169 -0.60994524
00000000: 367a b23d d4a4 ee3e 66fc 9ebe 41b4 dabc
00000010: c85a 9e3e f47a 37be 1787 a73e ff5b d7be
00000020: c030 83be 6b6b 7cbe a643 9bbe 54fd d2be
00000030: 5a42 45be c943 3bbd 4a14 1dbf 156b 1cbe
00000040: 1e4e 83bd ee8e 91be ca4d 9f3e 9e12 adbe
00000050: 9ba6 41be bfc3 95be 6b96 dcbe 7df8 033f
00000060: 8899 dabe a37b 6dbe a91d 37bf 15e4 d5be
00000070: 3d6d efbe acf0 abbe f5d8 393e 5f25 1cbf

weight f4 [2, 32]
-0.6290295 0.28029552 0.056598514 0.5551831 -0.75260174 0.41113457 -0.4463456 -0.64279145
-0.06455365 0.14692692 -0.28799662 0.40129232 0.2676039 -0.93056107 -0.52874875 -0.6960778
0.38831267 -0.2536816 -1.271785 0.33587888 -0.006306473 -0.2327717 0.01784559 0.35302427
-0.124314174 -0.73871046 -0.78769433 -0.49254033 -0.34739086 -0.061261453 0.6506 0.10795623
0.41389832 -0.20226829 0.1279683 -0.5650352 0.74414027 -0.25923792 0.5549127 0.4793426
-0.033509333 -0.35820827 0.38478038 -0.39426914 -0.12882672 0.97949076 0.6914228 0.8627289
-0.2376915 0.3426427 1.177843 -0.14379948 -0.19691397 0.3472683 -0.016013213 -0.24181785
0.14097263 0.7735839 0.5693358 0.5106146 0.20674446 0.12605108 -0.7263814 -0.30052507
00000000: 1408 21bf e582 8f3e d8d3 673d 7b20 0e3f
00000010: 82aa 40bf 3b80 d23e 6987 e4be fb8d 24bf
00000020: b434 84bd 0374 163e 4b74 93be 3076 cd3e
00000030: 6103 893e 4039 6ebf 145c 07bf 2832 32bf
00000040: ebd0 c63e 8ee2 81be dac9 a2bf 51f8 ab3e
00000050: 88a6 cebb b45b 6ebe ea30 923c 99bf b43e
00000060: 6e98 febd 211c 3dbf 56a6 49bf 3f2e fcbe
00000070: 37dd b1be 4aed 7abd b98d 263f 2818 dd3d
00000080: 7bea d33e 6b1f 4fbe 1f0a 033e 26a6 10bf
00000090: fa7f 3e3f d5ba 84be c20e 0e3f 656c f53e
000000a0: 1541 09bd 1367 b7be ef01 c53e a5dd c9be
000000b0: 27eb 03be e8bf 7a3f 1601 313f cddb 5c3f
000000c0: 6765 73be dd6e af3e 8fc3 963f 2c40 13be
000000d0: d1a3 49be 27cd b13e 242e 83bc 199f 77be
000000e0: 215b 103e 9809 463f febf 113f a3b7 023f
000000f0: d2b4 533e 8913 013e 22f4 39bf 6cde 99be

bias f4 [2]
0.17555809 -0.21614785
00000000: 80c5 333e dd55 5dbe

weight f4 [1, 32]
-0.08393114 0.07353258 0.14002286 0.047008336 -0.09335324 -0.43458515 0.02976885 0.09485571
-0.031330798 0.011101698 -0.24304596 0.13957383 -0.5670033 -0.2344156 0.12407819 -0.18318522
0.054909673 -0.21772702 -0.401161 -0.012451396 -0.27084532 0.048789363 -0.2291169 0.08465507
0.030704562 -0.3206034 0.07818205 -0.1743617 -0.028930793 -0.2328139 0.0084401965 -0.0070660673
00000000: 17e4 abbd 4098 963d 2762 0f3e d08b 403d
00000010: fc2f bfbd f281 debe cedd f33c b643 c23d
00000020: b954 00bd e5e3 353c 0ae1 78be 71ec 0e3e
00000030: 2127 11bf a50a 70be b51c fe3d e894 3bbe
00000040: f7e8 603d d5f3 5ebe f964 cdbe f100 4cbc
00000050: 3dac 8abe 5bd7 473d 9f9d 6abe a35f ad3d
00000060: 2288 fb3c 2126 a4be e91d a03d e08b 32be
00000070: 4500 edbc c466 6ebe c048 0a3c 788a e7bb
