Char10 TD3/expTD3.pyPendulum-v0./actor.pth (torch_old, 489901 bytes, 5 tensors)

fc1.weight f4 [400, 3]
0	0xbf9c5f2b	-1.2216543
1	0x3f905c68	1.12782
2	0x3e090640	0.1338129
3	0x3fa77318	1.3081999
4	0x3f057fcf	0.52148145
5	0x3f0a7c43	0.5409586
6	0xbec2dd88	-0.3805964
7	0xbf19e6ff	-0.601181
8	0xb9554a22	-0.0002034088
9	0x3f665557	0.8997397
10	0xc00b2902	-2.174378
11	0x3d1c6922	0.0381862
12	0x3e62718a	0.22113624
13	0xbe0cf7ed	-0.13766451
14	0x3f6b2733	0.9185669
15	0x3f30df21	0.6909047
16	0x3f951869	1.1648074
17	0x3cc27f65	0.023742387
18	0xbefef402	-0.49795538
19	0x3faf179c	1.367908
20	0x3e394b03	0.18095021
21	0xbe88ed34	-0.26743472
22	0xbdbdc6f0	-0.0926646
23	0x3bb01df9	0.005374667
24	0xbf21cc85	-0.632027
25	0x3f13a989	0.57680565
26	0x3f14e1ed	0.58157235
27	0x3f7d5df8	0.9897151
28	0xbf964343	-1.1739277
29	0xbeac3014	-0.3363043
30	0xbf985605	-1.1901251
31	0xbed6c799	-0.41949156
32	0xbe2275c5	-0.15865238
33	0x3ed1de81	0.4099007
34	0x3f090e96	0.5353788
35	0xb7967c22	-1.7939197e-05
36	0xbfb52be4	-1.4154019
37	0xbf9c45d3	-1.2208809
38	0xbe84a264	-0.25905144
39	0x3e133a62	0.1437774
40	0xbd6327b3	-0.055457782
41	0x3c6ab6ae	0.014325781
42	0xbf1918d6	-0.5980352
43	0x3e9066c8	0.28203416
44	0x3ed883e0	0.42288113
45	0x3f521186	0.8205799
46	0x3e68177e	0.22665212
47	0x3f25d9aa	0.64785254
48	0xbfbe238e	-1.48546
49	0x3e35af49	0.17742647
50	0x3e532854	0.20620853
51	0x3cc2a96c	0.023762427
52	0x3d1bb345	0.03801276
53	0x3c8865ee	0.016650166
54	0xbfb3027f	-1.3985137
55	0xbdd5a392	-0.10431589
56	0x3e2ba7cf	0.16763233
57	0x3e27087f	0.16311835
58	0xbfaae6d4	-1.3351693
59	0x3e78e253	0.24305086
60	0xbeaf314c	-0.34217298
61	0xbda16c4e	-0.078819856
62	0x3c087f7b	0.008331175
63	0x3ef388b0	0.47565222
64	0xbf2d97a5	-0.67809516
65	0x3edae567	0.42753145
66	0x3d0e39f7	0.03472325
67	0x3ff3bd60	1.9042168
68	0x3e601b43	0.218854
69	0xbf085827	-0.5325951
70	0x3f226a3e	0.6344336
71	0x3e8e017c	0.27735507
72	0xbe8b9ef5	-0.27269712
73	0xbfb6ebc3	-1.4290699
74	0xbec17364	-0.3778335
75	0xbe02328e	-0.12714598
76	0x3febd2d9	1.8423721
77	0x3ea2d8d4	0.31806052
78	0x3ee2b856	0.44281262
79	0x3fa6634d	1.2999054
80	0x3e42ac47	0.19011031
81	0xbe9dbc80	-0.30807877
82	0x3dc7040f	0.09717571
83	0x3f471930	0.7777281
84	0xbd04aac8	-0.032389432
85	0xbefef4c8	-0.49796128
86	0x3cc7a14e	0.024368908
87	0x3fbbba52	1.4666235
88	0xbf4cb556	-0.79964197
89	0xbeba2c8e	-0.36362118
90	0x3fc744a1	1.5567819
91	0xbd613680	-0.054983616
92	0x3e9e6468	0.3093598
93	0xbe8b9d23	-0.27268323
94	0x3fdd8ae8	1.7308016
95	0x3eada346	0.3391363
96	0xbd031dcb	-0.032010835
97	0xbd4096e1	-0.04701889
98	0x3cc545e3	0.024081176
99	0xbf9724d9	-1.180812
100	0xbf14a121	-0.58058363
101	0x3e07fe38	0.1328057
102	0x3fa4e6f5	1.2882982
103	0xbf8639ba	-1.0486367
104	0xbe8e65e0	-0.278121
105	0x3d3c5d65	0.045987505
106	0x3f52436e	0.8213414
107	0x3ed551c1	0.41663936
108	0x3bff1174	0.007784063
109	0x3e724eda	0.23662892
110	0x3b6fdf60	0.0036601648
111	0x3f958115	1.1680018
112	0x3ec3932b	0.38198218
113	0x3f37aad9	0.7174507
114	0xbf48f840	-0.785038
115	0xbf2c638b	-0.6733939
116	0xbb264abe	-0.002537414
117	0x3f6c275a	0.92247546
118	0x3ebce63a	0.368944
119	0x3eb214fc	0.34781635
120	0x3f9107bd	1.1330487
121	0x3f8613a3	1.0474743
122	0x3f2e40da	0.68067706
123	0xbf33c046	-0.7021526
124	0x3f83852e	1.0275018
125	0x3ebb3265	0.36561885
126	0xbf7ff7d8	-0.99987555
127	0x3fcf2986	1.6184547
128	0x3eba6661	0.36406234
129	0xbcbb92a6	-0.022897076
130	0x3f10ca6c	0.5655887
131	0x3f0f8107	0.56056255
132	0xbdf84b96	-0.12123792
133	0x3d897637	0.06712001
134	0x3ac63413	0.001512172
135	0x3f355ec6	0.7084774
136	0x3f8d7b52	1.1053259
137	0x3d6475b4	0.055776313
138	0xbfa53a6e	-1.2908456
139	0x3f949b47	1.1609887
140	0xbe9e1c8a	-0.3088115
141	0xbf797137	-0.9743838
142	0xbfa1483f	-1.2600173
143	0xbe83fb01	-0.25777438
144	0x3f2fe22d	0.6870449
145	0xbb3484b3	-0.0027544915
146	0xbf5fd589	-0.87435204
147	0x3f209aea	0.6273638
148	0x3f9161de	1.1357992
149	0x3ee3336e	0.44375175
150	0xbf919a2e	-1.1375177
151	0xbfaa2c8c	-1.3294845
152	0xbebea258	-0.37233233
153	0x3ef98ac4	0.48738682
154	0xc03e4717	-2.973089
155	0xbd673a49	-0.05645207
156	0xbf20de84	-0.6283953
157	0x3e6c9645	0.23104198
158	0xb99101d4	-0.00027657917
159	0x3f6eefb8	0.9333453
160	0x3ea66bd3	0.32504138
161	0x3e878c20	0.26474094
162	0x3e9264e5	0.285926
163	0xbe8b832a	-0.27248508
164	0x3c3289a1	0.010897071
165	0xbf212c70	-0.6295843
166	0x3e72189c	0.236422
167	0x3f80a08d	1.0048996
168	0x3e51dac5	0.2049361
169	0xbf64f805	-0.8944095
170	0xbe5d4190	-0.21607041
171	0xbe94a69d	-0.29033366
172	0x3f2cfd00	0.6757355
173	0x3f33f005	0.70288116
174	0xbea40cf3	-0.3204113
175	0xbe205ed3	-0.15661173
176	0x3c03e8fb	0.008051152
177	0x3fa28032	1.2695372
178	0xc009e9f1	-2.1549037
179	0xbea7329b	-0.32655796
180	0xbfb0a550	-1.3800449
181	0xbf18c254	-0.5967152
182	0xbe31a44f	-0.17347835
183	0x3c1e9159	0.009678208
184	0x3fc80e7c	1.562942
185	0x3e819a4f	0.2531304
186	0x3f26eeae	0.65207946
187	0x3f3247be	0.6964072
188	0x3ec07795	0.37591234
189	0x3e8f6db1	0.28013375
190	0xbefe615a	-0.49683648
191	0x3ee70d8b	0.4512752
192	0x3d027988	0.031854182
193	0x3c94dda9	0.018172102
194	0xbd17c7cd	-0.03705578
195	0x3f927466	1.1441772
196	0x3e8bf04b	0.27331766
197	0x3eff4867	0.49859926
198	0xbe374dea	-0.17900816
199	0x3ed05b87	0.4069483
200	0x3e44bc91	0.19212557
201	0xbe1711db	-0.14752905
202	0x3e905a08	0.28193688
203	0x3e0b5bc7	0.13609229
204	0xbc6e2d31	-0.014537142
205	0x3f07e08f	0.53077024
206	0x3ba34c63	0.0049834712
207	0xbfdfa9fb	-1.7473749
208	0xbf95e8ba	-1.1711648
209	0x3ec38898	0.3819015
210	0x3f3d14c8	0.73859835
211	0x3f886f73	1.0659012
212	0x3f25ccb0	0.64765453
213	0xbf23652b	-0.63826245
214	0x3e6e5d73	0.23277836
215	0x3b68baff	0.003551185
216	0x3faa93e2	1.332638
217	0x3f11ae40	0.5690651
218	0xbe8fa2ec	-0.28053987
219	0xbec38c44	-0.38192952
220	0x3eceed1f	0.40415284
221	0x3e976812	0.29571587
222	0x3f6964e7	0.9116959
223	0x3f17e452	0.59332764
224	0x3c87933e	0.016549703
225	0x3ebf3e76	0.3735234
226	0xc01af101	-2.4209597
227	0xbdb87e3c	-0.09008452
228	0xbf98f258	-1.1948957
229	0xbf81ba9d	-1.0135075
230	0x3df74f69	0.12075693
231	0xbeb30f94	-0.34972823
232	0x3f267ee7	0.6503739
233	0x3e9834a0	0.2972765
234	0xbf27e331	-0.6558104
235	0xbeb590ee	-0.35462135
236	0x3af5a2f0	0.0018740576
237	0xbea0a34c	-0.31374586
238	0xbf1593c8	-0.5842862
239	0xbca1aa0d	-0.019734407
240	0xbe2ea44a	-0.17054859
241	0xbd22e33f	-0.0397675
242	0x3b875e9a	0.0041311504
243	0x3f69d766	0.91344297
244	0x3f3ceb4e	0.73796546
245	0x3f3a4354	0.72758985
246	0xbf432377	-0.7622599
247	0x3f891db2	1.0712187
248	0x3e5805a0	0.21095896
249	0x3b4f39dc	0.003162018
250	0x3d181b0f	0.03713518
251	0x3b291034	0.0025797011
252	0xbd678d00	-0.056530952
253	0xbd2c80b7	-0.04211494
254	0xbdb68425	-0.08911923
255	0x3f1341a4	0.57522035

fc1.bias f4 [400]
0	0xbf5401e7	-0.828154
1	0xbf8ad53b	-1.0846323
2	0xbf3798ad	-0.7171734
3	0xbf37d153	-0.7180378
4	0xbf5ef614	-0.87094235
5	0xbea694e8	-0.3253548
6	0xbe453957	-0.19260155
7	0xbea88720	-0.32915592
8	0xbf71ed9e	-0.945032
9	0xbf30fafa	-0.6913296
10	0xbf4df674	-0.8045418
11	0xbf3589dc	-0.7091348
12	0xbf1672f2	-0.5876914
13	0xbe646954	-0.22305804
14	0xbf0d1b0a	-0.55119383
15	0xbfe60d4f	-1.7972811
16	0xbf3d2741	-0.7388802
17	0xbe274aa7	-0.16337071
18	0xbef9a51e	-0.48758787
19	0xbf13e5c8	-0.57772493
20	0xbed96166	-0.42457122
21	0xbf33f353	-0.7029316
22	0xbf319dc3	-0.6938135
23	0xbf138a81	-0.57633215
24	0xbf93e52d	-1.1554314
25	0x3f31d467	0.69464725
26	0x3e02f30c	0.12788028
27	0xbe3d4753	-0.1848424
28	0xbf2db90c	-0.67860484
29	0xbf54b83b	-0.83093613
30	0xbfa16422	-1.2608683
31	0x3f483d1f	0.78218263
32	0xbe8286d0	-0.2549348
33	0xbf4da17f	-0.8032455
34	0xbf829443	-1.0201496
35	0xbca78b68	-0.020452216
36	0xbec7128a	-0.38881332
37	0xc00cb1e9	-2.1983588
38	0xbf87933d	-1.0591809
39	0xbf279cc7	-0.654736
40	0xbf3ebfce	-0.7451142
41	0xbed0f5a5	-0.40812412
42	0x3dde0473	0.10840692
43	0xbec14c21	-0.37753394
44	0xbe1f4fa9	-0.15557732
45	0xbe314985	-0.17313202
46	0xbf152b87	-0.5826954
47	0xbf681f5c	-0.9067285
48	0xbfb77c97	-1.4334897
49	0xbda86501	-0.0822239
50	0xbe47c3e7	-0.19508325
51	0xbf733d84	-0.9501574
52	0xbf34594a	-0.70448744
53	0xbedafcfd	-0.4277114
54	0xbef0a500	-0.47000885
55	0x3e894d6c	0.2681688
56	0xbf202c18	-0.6256728
57	0xbe6de283	-0.23230939
58	0xbed877af	-0.4227881
59	0xbf89c625	-1.0763594
60	0xbf4aa3ff	-0.7915649
61	0x3f041411	0.5159312
62	0xbf11dd4b	-0.5697829
63	0xbf71838b	-0.94341344
64	0xbe95e96f	-0.29279658
65	0xbfca8791	-1.5822622
66	0xbf16b3f5	-0.5886834
67	0xbf02da3c	-0.5111425
68	0xbf122aba	-0.57096446
69	0xbf0e7504	-0.556473
70	0x3de854d8	0.11344308
71	0xbf3679a5	-0.71279365
72	0x3f081d8a	0.53170073
73	0xbedcf6fd	-0.43157187
74	0x3e990cb6	0.2989251
75	0xbee3ecbc	-0.44516551
76	0xbf390136	-0.7226747
77	0xbf531060	-0.8244686
78	0xbf431839	-0.76208836
79	0xbf53823a	-0.82620585
80	0xbe6690c9	-0.22516169
81	0xbfa1bcae	-1.2635705
82	0xbf0f5a65	-0.55997306
83	0xbd713244	-0.058885828
84	0xbf4980ea	-0.7871233
85	0xbf8bb72b	-1.0915273
86	0xbf831d08	-1.0243235
87	0xbfe6c50d	-1.8028885
88	0xbf2d9c03	-0.6781618
89	0xbf09f981	-0.5389634
90	0xbf0bfb43	-0.5468027
91	0xbf28c0e8	-0.6591935
92	0xbf189b5e	-0.5961207
93	0xbf5be107	-0.8589024
94	0xbf765010	-0.96215916
95	0x3e02745c	0.127397
96	0x3f2204e8	0.63288736
97	0xbe04f81b	-0.1298527
98	0xbe589045	-0.21148784
99	0xbf19dc6a	-0.6010195
100	0xbec2e43e	-0.3806476
101	0xbe5ea454	-0.21742374
102	0xbe8884e8	-0.266639
103	0xbf25057d	-0.644615
104	0xbf0dab50	-0.5533953
105	0xbf831b4d	-1.0242707
106	0xbe06bd30	-0.13158107
107	0xbf4c03a7	-0.79693073
108	0xbf851618	-1.0397367
109	0xbf53ee87	-0.8278584
110	0xbf3c5aa1	-0.7357579
111	0xbdbf8bed	-0.093528606
112	0x3deea53e	0.11652611
113	0xc0014762	-2.0199819
114	0xbfbe278f	-1.4855822
115	0xbf3fe0c0	-0.74952316
116	0xbf2f2e02	-0.6842958
117	0xbe0cfaf1	-0.13767602
118	0xbf6a4734	-0.915149
119	0xbf8b3802	-1.0876467
120	0xbf88ff7d	-1.0702969
121	0x3d814feb	0.06314071
122	0xbf73d8de	-0.9525279
123	0x3efb53b8	0.4908731
124	0xbb8c72b9	-0.004286137
125	0xbf223e7f	-0.6337661
126	0xbe4dac3f	-0.20085238
127	0xbf95f525	-1.1715437
128	0xbf6cd34c	-0.92509913
129	0xbee515f9	-0.44743326
130	0xbf487feb	-0.7832019
131	0xbe89cafb	-0.26912674
132	0xbf718773	-0.94347304
133	0x3eab46fc	0.33452594
134	0xbe9252c0	-0.28578758
135	0xbf38e4f1	-0.72224337
136	0xbf401b94	-0.7504208
137	0xbf5d6455	-0.8648122
138	0x3dd498e5	0.10380725
139	0xbf70e64d	-0.9410141
140	0x3e511cbc	0.20421118
141	0xbd2ef3a5	-0.042712826
142	0xbf1cdf49	-0.61278206
143	0xbdcbc1dd	-0.09949086
144	0xbe98f90a	-0.29877502
145	0xbfa0fcf7	-1.2577199
146	0xbfc7bef0	-1.5605145
147	0x3e044670	0.12917495
148	0xbf98bdc5	-1.1932913
149	0xbefff91f	-0.49994752
150	0xbfc1550e	-1.5104082
151	0xbf8ba958	-1.0911055
152	0xbe8c9860	-0.27460003
153	0xbf91f096	-1.1401546
154	0xbf90e4f2	-1.1319869
155	0xbf703e83	-0.93845385
156	0xbf5bae11	-0.8581248
157	0xbe7c32dc	-0.24628776
158	0xbe8c0fdc	-0.2735585
159	0x3ecff457	0.40616104
160	0xbea229fc	-0.31672657
161	0xbde341b4	-0.11096516
162	0xbf1ac68a	-0.60459197
163	0xbeac102e	-0.33606094
164	0xbec27f28	-0.37987638
165	0xbe4853f7	-0.1956328
166	0xbe5237ac	-0.2052905
167	0xbd83a48a	-0.06427868
168	0xbfbc19aa	-1.4695332
169	0x3d5fb504	0.05461599
170	0xbf316a13	-0.6930248
171	0xbf26ab07	-0.65104717
172	0xbf3eb19f	-0.7448978
173	0xbf13574a	-0.5755507
174	0xbf103102	-0.5632478
175	0x3e4de784	0.20107847
176	0xbf785bd8	-0.9701514
177	0xbfbef0e6	-1.4917266
178	0xbd16e491	-0.03683907
179	0xbdcfbdbe	-0.10143612
180	0xbf1f24da	-0.62165606
181	0xbfc10be7	-1.5081757
182	0x3e04def8	0.12975681
183	0xbe5148f6	-0.20437989
184	0xbeb9a01f	-0.36254975
185	0xbe9d07bd	-0.30669966
186	0xbf5b9c16	-0.85785043
187	0x3e840b33	0.25789794
188	0xbf5cb015	-0.8620618
189	0xbf736d60	-0.9508877
190	0xbf4d789f	-0.8026218
191	0xbf73ed2b	-0.95283765
192	0xbea0ef2d	-0.31432477
193	0xbf660179	-0.89846
194	0xbf046a1d	-0.51724416
195	0xbf7ebc6f	-0.99506277
196	0xbf247b04	-0.64250207
197	0xbf1a2645	-0.60214645
198	0xbf114473	-0.5674507
199	0xbf149b08	-0.5804906
200	0x3e44a5b8	0.19203842
201	0xbec4c27f	-0.3842964
202	0xbf1418f4	-0.57850575
203	0xbef8becb	-0.48583063
204	0xbf98a6a9	-1.1925861
205	0xbea59cc1	-0.32346156
206	0xbf0beabd	-0.5465506
207	0xbdeafb19	-0.11473674
208	0xbe51f7ff	-0.20504759
209	0xbf117d3f	-0.56831735
210	0xbf33dc6e	-0.70258224
211	0xbf08494a	-0.5323683
212	0xbe91586b	-0.2838777
213	0x3ebf950b	0.37418398
214	0xbffae06c	-1.9599738
215	0xbeddf50d	-0.4335102
216	0xbf478940	-0.779438
217	0xbf625eb5	-0.8842576
218	0x3d94a563	0.072581075
219	0xbf071511	-0.5276652
220	0xbf50ffad	-0.8164013
221	0xbdcf4685	-0.101208724
222	0xbf2e55d9	-0.68099743
223	0xbed6944d	-0.4191002
224	0xbf91aa03	-1.1380008
225	0xbf80e242	-1.0069048
226	0xbf560520	-0.8360157
227	0xbee9b1ab	-0.45643362
228	0xbe4f6039	-0.2025155
229	0xbf13d439	-0.577457
230	0xbf32e01e	-0.69873226
231	0xbf1d19ad	-0.61367303
232	0xbed12d56	-0.408549
233	0xbf984095	-1.1894709
234	0x3e2daeb5	0.16961177
235	0xbf99e013	-1.2021507
236	0xbfbbb938	-1.4665899
237	0xbeb19657	-0.34685013
238	0xbee350fc	-0.44397724
239	0xbfbc9065	-1.4731566
240	0xbf9b6f63	-1.2143368
241	0xbf206da0	-0.62667274
242	0x3ee2f433	0.44326934
243	0xbe315e4f	-0.17321132
244	0xbf402d2d	-0.7506893
245	0xbf2a0927	-0.66420215
246	0xbdc83267	-0.097752385
247	0xbf876cb9	-1.0580055
248	0xbf5379c2	-0.8260766
249	0x3c2afb7c	0.010435935
250	0x3d6e61ad	0.05819862
251	0xbf868bad	-1.0511376
252	0xbee84a3a	-0.4536913
253	0xbf491653	-0.7854969
254	0xbf7d7bb8	-0.99016905
255	0xbf0f3c41	-0.55951315

fc2.weight f4 [300, 400]
0	0x3ca5c890	0.020237237
1	0xbd072b5d	-0.03300034
2	0x3b80b60e	0.0039279526
3	0xbd021792	-0.03176076
4	0x3c9e19bc	0.01929938
5	0x3b345109	0.002751412
6	0xbcee4236	-0.029084306
7	0xbccd3bca	-0.025052924
8	0x3c6236d5	0.013807018
9	0xbb8c0d3d	-0.004274039
10	0x3d14b2df	0.036303397
11	0xbd4dbf8a	-0.050231494
12	0xbd67661e	-0.05649387
13	0xbb373081	-0.0027952495
14	0xba6c8c0b	-0.00090235536
15	0x3cd2891e	0.025700148
16	0xbd0b0fce	-0.03395062
17	0xbc42c43f	-0.011887609
18	0x3d232813	0.03983314
19	0x3ca24843	0.019809848
20	0xbd5013f9	-0.050800297
21	0x3cd8631b	0.026414445
22	0x3cec547c	0.028848879
23	0xbc294b4c	-0.010332894
24	0xbd634b73	-0.055491876
25	0xbd55b789	-0.052176986
26	0x3d0385ea	0.032110132
27	0x3cc7fd0c	0.024412654
28	0xbd1b7d42	-0.037961252
29	0x3c1c555b	0.009541835
30	0xbc27d288	-0.010243066
31	0x3d2c34f2	0.04204268
32	0x3d011398	0.031512827
33	0x3cd554a4	0.026041336
34	0x3b4ddbb7	0.0031411478
35	0xbd52eacd	-0.051493455
36	0xbd5aedaa	-0.05344931
37	0xbd308203	-0.04309274
38	0xbbfaf288	-0.0076583065
39	0xbc048102	-0.0080873985
40	0x3cf6adc8	0.030112162
41	0x3a53d88d	0.000808128
42	0xbd473978	-0.04863879
43	0xbd17090d	-0.036873866
44	0xbd280859	-0.041023586
45	0xbd5cdcbb	-0.053921442
46	0x3d0df0f3	0.034653615
47	0xbbf22cd7	-0.007390599
48	0x3b2b0d26	0.0026100366
49	0x3c68661c	0.014184501
50	0xbc91fc64	-0.017820545
51	0x3d2b5bef	0.04183572
52	0x3d140aa0	0.036142945
53	0xbd3c2bd1	-0.045940224
54	0x3d101665	0.035177607
55	0x3acaea7b	0.0015481258
56	0x3c74c596	0.014939686
57	0xbc572f81	-0.013133884
58	0x3c174828	0.009233512
59	0x3c409dc0	0.0117563605
60	0x3ca8e601	0.020617487
61	0xb8de63cf	-0.00010604376
62	0x3ceeafc9	0.029136555
63	0x3c7609b2	0.01501696
64	0xbcf756c6	-0.030192744
65	0x3c5f2237	0.013618997
66	0xbcdcf3e0	-0.026971757
67	0x3c0e64a9	0.008690991
68	0x3b6579fc	0.0035015335
69	0x3b0764d1	0.0020659456
70	0xbd32cdda	-0.043653347
71	0x3d0eb435	0.034839828
72	0xbd3a60a5	-0.045502324
73	0x3d0d18b8	0.0344474
74	0xbb5dc3f2	-0.0033838716
75	0x3d147f54	0.036254242
76	0x3cfda64d	0.030963087
77	0x3cf0fb0f	0.029416589
78	0x3c680026	0.014160192
79	0xbc916684	-0.017749079
80	0x3b8f515c	0.0043737125
81	0xbd0f12fe	-0.03493022
82	0x3b8edc9c	0.004359795
83	0x3ce37be1	0.027769031
84	0x3bad0fdf	0.005281433
85	0xbd501715	-0.050803263
86	0x3c0cae1b	0.008586432
87	0x3c2808d4	0.010256011
88	0x3ccdfdc3	0.025145417
89	0x3ce0907d	0.027412647
90	0x3cb7d084	0.022438295
91	0xbbbcc774	-0.0057610814
92	0x3d0209d7	0.031747665
93	0x3c86db0a	0.016461868
94	0x3cbd1e24	0.023085661
95	0xbd178b12	-0.036997862
96	0xbd009b36	-0.03139802
97	0xbca6673e	-0.020312902
98	0x3b3a94ba	0.0028469996
99	0xbc6bca3c	-0.014391478
100	0xbbe3fb4f	-0.0069574486
101	0x3991f21b	0.00027836938
102	0xbd47664e	-0.04868155
103	0xbd1b7a76	-0.037958585
104	0x3d327bb4	0.043575004
105	0xba238290	-0.0006237412
106	0xbd0dd5f1	-0.03462786
107	0xbc182f05	-0.009288554
108	0x3b85563f	0.004069119
109	0xbcbbab52	-0.02290884
110	0xbd084382	-0.033267505
111	0xbbc81045	-0.006105455
112	0x3c74f32c	0.014950555
113	0x3c378904	0.011202101
114	0xbc5c314e	-0.0134394895
115	0x3d313b33	0.043269347
116	0xbc65cdba	-0.0140261
117	0xbcd32ad6	-0.025777262
118	0xbd183f22	-0.037169583
119	0x3b75474e	0.0037426534
120	0xbc11dfdc	-0.00890347
121	0x3c947c43	0.018125659
122	0x3d1b19b5	0.037866313
123	0xbd344e91	-0.04402024
124	0xbc661ba0	-0.014044672
125	0x3b965490	0.0045877174
126	0x3cf11fa3	0.02943403
127	0xbc370da3	-0.011172685
128	0x3d2a6a5c	0.04160534
129	0x3bde8402	0.006790639
130	0xbd30842d	-0.043094803
131	0xbc603fb1	-0.01368706
132	0x3d2f6b5b	0.04282699
133	0xbbbf1c65	-0.0058322423
134	0x3ba5edba	0.0050637396
135	0x3ca1ccb1	0.019750925
136	0xbb9022de	-0.0043986877
137	0xbc43b59f	-0.011945157
138	0x3d0b35fd	0.033987034
139	0xbbae913d	-0.0053273723
140	0x3c8e397d	0.017361397
141	0x3c8b59fc	0.017010681
142	0xbbec1d31	-0.0072056283
143	0xbd47e0d7	-0.04879841
144	0xbc11acbb	-0.00889128
145	0xbcb4550d	-0.022013212
146	0x3d0674b0	0.032826126
147	0xbd6a8316	-0.05725392
148	0x3d0b6d2b	0.034039658
149	0x3c944ae5	0.018102119
150	0xbd4c5ed1	-0.04989511
151	0xbd39cd4d	-0.045361806
152	0xbcf8c7b1	-0.030368658
153	0xbbfc5b9a	-0.0077013494
154	0x3c9ac672	0.018893454
155	0xbb9cbfe6	-0.0047836183
156	0xba3d379b	-0.00072180637
157	0x3d17a3f5	0.037021596
158	0x3c132ab9	0.008982354
159	0x3c014b0a	0.007891426
160	0x3d2b179b	0.04177056
161	0xbcc3d747	-0.023906363
162	0x3cb922a7	0.022599531
163	0x3c8dec38	0.017324552
164	0x3c6fcde1	0.014636488
165	0xbb71532e	-0.003682326
166	0xbd5aec66	-0.053448103
167	0xbd094107	-0.03350928
168	0xbbabe1b2	-0.005245411
169	0xbc17882b	-0.009248774
170	0xbd443c15	-0.04790886
171	0xbd017edd	-0.031615127
172	0x3cb3d92b	0.02195414
173	0xbc04a7d6	-0.008096656
174	0xbd4b83ff	-0.04968643
175	0xbc4796af	-0.012181922
176	0xbc590e42	-0.013248028
177	0xbd4a15ec	-0.049337313
178	0x3cea6f13	0.028617417
179	0xbd5f6868	-0.05454293
180	0xbd30bd8a	-0.04314951
181	0x3d0eb870	0.034843862
182	0x38bf575a	9.12386e-05
183	0x3c0d6041	0.008628906
184	0xbd4d11e6	-0.050065897
185	0xbce664ae	-0.02812418
186	0xbd23e9aa	-0.04001776
187	0xbd626453	-0.055271458
188	0xbd13f522	-0.03612245
189	0xbc9bc7ad	-0.019016111
190	0xbd2a390d	-0.041558314
191	0x3d209e46	0.03921344
192	0x3b7d5f21	0.0038661438
193	0x3d2a98b8	0.04164955
194	0x3c8dec56	0.017324608
195	0x3cc2fd86	0.02380253
196	0xbd2855ba	-0.04109738
197	0xbcafe710	-0.021472484
198	0x3caedc96	0.021345418
199	0x3c38603e	0.011253415
200	0xbd495af4	-0.049159005
201	0xbcf4544b	-0.02982535
202	0xbceb0412	-0.028688464
203	0xbcf61113	-0.030037438
204	0xbd531032	-0.051529117
205	0xbd113aa1	-0.035456304
206	0x3d1db1f6	0.038499795
207	0xbd063d3e	-0.03277325
208	0x3ba4f6df	0.005034312
209	0x3bd61766	0.006533551
210	0xbd404cee	-0.046948366
211	0xbd210923	-0.039315354
212	0x3c4c11ab	0.012455384
213	0x3c95cb1f	0.018285332
214	0xba4575e5	-0.0007532521
215	0x3b91ef8f	0.0044536064
216	0x3c488eec	0.0122411065
217	0x3c450a68	0.012026407
218	0x3cc4d9a5	0.024029562
219	0x3d184a52	0.037180252
220	0xbc6d4f2c	-0.014484208
221	0xbd546672	-0.051855512
222	0x3d229416	0.039692007
223	0xbd33252c	-0.04373662
224	0x3d036463	0.032078158
225	0x3c8b81cb	0.017029664
226	0xbb7d9fdc	-0.003870002
227	0xbd3265a7	-0.043553974
228	0xbb78d4d5	-0.0037968655
229	0xbb32142e	-0.0027172673
230	0xbcf1b8c9	-0.029507058
231	0x3ce665b2	0.028124664
232	0x3d27c88c	0.04096274
233	0xbc3b8b83	-0.011446836
234	0xbd67074f	-0.056403454
235	0xbd4ab390	-0.04948765
236	0xbc289aca	-0.010290811
237	0xbd1f3489	-0.03886846
238	0x3d122fef	0.035690244
239	0xba8df4f1	-0.0010830445
240	0x3ca98916	0.02069525
241	0x3cc88e43	0.024481898
242	0xbc9bcbea	-0.019018132
243	0xbd4690a8	-0.0484778
244	0xbd06f9ca	-0.03295306
245	0x3d08d438	0.033405513
246	0x3cc9c46d	0.024629796
247	0xbc259bde	-0.010107962
248	0x3b386ed0	0.0028142221
249	0x3d09f342	0.033679254
250	0xbcb0e58d	-0.021593833
251	0xbd225488	-0.039631397
252	0x3a579de3	0.0008225126
253	0x3cbd5b76	0.023114901
254	0xbcee50e5	-0.029091308
255	0x3d07ff4e	0.033202462

fc2.bias f4 [300]
0	0xbd3828ab	-0.04496066
1	0xbca76743	-0.020434981
2	0x3a216fda	0.000615833
3	0x3c37d5c5	0.0112204
4	0xbde66a46	-0.11250739
5	0xbcadbf34	-0.021209337
6	0xbdd8da7b	-0.10588547
7	0xbd474024	-0.048645154
8	0x3c29e06a	0.010368446
9	0xbdb3ce91	-0.08779634
10	0xbcf5f96f	-0.030026166
11	0xbc9bcc2f	-0.01901826
12	0xbdabbbce	-0.0838543
13	0xbcd09340	-0.02546084
14	0xbd8c185d	-0.068405844
15	0xbc7c348a	-0.015393386
16	0xbd7243e4	-0.059146777
17	0xbc665133	-0.014057445
18	0xbe697b52	-0.22800949
19	0xbd04279c	-0.032264337
20	0xbd3d6b7c	-0.046245083
21	0x3a3fc75e	0.000731578
22	0xbd6979f5	-0.057001073
23	0xbdb008ac	-0.08595404
24	0xbd744cc3	-0.05964352
25	0xbcf17d6a	-0.029478747
26	0xbe34d188	-0.17658055
27	0xbdacdf79	-0.084410615
28	0xbc21791a	-0.009855533
29	0xbd91d5c6	-0.07120852
30	0xbd83f880	-0.06443882
31	0xbd2b6cf0	-0.041851938
32	0xbc8fce8f	-0.01755455
33	0xbda93559	-0.082621284
34	0xbd6cb2d3	-0.057787728
35	0x3ed207f2	0.41021687
36	0xbd882c15	-0.06649033
37	0xbd89241e	-0.06696342
38	0xbc582674	-0.013192762
39	0x3e81eb70	0.25374937
40	0x3d072c14	0.03300102
41	0x3b37a943	0.0028024472
42	0xbd9749e0	-0.073871374
43	0xbd02e89f	-0.031960126
44	0xbd935b61	-0.071951635
45	0x3d0d4a22	0.034494527
46	0xbd4452d7	-0.047930565
47	0xbd2a9c38	-0.041652888
48	0x3b4be356	0.0031110845
49	0xbd7de525	-0.061986107
50	0xbd7a5981	-0.061120514
51	0xbd4f527c	-0.050615773
52	0xbd8a1e2d	-0.06744037
53	0x3c573ef9	0.013137572
54	0xbc32ca3b	-0.010912473
55	0xbd488567	-0.048955347
56	0xbd82191d	-0.06352446
57	0xbd86721f	-0.065647356
58	0xbd2634c5	-0.04057767
59	0xbda962ec	-0.08270821
60	0x3ce74ce6	0.02823491
61	0xbd471c90	-0.048611224
62	0xbd52a41d	-0.051426042
63	0xbd02fd2e	-0.031979732
64	0xbc14344f	-0.009045674
65	0xbce6ed48	-0.028189316
66	0xbd161ecd	-0.036650468
67	0xbd559d38	-0.05215189
68	0x397f6dac	0.00024359551
69	0xbcdc603c	-0.026901357
70	0x3b7a06ef	0.0038151105
71	0xbda05599	-0.078288265
72	0x3c0a9f70	0.008460864
73	0x3c5d11f4	0.01349305
74	0xba8d86c7	-0.0010797613
75	0x3c88d445	0.01670278
76	0xbd434417	-0.047672357
77	0xbd60e804	-0.054908767
78	0xbca2d8c8	-0.01987876
79	0xbd624201	-0.055238727
80	0xbca4be65	-0.020110318
81	0x3c03bf35	0.008041193
82	0xbd1f0556	-0.038823448
83	0xbd072b47	-0.033000257
84	0x3acfd9a7	0.0015857712
85	0xbd145119	-0.036210153
86	0xbd84896e	-0.06471525
87	0xbcd35e27	-0.025801731
88	0xbd81bd61	-0.06334949
89	0xbcadc28f	-0.021210937
90	0x3c79baa3	0.015242252
91	0xbc3a6d70	-0.011378631
92	0xbd86eee9	-0.06588537
93	0xbd38b951	-0.045098606
94	0xbd303f7e	-0.0430293
95	0xbd257f37	-0.040404525
96	0xbd97dabf	-0.074147694
97	0x3bb25279	0.0054419604
98	0xbd9b383c	-0.07579085
99	0x3cfb8928	0.03070505
100	0xbd28911c	-0.041154012
101	0xbcd1074e	-0.025516178
102	0xbd3fcb26	-0.046824597
103	0xbd1ea11d	-0.03872787
104	0xbda1c15b	-0.07898208
105	0xba0a9458	-0.0005286387
106	0x3ca25f66	0.01982088
107	0xbd9f8f04	-0.0779095
108	0xbd3681e0	-0.044557452
109	0xbd538a66	-0.05164566
110	0xbd4bd962	-0.04976786
111	0xbcdfc263	-0.02731437
112	0xbdbfa9a1	-0.09358526
113	0x3cec3a94	0.028836526
114	0xbd3df60d	-0.04637723
115	0xbc53b606	-0.012921816
116	0xbdb31e2f	-0.087459914
117	0x3c57f33b	0.013180549
118	0x3cf6d4f9	0.03013085
119	0xbd679a6e	-0.05654376
120	0xbd8c912a	-0.06863625
121	0xbbefd1e4	-0.007318722
122	0xbdc87622	-0.09788157
123	0xbdc1d5b0	-0.09464586
124	0xbcee0c2d	-0.02905854
125	0x3c60ebd9	0.013728105
126	0xbd9850b1	-0.07437266
127	0x3d0c0769	0.034186754
128	0xbd6307d1	-0.055427376
129	0x3ce4f8d3	0.02795068
130	0x3c8f218d	0.017472053
131	0xbbb150ce	-0.005411244
132	0x3c66c66d	0.014085394
133	0xbd8181ba	-0.063235715
134	0xbde486df	-0.11158537
135	0xba4b5fc4	-0.00077581056
136	0xbe067ac7	-0.13132773
137	0x3d0cef1e	0.034407727
138	0xbd4b851e	-0.049687497
139	0xbd65ae79	-0.056074593
140	0x3f59b59b	0.8504273
141	0x3c874836	0.016513925
142	0xbce4883d	-0.027896995
143	0x3cddf03b	0.02709209
144	0xbd4902a0	-0.04907477
145	0x3be7cd50	0.0070740357
146	0xbd2543bb	-0.040347796
147	0xbd358767	-0.044318583
148	0xbd658f87	-0.05604508
149	0xbcb52ea3	-0.022116965
150	0x3e229db2	0.15880468
151	0xbde1fa80	-0.11034107
152	0xbd2054dd	-0.039143432
153	0xbdc994ac	-0.0984281
154	0x3b9586a7	0.004563171
155	0x3e972911	0.2952352
156	0xbd822a38	-0.06355709
157	0xbdd35136	-0.10318224
158	0xbd94476a	-0.07240184
159	0xbe11faf9	-0.14255895
160	0xbd212687	-0.039343383
161	0xbd5d7d0f	-0.054074343
162	0xbd5e790e	-0.054314665
163	0xbd1cc644	-0.03827502
164	0xbcd75a97	-0.026288314
165	0xbde831a2	-0.11337592
166	0x3a66d60d	0.00088057
167	0xbd1c94db	-0.038227897
168	0x3b8455ce	0.004038549
169	0xbd58281d	-0.05277263
170	0x3cfe45d4	0.031039156
171	0x3c3325eb	0.010934333
172	0xbd4f743c	-0.05064796
173	0xbd39d563	-0.045369517
174	0xbd6f1467	-0.058369067
175	0xbe6f2d6e	-0.23357174
176	0xbe115d93	-0.14195852
177	0x3e2db1bf	0.16962336
178	0xbda4bdce	-0.08044015
179	0xbce8babc	-0.028409354
180	0xbda28a5c	-0.07936546
181	0xbd559fc4	-0.052154317
182	0xbc577640	-0.013150752
183	0xbd8a8450	-0.06763518
184	0xbd4ec57e	-0.050481312
185	0xbd649a99	-0.0558115
186	0xbbc2c186	-0.00594348
187	0xbd26c2f9	-0.040713284
188	0xbe205d47	-0.15660582
189	0x3cb70185	0.022339592
190	0xbf1c3ec1	-0.61033255
191	0xbba7af38	-0.0051173232
192	0xba30ddda	-0.00067469256
193	0xbd56e5f2	-0.052465387
194	0xbc531708	-0.012883909
195	0xbd2d9f3a	-0.04238818
196	0xbca1061b	-0.019656232
197	0xbddcd117	-0.10782068
198	0xbd92274f	-0.07136404
199	0x3c63634b	0.013878654
200	0x3c41bbb1	0.011824534
201	0x3b8af865	0.0042410367
202	0xbd59842c	-0.053104565
203	0xbdbf0cfe	-0.0932865
204	0xbd1cecd9	-0.038311813
205	0xbd7f708d	-0.062363196
206	0xbd3a3bcb	-0.04546718
207	0xbd770b64	-0.060313597
208	0xbd0cfe8c	-0.034422442
209	0x3c163884	0.009168748
210	0xbd15dd98	-0.03658828
211	0xbd0ac366	-0.033877753
212	0x3c9487af	0.018131105
213	0xbce3ff80	-0.027831793
214	0xbd8d3159	-0.06894178
215	0xbc39de82	-0.011344554
216	0xbd155914	-0.036461905
217	0xbd6dec7c	-0.058086857
218	0x3a1b9a47	0.000593577
219	0xbda0c734	-0.07850495
220	0xbcdf8170	-0.0272834
221	0xbd4f9904	-0.050683036
222	0xbd549322	-0.05189813
223	0xbab43cd1	-0.0013751035
224	0xbdb13529	-0.086527176
225	0x3c210c03	0.009829524
226	0xbe065cdd	-0.13121362
227	0xbd55d37f	-0.05220365
228	0xbb7f9923	-0.0039001189
229	0xbd232a0e	-0.03983503
230	0xbdd8220d	-0.1055337
231	0xbd1b6687	-0.037939575
232	0xbd2ba012	-0.0419007
233	0xbd3f93c2	-0.046771772
234	0x3eb05fb2	0.3444801
235	0xbd76e64d	-0.060278226
236	0xbd1195f5	-0.0355434
237	0xbcee6464	-0.029100604
238	0xbdb76e3f	-0.08956575
239	0xbca5b6c6	-0.020228755
240	0xbd7454a2	-0.059651025
241	0x3cd9ef99	0.026603507
242	0xbd819aed	-0.06328378
243	0xbc168712	-0.009187477
244	0xbc3cc28d	-0.011520994
245	0xbd582da2	-0.052777894
246	0xbd2492cd	-0.040179063
247	0x3cadff96	0.021240037
248	0xbc859833	-0.016307926
249	0xbc13bd7d	-0.0090173455
250	0xbb170037	-0.00230409
251	0xbd49a0c5	-0.049225587
252	0xbd61109d	-0.054947484
253	0xbd591bed	-0.053005148
254	0xbce21f87	-0.027602924
255	0xbdbc2dee	-0.09188448

fc3.weight f4 [1, 300]
0	0x3b67ddb1	0.003537994
1	0xbb44dd81	-0.0030039253
2	0xb7ada414	-2.0699612e-05
3	0xbbbc86e5	-0.0057533854
4	0xbd2e95db	-0.042623382
5	0xbc022f94	-0.007945914
6	0x3d7588bc	0.059944853
7	0x3b9ef373	0.0048507988
8	0x3c89c528	0.016817644
9	0x3c34c83d	0.011034069
10	0x3d181d5a	0.037137367
11	0xbc0c2f1a	-0.008556152
12	0xbd20f568	-0.039296538
13	0x3cd62f71	0.026145669
14	0xbca60c20	-0.020269454
15	0x3da5b5ca	0.08091314
16	0xbd6ec9d8	-0.058297962
17	0xbc0b9d95	-0.008521457
18	0xbc50ce28	-0.012744464
19	0x3cdfc2a9	0.0273145
20	0x39ea6407	0.00044706484
21	0xbc2678fd	-0.010160682
22	0xbcd9aed5	-0.026572624
23	0xbc1b9ca5	-0.009497796
24	0x3bf074d2	0.007338145
25	0xbd0e68d6	-0.034767948
26	0x41027e92	8.155901
27	0x3e3924bc	0.1808042
28	0xbca7f537	-0.02050267
29	0x3cceb33e	0.025231954
30	0xbcbe8695	-0.023257533
31	0xbbb2a4e8	-0.0054517873
32	0xbcb53b1f	-0.022122918
33	0xbc22db7b	-0.0099400235
34	0x3cf73221	0.03017527
35	0xc0895835	-4.2920175
36	0x3ca56c16	0.020193141
37	0x3ba6947b	0.005083618
38	0x3db28d60	0.087183714
39	0xbeab58a0	-0.33466053
40	0xbcbdbc0a	-0.023160953
41	0xba6f515f	-0.00091292517
42	0xbcd030f2	-0.025413964
43	0xbb8e8d84	-0.004350366
44	0xbc9a2ff1	-0.018821688
45	0x3b1e3d93	0.0024145588
46	0xbc9f3d27	-0.01943834
47	0x3ccd3a36	0.025052171
48	0x3ab8f720	0.0014111735
49	0x3caec2da	0.021333147
50	0x3da7c681	0.081921585
51	0x3d79dbf5	0.061000783
52	0xbd155f44	-0.036467806
53	0x3c1b1940	0.009466469
54	0x3c5b829e	0.013397841
55	0x3c0c4f5e	0.0085638445
56	0x3d8fb747	0.07017379
57	0x3e00435d	0.12525697
58	0xbd38b047	-0.045089986
59	0x3d43d6ad	0.047812153
60	0x3d5ccb68	0.05390492
61	0xbcce535c	-0.025186233
62	0xbda5d9a8	-0.08098155
63	0x3d735756	0.059409462
64	0xbd1f76a4	-0.038931504
65	0xbc2dfca4	-0.010619316
66	0xbd13890c	-0.03601937
67	0x3eda92c2	0.42690092
68	0xbd429da9	-0.047513638
69	0xbc19c2c7	-0.009384817
70	0xbbc8e339	-0.0061306027
71	0xbd080579	-0.033208344
72	0xbca37c91	-0.019956859
73	0xbf59a32d	-0.8501461
74	0x3bb391b6	0.0054800166
75	0x3cf4b95b	0.02987354
76	0x3c74a93f	0.01493293
77	0x3cf7bc4d	0.030241156
78	0xbc6c9f4e	-0.014442278
79	0x3f11b0dc	0.5691049
80	0x3d923aa8	0.07140094
81	0x3d4544f8	0.048161477
82	0x3c0614d1	0.008183674
83	0xbc9df40b	-0.019281408
84	0xbd3d39d4	-0.046197727
85	0xbcac70c9	-0.021049874
86	0x3d6d0672	0.057867475
87	0x3bbc376e	0.0057439124
88	0xbbe50e54	-0.0069902334
89	0x3cc64663	0.024203485
90	0x3c58e2b4	0.013237644
91	0x3e37bb9a	0.17942658
92	0xbb72f306	-0.0037071123
93	0x3cc11bd8	0.023572847
94	0x3cbf3f90	0.023345739
95	0xbcd7b89b	-0.026333144
96	0xbc5daf24	-0.013530526
97	0xbd178721	-0.036994103
98	0xbc599749	-0.013280698
99	0x3cb1beab	0.021697363
100	0x3e4ba158	0.19885767
101	0x3c9ef985	0.01940609
102	0x3cef214f	0.029190687
103	0xbe7e0a3b	-0.2480859
104	0xbccbb48e	-0.024866369
105	0xbb1be69c	-0.0023788577
106	0xbd15db85	-0.036586303
107	0x3d20ce14	0.03925903
108	0xbc7b01fa	-0.0153202955
109	0x3d83096b	0.06398281
110	0xbc5d737b	-0.013516302
111	0x3c5627ee	0.013071043
112	0x3c92f07a	0.017936934
113	0xbd38c09d	-0.045105565
114	0xbd828416	-0.0637285
115	0x3c42a228	0.011879481
116	0x3dc88fe0	0.09793067
117	0xbc158631	-0.009126232
118	0x3a91cfd6	0.0011124562
119	0x3c64ae66	0.013957595
120	0xbff608e7	-1.9221467
121	0x3dd9f9bc	0.10643336
122	0x3d4b8006	0.04968264
123	0x3c6a1ec5	0.014289563
124	0xc0b18102	-5.546998
125	0x3d93ddbd	0.072200276
126	0xbc559b3e	-0.013037501
127	0x3d2b0a9a	0.041758157
128	0xbbc2ebbe	-0.005948513
129	0xbd5da05f	-0.05410802
130	0xbd1274a4	-0.03575577
131	0xbc8f646b	-0.017503938
132	0x3c1f1036	0.009708455
133	0xbc8d9221	-0.017281594
134	0x3f6faf8f	0.93627256
135	0x3ff1f0f2	1.8901656
136	0xbe1132c4	-0.14179522
137	0x3d0d93fd	0.03456496
138	0x3d2fcadb	0.042918067
139	0x3c85578e	0.0162771
140	0x3fc9750c	1.5738845
141	0x3bd56953	0.0065127998
142	0x3c4cacff	0.012492417
143	0xbe8a0b9d	-0.26961985
144	0x3e079010	0.13238549
145	0x3cbf9e02	0.023390774
146	0xbbcbb699	-0.0062168357
147	0x3dc88f82	0.09792997
148	0xbcf13ee5	-0.029448936
149	0x3c58ae9d	0.013225225
150	0xbf89a326	-1.0752914
151	0x3cefeb23	0.029286927
152	0x3c8678fd	0.016415114
153	0xbabc0cd4	-0.0014347085
154	0x3d71b6be	0.059012167
155	0xc04dc855	-3.2153523
156	0x3e1dee7b	0.15423004
157	0xbd6c8745	-0.05774619
158	0x3cf9451c	0.030428462
159	0xbd1c6a37	-0.038187232
160	0x3bed44a4	0.0072408486
161	0xbaff7f85	-0.001949296
162	0xbcb66a7c	-0.022267573
163	0xbe035051	-0.12823607
164	0xbaf215eb	-0.0018469667
165	0xbfa94c7f	-1.322647
166	0xbbd6865f	-0.00654678
167	0xbcc40cfc	-0.023931973
168	0xbcea78b0	-0.028622001
169	0x3e58606c	0.21130532
170	0xbfa56e23	-1.2924236
171	0xbcf476c9	-0.029841797
172	0xbbf3c34b	-0.007439052
173	0x3dae92c2	0.085240856
174	0xbb3d1c0d	-0.002885583
175	0xbe887972	-0.26655155
176	0x4075c65a	3.8402314
177	0xc063b184	-3.5577097
178	0xbc0a093c	-0.008425053
179	0xbcd54c27	-0.026037289
180	0x3ca4793c	0.02007734
181	0xbecddbf1	-0.40206864
182	0x3f14c504	0.5811312
183	0xbcc4a18f	-0.024002818
184	0xbb541e53	-0.0032366707
185	0x3ba75989	0.005107109
186	0x3da2b396	0.079444095
187	0xb30e4502	-3.3124714e-08
188	0xbd9e95f0	-0.07743442
189	0x3c6cfffb	0.014465327
190	0x3faf0a0f	1.3674945
191	0x3dd73b24	0.10509327
192	0x3c4cedec	0.012507897
193	0x3d198895	0.03748377
194	0x40f67062	7.7012186
195	0xbceb0290	-0.028687745
196	0xbc786e0a	-0.015162954
197	0x3d4c6d70	0.049909055
198	0x3d382632	0.0449583
199	0x3cc0626f	0.023484437
200	0x3d132ade	0.035929553
201	0x3d5fba98	0.05462131
202	0xbcf8c29c	-0.030366234
203	0xbd54f73d	-0.051993597
204	0xbc290fd1	-0.010318712
205	0x3f2f459c	0.6846559
206	0xbc72e88b	-0.01482595
207	0x3d8f36be	0.06992863
208	0xbcc9dac4	-0.024640448
209	0x3c57411a	0.01313808
210	0xbbd59613	-0.0065181344
211	0x3d98ca90	0.07460511
212	0x3d22865c	0.039678916
213	0xbccbdff0	-0.024887055
214	0xbafce338	-0.0019293791
215	0x3de10f0c	0.10989198
216	0xbcea2152	-0.028580341
217	0xbccde19b	-0.025131991
218	0xbce9dc6b	-0.028547486
219	0xbd01d263	-0.03169478
220	0xbfec8d6e	-1.8480661
221	0x3d288fa0	0.041152596
222	0xbb1dcb43	-0.0024077452
223	0x3c82f31b	0.015985062
224	0xbcfca220	-0.030839026
225	0xc1285864	-10.52158
226	0x3f245f79	0.6420818
227	0x3d41020c	0.047121093
228	0x394201e4	0.00018501986
229	0x3d05cfe7	0.032668974
230	0x3c87fcf1	0.016600104
231	0x3d14e226	0.036348484
232	0x3dbaf0ff	0.091279976
233	0xbd34d720	-0.04415047
234	0x3f2ce1d7	0.67532104
235	0x3d37e463	0.04489554
236	0x3cc63065	0.024192998
237	0xbdd21aee	-0.10259043
238	0x3c9901cf	0.01867762
239	0x3db75cb0	0.089532256
240	0xbbd231e0	-0.006414637
241	0xbed70a49	-0.42000034
242	0x3ad0a30e	0.0015917735
243	0xbd5e799e	-0.054315202
244	0x3cb91289	0.022591846
245	0x3d86c496	0.065804645
246	0x3e1dd5e0	0.15413618
247	0xbdaac7ed	-0.08338914
248	0xbd1b82b5	-0.03796645
249	0x3e098ce7	0.13432656
250	0x3dbae185	0.09125046
251	0xbb10bf83	-0.0022086806
252	0xbbf60407	-0.0075078043
253	0xbce68ba8	-0.028142765
254	0xbb6282cd	-0.0034562827
255	0x3e4fc017	0.2028812
