Char10 TD3/expTD3.pyPendulum-v0./actor_target.pth (torch_old, 489901 bytes, 5 tensors)

fc1.weight f4 [400, 3]
0	0xbf9d6efe	-1.2299497
1	0x3f9360ce	1.1513917
2	0x3de21f43	0.11041119
3	0x3fa48284	1.285233
4	0x3f060503	0.523514
5	0x3f0936d9	0.53599316
6	0xbec2dd98	-0.38059688
7	0xbf19e7a5	-0.60119087
8	0xb9554a02	-0.00020340833
9	0x3f6cf44d	0.92560273
10	0xc00aaf9d	-2.1669686
11	0x3d36db7e	0.044642918
12	0x3e630b94	0.22172385
13	0xbe1345b9	-0.14382066
14	0x3f6c62ea	0.9233843
15	0x3f302b78	0.6881633
16	0x3f94e691	1.1632863
17	0x3cea1c6a	0.028578002
18	0xbf0376a9	-0.51352936
19	0x3fb1fb76	1.3904865
20	0x3e226c70	0.15861678
21	0xbe88ed8c	-0.26743734
22	0xbdbdc73f	-0.09266519
23	0x3bb01e5f	0.0053747143
24	0xbf20ca87	-0.6280903
25	0x3f1359a8	0.5755868
26	0x3f136020	0.5756855
27	0x3f81442d	1.0098931
28	0xbf95794b	-1.1677641
29	0xbead863e	-0.3389148
30	0xbf981b98	-1.1883421
31	0xbed4ef2c	-0.41588724
32	0xbe23f42f	-0.16011117
33	0x3ed1df01	0.4099045
34	0x3f090f24	0.5353873
35	0xb7967ca5	-1.7939436e-05
36	0xbfb49554	-1.4108071
37	0xbf9c4855	-1.2209574
38	0xbe874c98	-0.26425624
39	0x3e133b0d	0.14377995
40	0xbd632802	-0.055458076
41	0x3c6ab72a	0.014325896
42	0xbf19b488	-0.60041094
43	0x3e9298f5	0.28632322
44	0x3ed6fcab	0.41989645
45	0x3f528d88	0.8224721
46	0x3e721c06	0.23643503
47	0x3f24edf1	0.6442557
48	0xbfbd7cec	-1.4803748
49	0x3e2ec2e8	0.17066538
50	0x3e55188b	0.20810144
51	0x3cc2aa08	0.023762718
52	0x3d1bb3cd	0.03801327
53	0x3c88659d	0.016650015
54	0xbfb35fe0	-1.4013634
55	0xbdd13f8a	-0.10217197
56	0x3e2a22cb	0.16614835
57	0x3e26a4d5	0.16273816
58	0xbfaac454	-1.3341165
59	0x3e7922e1	0.24329711
60	0xbeaf31a6	-0.34217566
61	0xbda16ca6	-0.07882051
62	0x3c08802c	0.00833134
63	0x3ef77c0e	0.48336834
64	0xbf2ea64a	-0.68222487
65	0x3ede1e68	0.43382573
66	0x3cd5154a	0.026011128
67	0x3ff5e9b7	1.9211949
68	0x3e4eb359	0.20185603
69	0xbf09515e	-0.5363978
70	0x3f232c16	0.63739145
71	0x3e8ec58d	0.27885094
72	0xbe91ee56	-0.28502148
73	0xbfb5a9a2	-1.4192393
74	0xbebc7c00	-0.36813354
75	0xbdf6c1ad	-0.120486595
76	0x3fef2cc8	1.8685541
77	0x3e941c11	0.28927663
78	0x3ee36fd7	0.44421265
79	0x3fa5bb89	1.2947856
80	0x3e4cb3b3	0.19990425
81	0xbe9a7644	-0.30168355
82	0x3dba1972	0.090868846
83	0x3f4863cd	0.78277284
84	0xbd04aaec	-0.032389566
85	0xbefef533	-0.49796447
86	0x3cc7a1e8	0.024369195
87	0x3fbad62b	1.4596609
88	0xbf4aa8db	-0.79163903
89	0xbeb9f3c0	-0.3631878
90	0x3fc42579	1.5323936
91	0xbd64e979	-0.05588672
92	0x3ea2f42b	0.3182691
93	0xbe89529f	-0.26820847
94	0x3fdfe0f5	1.7490526
95	0x3ea1342e	0.31485122
96	0xbd031e0c	-0.032011077
97	0xbd409790	-0.04701954
98	0x3cc54600	0.02408123
99	0xbf96dc8d	-1.1786057
100	0xbf14fc1c	-0.5819719
101	0x3e063618	0.13106573
102	0x3fa77758	1.3083296
103	0xbf864765	-1.0490538
104	0xbe8c6698	-0.27422023
105	0x3d5699e9	0.052392874
106	0x3f524a2d	0.82144433
107	0x3ed40f35	0.41417852
108	0x3bff121b	0.0077841408
109	0x3e724eeb	0.23662917
110	0x3b6fdf7a	0.0036601708
111	0x3f9584ec	1.168119
112	0x3ec5840b	0.38577303
113	0x3f371efc	0.71531653
114	0xbf48f8e0	-0.78504753
115	0xbf2c63ae	-0.673396
116	0xbb264b86	-0.0025374605
117	0x3f66abf0	0.90106106
118	0x3ebde4bf	0.37088582
119	0x3eb3a5ef	0.35087535
120	0x3f91256f	1.1339549
121	0x3f86171d	1.0475804
122	0x3f2dbca2	0.67865956
123	0xbf33ba99	-0.702066
124	0x3f8443a9	1.0333148
125	0x3eb8a227	0.36061212
126	0xbf81f6ad	-1.0153404
127	0x3fd237df	1.64233
128	0x3eae17bd	0.34002486
129	0xbcf18d3a	-0.029486287
130	0x3f10a9cd	0.56509095
131	0x3f0f686e	0.5601872
132	0xbdf84bbb	-0.121238194
133	0x3d897644	0.067120105
134	0x3ac63448	0.0015121782
135	0x3f375644	0.71616006
136	0x3f8bbbaa	1.0916646
137	0x3d935824	0.07194546
138	0xbfa5712f	-1.2925166
139	0x3f9227ac	1.1418357
140	0xbe93f0bf	-0.28894612
141	0xbf75b827	-0.9598412
142	0xbfa299c1	-1.2703172
143	0xbe7e88bb	-0.24856846
144	0x3f32bd79	0.6982036
145	0xbc890616	-0.016726535
146	0xbf5bb47e	-0.85822284
147	0x3f235725	0.63804847
148	0x3f90e54e	1.1319978
149	0x3ee1e2e4	0.44118416
150	0xbf91655c	-1.1359057
151	0xbfa9c61b	-1.3263582
152	0xbec09b77	-0.3761861
153	0x3ef2c960	0.47419262
154	0xc03d7288	-2.9601154
155	0xbd4929d9	-0.049112175
156	0xbf20df3e	-0.6284064
157	0x3e6c96da	0.2310442
158	0xb9910186	-0.0002765769
159	0x3f71b047	0.944096
160	0x3ea5ed5b	0.3240765
161	0x3e854a57	0.2603328
162	0x3e9264fd	0.28592673
163	0xbe8b8344	-0.27248585
164	0x3c3289e7	0.010897136
165	0xbf205621	-0.6263142
166	0x3e6f75dd	0.23384805
167	0x3f80c7a5	1.0060927
168	0x3e53d84d	0.20687981
169	0xbf64ca82	-0.893715
170	0xbe5f0553	-0.21779375
171	0xbe96db7d	-0.2946433
172	0x3f2d8b13	0.67790335
173	0x3f339d0c	0.7016151
174	0xbea40d4e	-0.320414
175	0xbe205f1e	-0.15661284
176	0x3c03e92c	0.008051198
177	0x3fa51609	1.289735
178	0xc00aa855	-2.1665242
179	0xbea296df	-0.3175573
180	0xbfb05461	-1.377575
181	0xbf19d741	-0.60094076
182	0xbe34a2ac	-0.1764018
183	0x3bb2e235	0.005459095
184	0x3fc98dcd	1.5746399
185	0x3e718b59	0.23588313
186	0x3f26d95c	0.65175414
187	0x3f31ea26	0.6949791
188	0x3ec1d10d	0.37854806
189	0x3e971e3d	0.29515257
190	0xbf017a13	-0.50576895
191	0x3eea7120	0.45789433
192	0x3d027935	0.031853873
193	0x3c94ddcd	0.01817217
194	0xbd17c7e5	-0.03705587
195	0x3f934add	1.1507221
196	0x3e8e1e19	0.27757338
197	0x3f0007cc	0.500119
198	0xbe377275	-0.17914756
199	0x3ed04ce3	0.4068366
200	0x3e4460a7	0.19177495
201	0xbe16a6a8	-0.14712012
202	0x3e9196b4	0.2843529
203	0x3e0a7adb	0.13523428
204	0xbc6e2de2	-0.0145373065
205	0x3f07e0cc	0.5307739
206	0x3ba34d1e	0.0049835583
207	0xbfdf5969	-1.7449161
208	0xbf95d8d4	-1.1706796
209	0x3ec1e5af	0.37870547
210	0x3f3ebf7f	0.7451095
211	0x3f88415b	1.0644945
212	0x3f24f02f	0.6442899
213	0xbf236556	-0.638265
214	0x3e6e5d8a	0.2327787
215	0x3b68bb5a	0.003551206
216	0x3fa99681	1.3249055
217	0x3f0fe5e5	0.56210166
218	0xbe8e53fe	-0.27798456
219	0xbec4f47c	-0.38467777
220	0x3ed1b822	0.40960795
221	0x3e945032	0.28967434
222	0x3f684bbc	0.9074056
223	0x3f1551c6	0.583279
224	0x3cd47bac	0.025937878
225	0x3ebdba79	0.3705633
226	0xc01a23b0	-2.4084282
227	0xbdacb955	-0.08433787
228	0xbf9816ec	-1.1881995
229	0xbf81821c	-1.0117831
230	0x3df8325a	0.12118979
231	0xbeb50e87	-0.35362646
232	0x3f272062	0.6528379
233	0x3e9a2e3c	0.301134
234	0xbf27e356	-0.6558126
235	0xbeb591af	-0.3546271
236	0x3af5a343	0.0018740672
237	0xbea0a3de	-0.3137502
238	0xbf1593d5	-0.584287
239	0xbca1aa5e	-0.019734558
240	0xbe2ea506	-0.17055139
241	0xbd22e3a6	-0.039767884
242	0x3b875f1c	0.004131211
243	0x3f69bf24	0.9130728
244	0x3f3c6a64	0.7359984
245	0x3f393bb1	0.72356707
246	0xbf42c813	-0.7608654
247	0x3f896a78	1.0735617
248	0x3e550015	0.20800813
249	0x3b4f3a70	0.0031620525
250	0x3d181ab6	0.03713485
251	0x3b2910e6	0.0025797426
252	0xbd678dca	-0.056531705
253	0xbd2c8097	-0.04211482
254	0xbdb684a7	-0.0891202
255	0x3f134215	0.5752271

fc1.bias f4 [400]
0	0xbf4ef9aa	-0.8084971
1	0xbf8da5a4	-1.1066175
2	0xbf379870	-0.71716976
3	0xbf31d4be	-0.69465244
4	0xbf5dc82d	-0.8663357
5	0xbea78729	-0.32720307
6	0xbe2f5370	-0.17121673
7	0xbea8869f	-0.32915208
8	0xbf72f7d4	-0.94909406
9	0xbf2cddfd	-0.6752623
10	0xbf4d6a7e	-0.8024062
11	0xbf3589e0	-0.70913506
12	0xbf174fcb	-0.5910613
13	0xbe64691b	-0.2230572
14	0xbf0c83b3	-0.5488846
15	0xbfe6502d	-1.7993218
16	0xbf3e4b31	-0.74333483
17	0xbe274a37	-0.16336904
18	0xbef8ddcd	-0.4860672
19	0xbf14cdbb	-0.5812642
20	0xbed960e2	-0.42456728
21	0xbf33cde2	-0.7023603
22	0xbf2d53d2	-0.67706025
23	0xbf129b18	-0.57267904
24	0xbf95808b	-1.1679853
25	0x3f35df6e	0.7104405
26	0x3e047672	0.12935808
27	0xbe4195b9	-0.18904771
28	0xbf2db850	-0.67859364
29	0xbf56e34e	-0.8394059
30	0xbfa44a54	-1.2835183
31	0x3f4c7d35	0.7987855
32	0xbe82867d	-0.2549323
33	0xbf4f0c01	-0.8087769
34	0xbf80aaa8	-1.005208
35	0xbbfffdfd	-0.00781226
36	0xbec71229	-0.38881043
37	0xc00cb9c8	-2.1988392
38	0xbf8792ad	-1.0591637
39	0xbf2cda2c	-0.67520404
40	0xbf3f1184	-0.746361
41	0xbed1572c	-0.4088682
42	0x3e04dded	0.12975283
43	0xbebf23e3	-0.37332067
44	0xbe1f4f3e	-0.15557572
45	0xbe419055	-0.18902715
46	0xbf17ebf1	-0.59344393
47	0xbf6bc00a	-0.92089903
48	0xbfb9a7ec	-1.4504371
49	0xbda7637e	-0.081732735
50	0xbe4b0f3c	-0.1983003
51	0xbf7776fe	-0.9666594
52	0xbf345930	-0.7044859
53	0xbed9e4f9	-0.42557505
54	0xbef0a45c	-0.47000396
55	0x3e89aa14	0.26887572
56	0xbf1fa246	-0.62356985
57	0xbe6a4de7	-0.2288128
58	0xbed8774a	-0.4227851
59	0xbf86c499	-1.0528747
60	0xbf4ae9bb	-0.79262894
61	0x3f092d2d	0.5358456
62	0xbf122265	-0.5708373
63	0xbf7071eb	-0.93923825
64	0xbe95e8fe	-0.2927932
65	0xbfc9bd7b	-1.576095
66	0xbf16baf0	-0.58878994
67	0xbf02c4d6	-0.510816
68	0xbf122a66	-0.57095945
69	0xbf0f2e27	-0.559298
70	0x3de3eb1a	0.111288264
71	0xbf3678f0	-0.71278286
72	0x3f052afa	0.520187
73	0xbedc650b	-0.4304584
74	0x3e90547f	0.28189465
75	0xbee5a22c	-0.4485029
76	0xbf3b376e	-0.73131454
77	0xbf51e16c	-0.8198459
78	0xbf431831	-0.7620879
79	0xbf5381c2	-0.8261987
80	0xbe6690ab	-0.22516124
81	0xbfa26dc2	-1.2689745
82	0xbf0f89fd	-0.5606993
83	0xbd7131c4	-0.05888535
84	0xbf4980d1	-0.78712183
85	0xbf8bb6d5	-1.0915171
86	0xbf82bcbb	-1.0213846
87	0xbfe6aec4	-1.8022084
88	0xbf2bedac	-0.67159534
89	0xbf09f985	-0.5389636
90	0xbf0d4217	-0.5517897
91	0xbf28c06f	-0.6591863
92	0xbf189ad6	-0.5961126
93	0xbf5c0967	-0.85951847
94	0xbf764fec	-0.962157
95	0x3dfe394a	0.12413271
96	0x3f2353f5	0.63799983
97	0xbe0b8977	-0.13626657
98	0xbe599f3a	-0.21252146
99	0xbf1be8b4	-0.6090195
100	0xbec859b9	-0.39130953
101	0xbe5ea3c2	-0.21742156
102	0xbe8ca755	-0.27471414
103	0xbf25c25b	-0.6474969
104	0xbf0cd141	-0.55006796
105	0xbf82e11a	-1.0224946
106	0xbe0576e0	-0.13033628
107	0xbf4fbc65	-0.8114684
108	0xbf853a82	-1.040848
109	0xbf4fd4b4	-0.81183934
110	0xbf3d3071	-0.7390204
111	0xbdbf8b98	-0.09352797
112	0x3df6ca39	0.1205029
113	0xc0019979	-2.0249922
114	0xbfbe68d5	-1.4875742
115	0xbf400a45	-0.7501567
116	0xbf3073b1	-0.6892653
117	0xbe182e35	-0.14861377
118	0xbf6a46ab	-0.9151408
119	0xbf8c1913	-1.0945152
120	0xbf88ff85	-1.0702978
121	0x3d7e3299	0.062059972
122	0xbf74c60a	-0.95614684
123	0x3ef8fb48	0.48629212
124	0x3c85be52	0.016326103
125	0xbf22c51a	-0.63582003
126	0xbe4dac01	-0.20085146
127	0xbf968a62	-1.1760981
128	0xbf72fc62	-0.94916356
129	0xbedfa7bb	-0.43682656
130	0xbf481d30	-0.78169537
131	0xbe8ed77e	-0.27898782
132	0xbf7186ec	-0.943465
133	0x3eace3fd	0.3376769
134	0xbe91058d	-0.28324547
135	0xbf38e478	-0.72223616
136	0xbf3f2746	-0.746693
137	0xbf5d2042	-0.86377347
138	0x3dd79170	0.10525787
139	0xbf70e5fc	-0.9410093
140	0x3e43d799	0.19125213
141	0xbd39c701	-0.0453558
142	0xbf1e8e80	-0.6193619
143	0xbde48bbe	-0.11159466
144	0xbe9724b5	-0.29520193
145	0xbfa0fcef	-1.2577189
146	0xbfc872b5	-1.5660006
147	0x3e04d6ea	0.12972608
148	0xbf99e6ba	-1.2023537
149	0xbf05e906	-0.5230869
150	0xbfc244ba	-1.5177224
151	0xbf894fc0	-1.0727463
152	0xbe8c97d5	-0.2745959
153	0xbf9187a7	-1.1369523
154	0xbf8de187	-1.108445
155	0xbf7043e4	-0.9385359
156	0xbf5badf2	-0.85812294
157	0xbe79c3da	-0.24391118
158	0xbe87b064	-0.26501763
159	0x3edae703	0.42754373
160	0xbea46cef	-0.3211436
161	0xbdff9bf0	-0.124809146
162	0xbf1ec661	-0.6202145
163	0xbeac1017	-0.33606026
164	0xbec0794b	-0.3759254
165	0xbe485341	-0.19563009
166	0xbe52374a	-0.20528904
167	0xbd2e8dcc	-0.042615697
168	0xbfbc6f66	-1.4721496
169	0x3d2fd1de	0.042924754
170	0xbf312225	-0.69192725
171	0xbf267586	-0.65023077
172	0xbf3eb9af	-0.7450208
173	0xbf127c2e	-0.57220733
174	0xbf1030ee	-0.5632466
175	0x3e4f561b	0.2024769
176	0xbf7d4a5b	-0.9894158
177	0xbfbea4eb	-1.4894079
178	0xbd8a694e	-0.067583665
179	0xbdcca340	-0.09992075
180	0xbf1f2446	-0.62164724
181	0xbfc17de5	-1.5116545
182	0x3e1ebbd2	0.15501335
183	0xbe4f332c	-0.20234364
184	0xbeb9902e	-0.36242813
185	0xbe9cfa10	-0.30659533
186	0xbf5b9bfa	-0.85784876
187	0x3e86a32f	0.26296374
188	0xbf55f081	-0.83570105
189	0xbf736cdc	-0.9508798
190	0xbf4c77f3	-0.7987053
191	0xbf71f3a9	-0.9451242
192	0xbea77e84	-0.3271371
193	0xbf5fee7c	-0.87473273
194	0xbf052f93	-0.5202572
195	0xbf7e91ae	-0.9944104
196	0xbf23059e	-0.63680446
197	0xbf1a2626	-0.6021446
198	0xbf1143ee	-0.5674428
199	0xbf151ee1	-0.5825024
200	0x3e4d66a1	0.20058681
201	0xbec57426	-0.38565177
202	0xbf14e20f	-0.5815744
203	0xbef4981f	-0.4777231
204	0xbf969b1d	-1.1766087
205	0xbeab36a4	-0.33440125
206	0xbf0bea65	-0.5465453
207	0xbdeafb23	-0.11473682
208	0xbe51f802	-0.20504764
209	0xbf11593f	-0.56776804
210	0xbf2e812b	-0.68165845
211	0xbf084a42	-0.5323831
212	0xbe8f3eaf	-0.2797751
213	0x3eb9869b	0.36235508
214	0xbffb9cbb	-1.9657205
215	0xbeddf4c2	-0.43350798
216	0xbf46457d	-0.7744978
217	0xbf625e73	-0.8842537
218	0x3d920b40	0.07131052
219	0xbf0714e5	-0.5276626
220	0xbf510e49	-0.8166242
221	0xbdd8c079	-0.10583586
222	0xbf2f880d	-0.6856697
223	0xbed693b2	-0.41909558
224	0xbf940063	-1.1562618
225	0xbf7f1d86	-0.99654424
226	0xbf5691e7	-0.8381638
227	0xbee9b173	-0.45643196
228	0xbe4f5ff1	-0.20251442
229	0xbf1351c5	-0.57546645
230	0xbf33105c	-0.6994684
231	0xbf194691	-0.598733
232	0xbed915bb	-0.42399392
233	0xbf980c96	-1.1878841
234	0x3e2d0d06	0.168995
235	0xbf9c0559	-1.2189132
236	0xbfbbeb3c	-1.4681163
237	0xbeb2f341	-0.34951213
238	0xbee350a3	-0.44397458
239	0xbfbc9050	-1.4731541
240	0xbf9d8123	-1.2305034
241	0xbf24bb41	-0.64348227
242	0x3ee39deb	0.4445642
243	0xbe43a334	-0.19105226
244	0xbf402c89	-0.75067955
245	0xbf2b40c8	-0.66895723
246	0xbdbfd55e	-0.093668684
247	0xbf879c43	-1.0594562
248	0xbf4ce56c	-0.8003757
249	0x3c43dd86	0.011954671
250	0x3da304f9	0.07959933
251	0xbf868b65	-1.051129
252	0xbeeaa43a	-0.4582842
253	0xbf4a6374	-0.79058003
254	0xbf80e8a0	-1.0070992
255	0xbf0f3b9d	-0.5595034

fc2.weight f4 [300, 400]
0	0x3ca5c90e	0.020237472
1	0xbd072ac5	-0.032999773
2	0x3b80b66c	0.0039279964
3	0xbd02178d	-0.03176074
4	0x3c9e19dd	0.019299442
5	0x3b34515f	0.0027514321
6	0xbcee4233	-0.0290843
7	0xbccd3b81	-0.025052788
8	0x3c623762	0.01380715
9	0xbb8c0cc5	-0.004273983
10	0x3d14b39d	0.036304105
11	0xbd4dbf89	-0.05023149
12	0xbd6765f3	-0.05649371
13	0xbb373088	-0.002795251
14	0xba6c8beb	-0.0009023535
15	0x3cd2891e	0.025700148
16	0xbd0b0fa5	-0.033950467
17	0xbc42c3d1	-0.011887507
18	0x3d232866	0.03983345
19	0x3ca248f6	0.019810181
20	0xbd5013a2	-0.050799973
21	0x3cd863c1	0.026414754
22	0x3cec553a	0.028849233
23	0xbc294ab7	-0.010332755
24	0xbd634b2b	-0.055491608
25	0xbd55b762	-0.05217684
26	0x3d0385f4	0.03211017
27	0x3cc7fd50	0.024412781
28	0xbd1b7d1e	-0.037961118
29	0x3c1c5585	0.009541874
30	0xbc27d227	-0.010242975
31	0x3d2c3596	0.04204329
32	0x3d01142c	0.031513378
33	0x3cd554f1	0.02604148
34	0x3b4ddc70	0.0031411909
35	0xbd52ea32	-0.051492877
36	0xbd5aecfa	-0.053448655
37	0xbd308198	-0.04309234
38	0xbbfaf1dc	-0.0076582264
39	0xbc0480bd	-0.008087334
40	0x3cf6ae73	0.03011248
41	0x3a53d941	0.00080813846
42	0xbd473939	-0.048638556
43	0xbd17087e	-0.036873333
44	0xbd28080f	-0.04102331
45	0xbd5cdc4a	-0.05392102
46	0x3d0df124	0.034653798
47	0xbbf22c8c	-0.0073905643
48	0x3b2b0d7e	0.0026100571
49	0x3c686632	0.0141845215
50	0xbc91fc4e	-0.017820504
51	0x3d2b5c66	0.041836165
52	0x3d140add	0.036143173
53	0xbd3c2b88	-0.045939952
54	0x3d101725	0.035178322
55	0x3acaea88	0.0015481273
56	0x3c74c62b	0.014939825
57	0xbc572f2a	-0.013133803
58	0x3c17488d	0.009233606
59	0x3c409dd0	0.011756375
60	0x3ca8e6b6	0.020617824
61	0xb8de63b2	-0.000106043546
62	0x3ceeb05a	0.029136825
63	0x3c760a63	0.015017125
64	0xbcf7566c	-0.030192576
65	0x3c5f2251	0.0136190215
66	0xbcdcf3ba	-0.026971687
67	0x3c0e64c4	0.008691017
68	0x3b657a8a	0.0035015666
69	0x3b07655c	0.002065978
70	0xbd32cde0	-0.04365337
71	0x3d0eb474	0.034840062
72	0xbd3a60a5	-0.045502324
73	0x3d0d1984	0.03444816
74	0xbb5dc38a	-0.0033838474
75	0x3d14800d	0.03625493
76	0x3cfda6d3	0.030963337
77	0x3cf0fbdb	0.029416969
78	0x3c6800a2	0.014160307
79	0xbc91664e	-0.017748978
80	0x3b8f517c	0.0043737274
81	0xbd0f12fd	-0.034930218
82	0x3b8edd14	0.0043598507
83	0x3ce37c62	0.027769271
84	0x3bad1056	0.0052814884
85	0xbd5016c2	-0.050802954
86	0x3c0cae7c	0.008586522
87	0x3c28099e	0.010256199
88	0x3ccdfe08	0.025145546
89	0x3ce090ba	0.027412761
90	0x3cb7d0af	0.022438375
91	0xbbbcc700	-0.0057610273
92	0x3d020a44	0.03174807
93	0x3c86db14	0.016461886
94	0x3cbd1e7f	0.02308583
95	0xbd178af6	-0.036997758
96	0xbd009ae3	-0.03139771
97	0xbca666df	-0.020312725
98	0x3b3a9547	0.0028470324
99	0xbc6bca2b	-0.014391462
100	0xbbe3faf3	-0.0069574057
101	0x3991f225	0.00027836967
102	0xbd4765c1	-0.048681024
103	0xbd1b79fe	-0.037958138
104	0x3d327bd7	0.043575134
105	0xba23823f	-0.0006237365
106	0xbd0dd5cd	-0.034627724
107	0xbc182f06	-0.009288555
108	0x3b8556cc	0.004069185
109	0xbcbbaaa0	-0.022908509
110	0xbd08433d	-0.03326725
111	0xbbc81011	-0.006105431
112	0x3c74f37b	0.014950628
113	0x3c378997	0.011202238
114	0xbc5c3132	-0.013439463
115	0x3d313b87	0.04326966
116	0xbc65cd5b	-0.014026011
117	0xbcd32a42	-0.025776986
118	0xbd183ea6	-0.03716912
119	0x3b7547db	0.0037426862
120	0xbc11df66	-0.00890336
121	0x3c947ced	0.018125976
122	0x3d1b19e5	0.03786649
123	0xbd344e40	-0.044019938
124	0xbc661b7b	-0.014044638
125	0x3b9654cd	0.0045877458
126	0x3cf11fcb	0.029434105
127	0xbc370d60	-0.011172622
128	0x3d2a6afe	0.041605942
129	0x3bde8481	0.006790698
130	0xbd3083f0	-0.043094575
131	0xbc603f7b	-0.01368701
132	0x3d2f6b76	0.042827092
133	0xbbbf1be0	-0.0058321804
134	0x3ba5edc6	0.005063745
135	0x3ca1ccbe	0.019750949
136	0xbb9022de	-0.0043986877
137	0xbc43b539	-0.011945062
138	0x3d0b36b4	0.033987716
139	0xbbae90b7	-0.00532731
140	0x3c8e39cc	0.017361544
141	0x3c8b5aa4	0.017010994
142	0xbbec1cfb	-0.007205603
143	0xbd47e069	-0.048798
144	0xbc11ac9e	-0.008891253
145	0xbcb45480	-0.022012949
146	0x3d0674bc	0.03282617
147	0xbd6a82d3	-0.05725367
148	0x3d0b6d64	0.03403987
149	0x3c944bb5	0.018102506
150	0xbd4c5e69	-0.049894724
151	0xbd39cd48	-0.045361787
152	0xbcf8c72c	-0.03036841
153	0xbbfc5b94	-0.0077013467
154	0x3c9ac715	0.018893758
155	0xbb9cbfc6	-0.0047836034
156	0xba3d3780	-0.0007218048
157	0x3d17a4bd	0.03702234
158	0x3c132b6d	0.0089825215
159	0x3c014ba4	0.007891569
160	0x3d2b17a6	0.0417706
161	0xbcc3d6d1	-0.023906143
162	0x3cb922f7	0.02259968
163	0x3c8dec74	0.017324664
164	0x3c6fce4a	0.0146365855
165	0xbb715294	-0.0036822902
166	0xbd5aec32	-0.05344791
167	0xbd09405d	-0.033508647
168	0xbbabe137	-0.0052453536
169	0xbc1787d6	-0.009248694
170	0xbd443b99	-0.0479084
171	0xbd017e6d	-0.03161471
172	0x3cb3d9d7	0.02195446
173	0xbc04a7cd	-0.008096647
174	0xbd4b83a9	-0.049686108
175	0xbc479631	-0.0121818045
176	0xbc590e12	-0.0132479835
177	0xbd4a1541	-0.049336676
178	0x3cea6f4a	0.02861752
179	0xbd5f67da	-0.0545424
180	0xbd30bcf8	-0.043148965
181	0x3d0eb924	0.034844533
182	0x38bf5807	9.123986e-05
183	0x3c0d609c	0.0086289905
184	0xbd4d1151	-0.050065342
185	0xbce66423	-0.02812392
186	0xbd23e95f	-0.040017482
187	0xbd6263eb	-0.05527107
188	0xbd13f4fe	-0.036122315
189	0xbc9bc756	-0.01901595
190	0xbd2a38ff	-0.041558262
191	0x3d209e66	0.03921356
192	0x3b7d5fbb	0.0038661796
193	0x3d2a9916	0.0416499
194	0x3c8dec74	0.017324664
195	0x3cc2fda0	0.023802578
196	0xbd285567	-0.04109707
197	0xbcafe6e7	-0.021472408
198	0x3caedd46	0.021345746
199	0x3c38606f	0.01125346
200	0xbd495a89	-0.049158607
201	0xbcf4541c	-0.029825263
202	0xbceb03bb	-0.028688302
203	0xbcf610a4	-0.030037232
204	0xbd530fb2	-0.05152864
205	0xbd113a8e	-0.035456233
206	0x3d1db2bd	0.038500536
207	0xbd063d45	-0.032773275
208	0x3ba4f7ae	0.0050344085
209	0x3bd61779	0.00653356
210	0xbd404c91	-0.04694802
211	0xbd2108a7	-0.039314892
212	0x3c4c11d8	0.012455426
213	0x3c95cb4d	0.018285418
214	0xba4575a9	-0.00075324863
215	0x3b91efcd	0.0044536353
216	0x3c488f68	0.012241222
217	0x3c450aa0	0.012026459
218	0x3cc4da30	0.024029821
219	0x3d184a5d	0.037180293
220	0xbc6d4e74	-0.014484037
221	0xbd5465e2	-0.051854976
222	0x3d2294be	0.039692633
223	0xbd332498	-0.04373607
224	0x3d036524	0.032078877
225	0x3c8b827c	0.017029993
226	0xbb7d9fcc	-0.0038699983
227	0xbd326530	-0.04355353
228	0xbb78d474	-0.0037968429
229	0xbb3213f0	-0.0027172528
230	0xbcf1b824	-0.02950675
231	0x3ce6667a	0.028125037
232	0x3d27c8c6	0.040962957
233	0xbc3b8b60	-0.011446804
234	0xbd6706a3	-0.056402814
235	0xbd4ab311	-0.049487177
236	0xbc289a27	-0.010290659
237	0xbd1f33e6	-0.038867854
238	0x3d1230a5	0.035690922
239	0xba8df445	-0.0010830244
240	0x3ca98936	0.02069531
241	0x3cc88ea0	0.024482071
242	0xbc9bcb3e	-0.019017812
243	0xbd469079	-0.048477624
244	0xbd06f98d	-0.032952834
245	0x3d08d48c	0.033405825
246	0x3cc9c4c8	0.024629965
247	0xbc259bbf	-0.010107934
248	0x3b386f47	0.0028142498
249	0x3d09f40c	0.033680007
250	0xbcb0e598	-0.021593854
251	0xbd2253e7	-0.039630797
252	0x3a579e19	0.00082251575
253	0x3cbd5c37	0.02311526
254	0xbcee5043	-0.029091006
255	0x3d08000c	0.03320317

fc2.bias f4 [300]
0	0xbd382830	-0.0449602
1	0xbca7671f	-0.020434914
2	0x3a21708e	0.00061584346
3	0x3c37d627	0.0112204915
4	0xbde6699b	-0.112506114
5	0xbcadbe8f	-0.02120903
6	0xbdd8da82	-0.10588552
7	0xbd473f79	-0.048644517
8	0x3c29e0b6	0.010368517
9	0xbdb3ce20	-0.087795496
10	0xbcf5f934	-0.030026056
11	0xbc9bcc06	-0.019018184
12	0xbdabbbb7	-0.08385413
13	0xbcd092fa	-0.025460709
14	0xbd8c17b5	-0.06840459
15	0xbc7c3484	-0.01539338
16	0xbd724334	-0.05914612
17	0xbc66509b	-0.014057304
18	0xbe697ac3	-0.22800736
19	0xbd0426e5	-0.032263655
20	0xbd3d6b10	-0.04624468
21	0x3a3fc7bf	0.0007315836
22	0xbd6979fb	-0.057001095
23	0xbdb00880	-0.08595371
24	0xbd744d13	-0.059643816
25	0xbcf17cc4	-0.029478438
26	0xbe2fe1d7	-0.17175995
27	0xbdacdf1f	-0.084409945
28	0xbc21785f	-0.009855359
29	0xbd91d53e	-0.07120751
30	0xbd83f805	-0.0644379
31	0xbd2b6ccf	-0.041851815
32	0xbc8fce7d	-0.017554516
33	0xbda934d7	-0.082620315
34	0xbd6cb233	-0.05778713
35	0x3ed1697f	0.409008
36	0xbd882bcd	-0.06648979
37	0xbd892375	-0.06696216
38	0xbc58260a	-0.013192663
39	0x3e8296fc	0.25505817
40	0x3d072c54	0.03300126
41	0x3b37a99f	0.0028024686
42	0xbd974956	-0.073870346
43	0xbd02e825	-0.03195967
44	0xbd935b16	-0.07195108
45	0x3d0d4abc	0.0344951
46	0xbd445241	-0.047930006
47	0xbd2a9c37	-0.041652884
48	0x3b4be3c0	0.0031111091
49	0xbd7de48c	-0.061985537
50	0xbd7a5984	-0.061120525
51	0xbd4f51e1	-0.050615195
52	0xbd8a1d75	-0.067439
53	0x3c573f91	0.013137714
54	0xbc32c9f8	-0.010912411
55	0xbd488541	-0.048955206
56	0xbd82191d	-0.06352446
57	0xbd86719d	-0.06564639
58	0xbd263417	-0.04057702
59	0xbda962ef	-0.08270823
60	0x3ce74dba	0.028235305
61	0xbd471c51	-0.04861099
62	0xbd401c08	-0.046901733
63	0xbd02fc75	-0.031979043
64	0xbc143446	-0.009045666
65	0xbce6ecdb	-0.028189113
66	0xbd161e1e	-0.036649816
67	0xbd559cd2	-0.05215151
68	0x397f6e4b	0.00024359782
69	0xbcdc6012	-0.026901279
70	0x3b7a077b	0.0038151431
71	0xbda054f7	-0.07828706
72	0x3c0a9fec	0.00846098
73	0x3c5d1231	0.013493107
74	0xba8d861d	-0.0010797415
75	0x3c88d48c	0.016702913
76	0xbd4343f1	-0.047672216
77	0xbd60e773	-0.054908227
78	0xbca2d8b7	-0.019878728
79	0xbd62418b	-0.055238288
80	0xbca4bddf	-0.020110069
81	0x3c03bfc4	0.008041326
82	0xbd1f0506	-0.03882315
83	0xbd072ac5	-0.032999773
84	0x3acfd9d0	0.001585776
85	0xbd145066	-0.036209486
86	0xbd848955	-0.064715065
87	0xbcd35dd2	-0.025801573
88	0xbd81bced	-0.06334863
89	0xbcadc277	-0.021210892
90	0x3c79baeb	0.015242319
91	0xbc3a6d70	-0.011378631
92	0xbd86ee9d	-0.065884806
93	0xbd38b8b8	-0.045098037
94	0xbd303f30	-0.04302901
95	0xbd257ed7	-0.040404167
96	0xbd97daa6	-0.07414751
97	0x3bb25337	0.005442049
98	0xbd9b3796	-0.075789616
99	0x3cfb896b	0.030705174
100	0xbd2890c7	-0.041153695
101	0xbcd1069a	-0.025515843
102	0xbd3fcae0	-0.046824336
103	0xbd2b326a	-0.041796125
104	0xbda1c107	-0.07898145
105	0xba0a9435	-0.0005286367
106	0x3ca25f9e	0.019820984
107	0xbd9f8e86	-0.07790856
108	0xbd368188	-0.044557124
109	0xbd538a5a	-0.051645614
110	0xbd4bd8d1	-0.04976732
111	0xbcdfc1b2	-0.02731404
112	0xbdbfa948	-0.0935846
113	0x3cec3aaa	0.028836567
114	0xbd3df558	-0.046376556
115	0xbc53b552	-0.012921648
116	0xbdb31d90	-0.08745873
117	0x3c57f409	0.013180741
118	0x3cf6d583	0.030131107
119	0xbd679a4b	-0.05654363
120	0xbd8c9194	-0.06863704
121	0xbbefd16b	-0.0073186657
122	0xbdc875a1	-0.09788061
123	0xbdc1d589	-0.09464557
124	0xbd1b8d4d	-0.03797655
125	0x3c60ec22	0.013728173
126	0xbd98509e	-0.074372515
127	0x3d0c0814	0.03418739
128	0xbd630733	-0.055426788
129	0x3ce4f9a2	0.027951065
130	0x3c8f21d4	0.017472185
131	0xbbb150a0	-0.0054112226
132	0x3c66c692	0.014085429
133	0xbd81818d	-0.06323538
134	0xbde486cb	-0.11158522
135	0xb9b96e4d	-0.0003536813
136	0xbe067a35	-0.13132556
137	0x3d0cef54	0.03440793
138	0xbd4b8471	-0.049686853
139	0xbd65ae1b	-0.056074243
140	0x3f59084e	0.84778297
141	0x3c874874	0.01651404
142	0xbce48793	-0.027896678
143	0x3d0b4955	0.03400548
144	0xbd490241	-0.049074415
145	0x3be7cdda	0.0070741
146	0xbd254377	-0.040347543
147	0xbd3586c0	-0.04431796
148	0xbd658edb	-0.05604444
149	0xbcb52e78	-0.022116885
150	0x3e22ae8f	0.15886901
151	0xbde1fa73	-0.110340975
152	0xbd20542f	-0.039142784
153	0xbdc99459	-0.09842748
154	0x3b958755	0.004563252
155	0x3e974413	0.29544124
156	0xbd822985	-0.063555755
157	0xbdd3508a	-0.10318096
158	0xbd944706	-0.07240109
159	0xbe11fabe	-0.14255807
160	0xbd212657	-0.039343204
161	0xbd5d7c72	-0.05407376
162	0xbd5e78ca	-0.054314412
163	0xbd1cc606	-0.038274787
164	0xbcd75a22	-0.026288096
165	0xbde83113	-0.11337485
166	0x3a66d632	0.00088057213
167	0xbd1c94ce	-0.03822785
168	0x3b84568c	0.0040386375
169	0xbd58279a	-0.052772142
170	0x3cfe4633	0.031039333
171	0x3c332627	0.010934389
172	0xbd4f7441	-0.050647978
173	0xbd39d518	-0.045369238
174	0xbd6f145b	-0.058369022
175	0xbe6f2d5b	-0.23357145
176	0xbe115cee	-0.14195606
177	0x3e2db20e	0.16962454
178	0xbda4bd17	-0.080438785
179	0xbce8ba93	-0.028409278
180	0xbda289cf	-0.07936441
181	0xbd559ff1	-0.052154485
182	0xbc577642	-0.013150753
183	0xbd8a83cd	-0.0676342
184	0xbd4ec541	-0.050481085
185	0xbd649a53	-0.055811238
186	0xbbc2c179	-0.005943474
187	0xbd26c247	-0.04071262
188	0xbe205cc7	-0.15660392
189	0x3cb701a7	0.022339655
190	0xbf1c3e16	-0.61032236
191	0xbba7aeff	-0.0051172967
192	0xba30ddc8	-0.0006746915
193	0xbd56e5ba	-0.052465178
194	0xbb59dcb4	-0.0033243122
195	0xbd2d9e87	-0.04238751
196	0xbca10587	-0.019655956
197	0xbddcd092	-0.10781969
198	0xbd922746	-0.07136397
199	0x3c636362	0.013878675
200	0x3c41bbc0	0.011824548
201	0x3b8af8fc	0.004241107
202	0xbd59840a	-0.053104438
203	0xbdbf0d08	-0.093286574
204	0xbd1cec4e	-0.038311295
205	0xbd7f6fdc	-0.062362537
206	0xbd3a3b70	-0.04546684
207	0xbd770b6c	-0.060313627
208	0xbd0cfe2d	-0.03442209
209	0x3c1638ad	0.009168786
210	0xbd15dd46	-0.036587976
211	0xbd0ac315	-0.03387745
212	0x3c9487dd	0.01813119
213	0xbce3fedb	-0.027831485
214	0xbd8d30f5	-0.068941034
215	0xbc39df3f	-0.01134473
216	0xbd155876	-0.036461316
217	0xbd6dec43	-0.058086645
218	0x3a1b9acd	0.0005935848
219	0xbda0c707	-0.078504615
220	0xbcdf80da	-0.02728312
221	0xbd4f98f9	-0.050682995
222	0xbd54926a	-0.051897444
223	0xbab43c48	-0.0013750875
224	0xbdb13480	-0.08652592
225	0xbcd652a0	-0.026162446
226	0xbe065c85	-0.13121231
227	0xbd55d382	-0.052203663
228	0xbb7f987c	-0.00390008
229	0xbd232abe	-0.039835684
230	0xbdd8215a	-0.10553236
231	0xbd1b6676	-0.03793951
232	0xbd2b9f97	-0.041900244
233	0xbd3f9368	-0.046771437
234	0x3ea97c2b	0.33102545
235	0xbd76e5ec	-0.060277864
236	0xbd1195f6	-0.035543405
237	0xbcee63cb	-0.02910032
238	0xbdb76e40	-0.089565754
239	0xbca5b64f	-0.020228533
240	0xbd74541c	-0.059650525
241	0x3cd9efd9	0.026603626
242	0xbd819a8d	-0.06328306
243	0xbc1686ce	-0.009187413
244	0xbc3cc250	-0.011520937
245	0xbd582d12	-0.052777357
246	0xbd24921f	-0.040178414
247	0x3cae002e	0.02124032
248	0xbc8597a5	-0.016307661
249	0xbc13bd86	-0.009017354
250	0xbb16ffe6	-0.002304071
251	0xbd49a011	-0.049224917
252	0xbd611013	-0.05494697
253	0xbd591b5a	-0.0530046
254	0xbce21f2b	-0.027602753
255	0xbdbc2de0	-0.091884375

fc3.weight f4 [1, 300]
0	0x3b67de42	0.0035380279
1	0xbb44dd51	-0.0030039141
2	0xb7ada4c6	-2.0699936e-05
3	0xbbbc87b7	-0.005753483
4	0xbd2e962e	-0.04262369
5	0xbc022fc4	-0.0079459585
6	0x3d7588b4	0.059944823
7	0x3b9ef30e	0.0048507517
8	0x3c89c52d	0.016817654
9	0x3c34c8e7	0.011034227
10	0x3d181dd5	0.037137825
11	0xbc0c2f24	-0.008556161
12	0xbd20f5e6	-0.039297007
13	0x3cd62eea	0.026145417
14	0xbca60b77	-0.020269139
15	0x3da5b64e	0.080914125
16	0xbd6ec95b	-0.058297496
17	0xbc0b9d0d	-0.008521331
18	0xbc50ce59	-0.01274451
19	0x3cdfc27a	0.027314413
20	0x39ea645a	0.00044706726
21	0xbc2678d7	-0.010160646
22	0xbcd9af01	-0.026572706
23	0xbc1b9d25	-0.009497915
24	0x3bf074b4	0.007338131
25	0xbd0e6974	-0.034768537
26	0x410283c2	8.157167
27	0x3e392488	0.18080342
28	0xbca7f54e	-0.020502713
29	0x3cceb349	0.025231974
30	0xbcbe86a7	-0.023257567
31	0xbbb2a478	-0.005451735
32	0xbcb53af8	-0.022122845
33	0xbc22dbd6	-0.009940108
34	0x3cf731b4	0.030175067
35	0xc0896af1	-4.2943044
36	0x3ca56c17	0.020193143
37	0x3ba6942f	0.005083583
38	0x3db28dcf	0.08718454
39	0xbeacc1d7	-0.33741638
40	0xbcbdbc4f	-0.023161082
41	0xba6f514b	-0.000912924
42	0xbcd0308a	-0.02541377
43	0xbb8e8e2c	-0.0043504443
44	0xbc9a304d	-0.01882186
45	0x3b1e3d06	0.002414526
46	0xbc9f3d45	-0.019438395
47	0x3ccd39f1	0.025052043
48	0x3ab8f737	0.0014111762
49	0x3caec2b7	0.021333082
50	0x3da7c736	0.08192293
51	0x3d79dbbc	0.06100057
52	0xbd155eb6	-0.036467277
53	0x3c1b191e	0.009466438
54	0x3c5b8232	0.01339774
55	0x3c0c4f2d	0.008563799
56	0x3d8fb70d	0.07017336
57	0x3e0042ff	0.12525557
58	0xbd38b020	-0.04508984
59	0x3d43d6d0	0.047812283
60	0x3d5ccb1a	0.05390463
61	0xbcce5331	-0.025186153
62	0xbdacbc33	-0.08434334
63	0x3d7357c3	0.059409868
64	0xbd1f7715	-0.038931925
65	0xbc2dfd0e	-0.010619415
66	0xbd13892d	-0.036019493
67	0x3eda9321	0.42690375
68	0xbd429e50	-0.04751426
69	0xbc19c226	-0.0093846675
70	0xbbc8e3c8	-0.0061306693
71	0xbd0804bd	-0.033207644
72	0xbca37cc6	-0.019956958
73	0xbf59a349	-0.8501478
74	0x3bb391f7	0.005480047
75	0x3cf4b9ab	0.02987369
76	0x3c74a944	0.014932934
77	0x3cf7bcc3	0.030241376
78	0xbc6c9f72	-0.014442312
79	0x3f11b14d	0.56911165
80	0x3d923a06	0.07139973
81	0x3d454471	0.048160974
82	0x3c0614a5	0.008183633
83	0xbc9df396	-0.01928119
84	0xbd3d3a9f	-0.046198484
85	0xbcac702f	-0.021049587
86	0x3d6d0692	0.057867594
87	0x3bbc3740	0.005743891
88	0xbbe50eba	-0.006990281
89	0x3cc64641	0.024203422
90	0x3c58e252	0.013237553
91	0x3e37bb98	0.17942655
92	0xbb72f2fc	-0.00370711
93	0x3cc11b99	0.02357273
94	0x3cbf3f08	0.023345485
95	0xbcd7b8a9	-0.02633317
96	0xbc5dae72	-0.013530361
97	0xbd1787d5	-0.036994774
98	0xbc5996ca	-0.01328058
99	0x3cb1bec7	0.021697415
100	0x3e4ba220	0.19886065
101	0x3c9ef94e	0.019405987
102	0x3cef20db	0.029190471
103	0xbe7b576b	-0.24545066
104	0xbccbb419	-0.02486615
105	0xbb1be75d	-0.0023789026
106	0xbd15dbb5	-0.036586482
107	0x3d20ce0f	0.039259013
108	0xbc7b0243	-0.015320363
109	0x3d8309bc	0.06398341
110	0xbc5d7312	-0.013516204
111	0x3c5627e2	0.013071032
112	0x3c92f0d5	0.017937103
113	0xbd38c14f	-0.04510623
114	0xbd82835d	-0.06372712
115	0x3c42a238	0.011879496
116	0x3dc89030	0.097931266
117	0xbc1585c6	-0.009126132
118	0x3a91d08d	0.0011124775
119	0x3c64addb	0.013957466
120	0xbff608d4	-1.9221444
121	0x3dd9fa01	0.106433876
122	0x3d4b8088	0.049683124
123	0x3c6a1f9a	0.014289761
124	0xc0b144d0	-5.53965
125	0x3d93dd8e	0.072199926
126	0xbc559c09	-0.01303769
127	0x3d2b0b26	0.04175868
128	0xbbc2ec70	-0.0059485957
129	0xbd5da129	-0.054108772
130	0xbd127565	-0.035756487
131	0xbc8f6504	-0.017504223
132	0x3c1f10bd	0.009708581
133	0xbc8d929c	-0.017281823
134	0x3f6fafd2	0.93627656
135	0x3ff049e9	1.8772556
136	0xbe113385	-0.1417981
137	0x3d0d942c	0.034565136
138	0x3d2fcb8e	0.042918734
139	0x3c85585c	0.016277485
140	0x3fc8df14	1.5693078
141	0x3bd56942	0.006512792
142	0x3c4cac89	0.012492307
143	0xbe8ee0a8	-0.27905774
144	0x3e079054	0.1323865
145	0x3cbf9e57	0.023390932
146	0xbbcbb738	-0.0062169097
147	0x3dc88f69	0.09792978
148	0xbcf13f0b	-0.029449007
149	0x3c58adfa	0.013225073
150	0xbf89bad5	-1.0760142
151	0x3cefea6b	0.029286584
152	0x3c86796c	0.01641532
153	0xbabc0d0f	-0.0014347153
154	0x3d71b694	0.05901201
155	0xc04e125d	-3.2198708
156	0x3e1deee5	0.15423162
157	0xbd6c873b	-0.057746153
158	0x3cf944f4	0.030428387
159	0xbd1c6a9d	-0.03818761
160	0x3bed4512	0.0072409
161	0xbaff8043	-0.0019493181
162	0xbcb66a18	-0.022267386
163	0xbe03500d	-0.12823506
164	0xbaf216ab	-0.001846989
165	0xbfa94d0e	-1.322664
166	0xbbd68731	-0.006546878
167	0xbcc40cb9	-0.023931848
168	0xbcea78ab	-0.028621992
169	0x3e5860a1	0.21130611
170	0xbfa56e6e	-1.2924325
171	0xbcf4767c	-0.029841654
172	0xbbf3c393	-0.0074390857
173	0x3dae9247	0.08523994
174	0xbb3d1b60	-0.0028855428
175	0xbe8879ec	-0.2665552
176	0x4075c5a4	3.840188
177	0xc063b24a	-3.557757
178	0xbc0a09ec	-0.008425217
179	0xbcd54b92	-0.026037011
180	0x3ca479e6	0.020077657
181	0xbecddba9	-0.4020665
182	0x3f14c595	0.58113986
183	0xbcc4a1f0	-0.024002999
184	0xbb541ec9	-0.0032366982
185	0x3ba759d6	0.005107145
186	0x3da2b337	0.07944339
187	0xb30e44bd	-3.312447e-08
188	0xbd9e9615	-0.077434696
189	0x3c6cff8b	0.014465223
190	0x3faf0a96	1.3675106
191	0x3dd73ba9	0.10509426
192	0x3c4ced61	0.012507767
193	0x3d19891d	0.037484277
194	0x40f6323d	7.6936326
195	0xbceb022b	-0.028687557
196	0xbc786e1b	-0.01516297
197	0x3d4c6e08	0.04990962
198	0x3d38269f	0.044958707
199	0x3cc06338	0.023484811
200	0x3d132b6d	0.035930086
201	0x3d5fb9e2	0.05462063
202	0xbcf8c27c	-0.030366175
203	0xbd54f7f9	-0.051994298
204	0xbc29101e	-0.010318784
205	0x3f2f452f	0.6846494
206	0xbc72e8d3	-0.014826017
207	0x3d8f36ec	0.069928974
208	0xbcc9daa9	-0.024640398
209	0x3c574122	0.0131380875
210	0xbbd59691	-0.006518193
211	0x3d98ca7e	0.07460497
212	0x3d2285e7	0.03967848
213	0xbccbe0a0	-0.024887383
214	0xbafce2bc	-0.0019293646
215	0x3de10e83	0.10989096
216	0xbcea212b	-0.028580269
217	0xbccde121	-0.025131764
218	0xbce9dd32	-0.028547857
219	0xbd01d205	-0.03169443
220	0xbfec8e42	-1.8480914
221	0x3d288ffe	0.041152947
222	0xbb1dcbbd	-0.0024077736
223	0x3c82f3dc	0.015985422
224	0xbcfca1e4	-0.030838914
225	0xc12799a8	-10.475014
226	0x3f245f57	0.6420798
227	0x3d4101d1	0.047120873
228	0x39420149	0.0001850176
229	0x3d05cfe5	0.032668967
230	0x3c87fced	0.016600097
231	0x3d14e27d	0.03634881
232	0x3dbaf177	0.09128087
233	0xbd34d7bf	-0.044151064
234	0x3f2d8d77	0.67793983
235	0x3d37e4ff	0.044896122
236	0x3cc63061	0.02419299
237	0xbdd21a62	-0.10258938
238	0x3c99012e	0.01867732
239	0x3db75c48	0.08953148
240	0xbbd231d2	-0.0064146305
241	0xbed70a71	-0.42000154
242	0x3ad0a361	0.0015917831
243	0xbd5e7a59	-0.0543159
244	0x3cb91290	0.02259186
245	0x3d86c46d	0.06580434
246	0x3e1dd5e6	0.15413627
247	0xbdaac8be	-0.0833907
248	0xbd1b8296	-0.037966333
249	0x3e098ced	0.13432665
250	0x3dbae1d7	0.09125107
251	0xbb10bf1e	-0.002208657
252	0xbbf60423	-0.0075078174
253	0xbce68b33	-0.028142547
254	0xbb628263	-0.003456258
255	0x3e4fc0d0	0.20288396
