Char10 TD3/expTD3.pyPendulum-v0./critic_1.pth (torch_old, 491501 bytes, 5 tensors)

fc1.weight f4 [400, 4]
00000000: 6e4a 843e 68ed 643f 7871 95bc 9815 0b3e
00000010: 5fe7 4ebf c0e8 fc3d 7c8e a03e e021 943d
00000020: 0566 12bf f564 463f 7d1d 253e 6002 ee3d
00000030: bf22 f73e ed69 bdbe d44b cebe 7300 3cbd
00000040: 3f9a 41bf d0e4 23bf b055 203d 10a1 f3bc
00000050: f482 7a3f 50f1 aabf 6cf1 8cbe 2d3b 71bd
00000060: 8b6f 67bf 4d13 013f afe4 023f af2c a53d
00000070: f0c8 4d3c de9f 3dbd 5653 82bb 8e26 64bc
00000080: 0595 393f 757e a43f ddec f63d 9db1 053d
00000090: 2cde b53f 8c6a eabe 757a 74be c1d8 67bd
000000a0: b826 a03f ac49 543d 3558 80bd a9bc 043c
000000b0: c6d1 75be 619b 9cbe e995 df3e 7aac 78be
000000c0: b5a7 063f 013d 1cbf 4e7c 0e3f 414b fd3d
000000d0: cbc8 07be 3339 8b3d 6b9a b63c 6043 07be
000000e0: 7f33 b5be e9c7 e2be 3412 093e 56c1 9cbe
000000f0: 9e7b 8ebc 251b 013f 4c40 8ebd 44e2 253f
00000100: 002c 99be 6b65 653f abe8 493d c109 e2bd
00000110: 537e 74bc 058a 723e 31c9 7fbc 6caa 543e
00000120: 7163 f1be ee35 18be dd1b 693e d377 debd
00000130: b469 bb3e b113 803f f885 27be 306e d23e
00000140: ee03 853f 449d 98bd c41e 623e 24cc 963c
00000150: 81a0 31be e9cd 403f 348b 653e 06d8 ff3e
00000160: 62d6 08bf 970b 07bf 4a70 d53e aa9d 1e3d
00000170: be0b d63e 9d2a 043f bc06 893d c1f3 5e3d
00000180: 5a7b a73f 8d14 32bf 1929 72bd 6245 e73c
00000190: edef 1dbe 5521 82bf c74d 99be 4956 20bd
000001a0: c9f8 083f fb30 cfbe 6d1c cdbe 63c2 02bd
000001b0: 1a79 753f 8dd7 c83f 5f19 993d a77a 7cbd
000001c0: d6cf afbf 1d0a bcbe 613c 6cbe 9d05 28be
000001d0: 6e91 3fbf 2ff1 10bf e9cf ba3d a9a6 d9be
000001e0: 5d44 3abf 99bc 82bf 28fa 533e 7124 a13e
000001f0: cf02 a03e bfb8 95be 04d0 0fbf 2dc1 99bd
00000200: 9b1b 483f a9a4 d5bf 19f8 dabe cc98 6ebd
00000210: f76f 063e d110 02bf 3327 41bd 8eb7 4abe
00000220: 814c 56be e797 54be c0ac eebc ec36 fb3d
00000230: 4b96 62bf fbeb f7bd 2c32 083e a213 ae3f
00000240: c6bd 97bc d846 fcbe e149 28bd 6b50 7f3d
00000250: f788 693b 80cc 8dbd 79bf 553c a301 e43a
00000260: b747 f9be d95f f8bf 43ea e9be 49ba bfbd
00000270: 888a 8d3f 2e42 103f 42fc 063f c64e a13d
00000280: dced 90bf 5a9e 053f 439c 2c3d 9452 c9bc
00000290: 8187 243f ac7d 69bf 58be a3be 6349 ca3d
000002a0: 3396 943f 1890 29bf d992 fa3d b7d4 febc
000002b0: 1e50 d13f d7f7 ed3e 93d7 70bc cf20 7a3d
000002c0: 65cb b73b 96fd c33e 8f44 b13d 50fd cebc
000002d0: 7d3e 3bbf 8177 ebbe 9b80 53be edc3 e5bc
000002e0: abfd 883f 9569 bd3f 6457 773d 092d 763c
000002f0: 6d41 31be 30cf 70bf 8407 38be 35bc 233f
00000300: 8910 3ebf 6e38 a43f 215f 5e3e c078 a63d
00000310: c9ec d13e f027 93bf 5fda c4bb 2d8e 2a3c
00000320: 30e9 35bf d493 81be ace1 893e d1cd 973c
00000330: cbd2 ea3e 0265 fe3f 58c9 ec3e 137a 963d
00000340: edea d13f d5e0 42bf edf8 49be 906d 9f3e
00000350: 011c 46bf 8833 7a3f e120 943e 95f1 a03c
00000360: 1376 053d 91ea a33d 9e95 80ba de01 3b3a
00000370: e864 8c3e 5c7e afbf 500e b8be b260 8a3e
00000380: 4467 2c3f bd7c ccbf 286a c9be 72ea 82bd
00000390: da58 c9bd 84ca 92be 337f 853a a434 a5bc
000003a0: 979a 6fbd ebde d23e 741b 2b3f 5b03 f23e
000003b0: 8823 dbbe 303a 6e3e 61c1 d1bd 8441 e9be
000003c0: 8219 57be 5786 603f a780 643e d36e 4b3c
000003d0: 20ef ab3c fe32 4abf 7e98 12be b013 543e
000003e0: af24 ce3e 4926 99bd 389d a3bb 88f4 bfbd
000003f0: 6fa0 4abe 684c 9d3e baa3 003f 67e0 253e
0.25838035 0.89424753 -0.018242583 0.13582456 -0.80821794 0.12349081 0.31358707 0.07233024
-0.5718692 0.774978 0.1612453 0.11621547 0.48268697 -0.36994877 -0.40292227 -0.045898866
-0.75625986 -0.64021015 0.039144218 -0.029739887 0.9785607 -1.3354893 -0.2752794 -0.058894325
-0.90404576 0.50420076 0.51130193 0.08065163 0.012560114 -0.04629504 -0.0039772196 -0.013925208
0.7249301 1.2851092 0.12056897 0.03264009 1.4208426 -0.45784414 -0.23874839 -0.056603197
1.2511816 0.05182807 -0.06266824 0.008101621 -0.24005803 -0.30587295 0.4366906 -0.24284545
0.5259965 -0.61030585 0.55658424 0.12367869 -0.1326019 0.06798019 0.02229043 -0.13209295
-0.3539085 -0.44293144 0.1338585 -0.30616254 -0.01739293 0.50432044 -0.069458574 0.6479838
-0.29916382 0.89607877 0.049294155 -0.11037017 -0.014922696 0.23685463 -0.015611933 0.20768136
-0.4714618 -0.14864323 0.22764535 -0.108626984 0.36604083 1.0006009 -0.16359699 0.4109969
1.0391824 -0.07451871 0.22082049 0.018407889 -0.17346384 0.75314194 0.22416383 0.499695
-0.5345212 -0.5275206 0.41687232 0.03872458 0.41805834 0.5162752 0.066907376 0.05443168
1.3084519 -0.6956261 -0.059121225 0.028231326 -0.15423556 -1.0166422 -0.29942152 -0.039144788
0.53504616 -0.40467057 -0.4006075 -0.031923663 0.9588791 1.5690781 0.07475542 -0.061640408
-1.3735301 -0.36726466 -0.23069908 -0.16408391 -0.74831283 -0.56618017 0.09121687 -0.42509964
-0.72760564 -1.0213805 0.20700896 0.31473115 0.31252143 -0.29242513 -0.5617678 -0.075075485
0.7816712 -1.6690875 -0.42767408 -0.058251187 0.13128649 -0.5080691 -0.047156524 -0.19796583
-0.20927621 -0.20761071 -0.029135108 0.12266335 -0.8851058 -0.121055566 0.13300389 1.3599741
-0.018523108 -0.492728 -0.04108608 0.062332552 0.0035634616 -0.06923771 0.013046139 0.0017395507
-0.48687527 -1.940425 -0.4568654 -0.09361703 1.1057901 0.5635098 0.52728665 0.07876353
-1.1322589 0.5219475 0.04214121 -0.02457551 0.6426926 -0.91207385 -0.31981158 0.09877279
1.1608337 -0.66235495 0.1223504 -0.03110729 1.6352575 0.4647815 -0.014699834 0.061066445
0.0056089633 0.38279408 0.08655655 -0.025267273 -0.73142225 -0.45989612 -0.20654528 -0.028047526
1.0702413 1.4797846 0.060386077 0.015025386 -0.17310114 -0.94066143 -0.17971617 0.63959056
-0.7424398 1.2829721 0.21715976 0.081285 0.41000965 -1.1496563 -0.006007477 0.010409874
-0.7105894 -0.25308096 0.26929986 0.018530758 0.45863947 1.9874575 0.46247363 0.073475026
1.6399819 -0.76124316 -0.19723864 0.31138277 -0.7738648 0.9773488 0.28931335 0.019646445
0.032583307 0.08003724 -0.0009810214 0.0007133762 0.27420735 -1.3710437 -0.3594842 0.27026898
0.6734507 -1.5975567 -0.39338803 -0.06392373 -0.098314 -0.28670132 0.0010185003 -0.020166703
-0.058497038 0.41185698 0.66838765 0.47268185 -0.42800546 0.23264384 -0.10241962 -0.45557797
-0.21005824 0.87704986 0.22314702 0.012416559 0.020988047 -0.7898406 -0.14315984 0.20710635
0.40262362 -0.074780054 -0.004993107 -0.093728125 -0.19787763 0.30722356 0.50249827 0.16198884

fc1.bias f4 [400]
00000000: 6eb0 4ebf 404e 0abf efa7 0fbf 4048 cfbf
00000010: c8e0 963e 58fb 25bf 8528 69bf 81e1 c5bd
00000020: f6f6 1abf 621c a0bf 49f9 313f 0944 2abf
00000030: 6c82 abbf 4b84 01bf 8990 2abf 13ff 1abf
00000040: c63e 91be 1038 42bf d2be 02bf c0b7 2d3d
00000050: 3020 95bf bce1 e0bd 16b1 dabe 9867 90bf
00000060: 5731 933e e57c 1b3e 59ce c1bf 5e7a c93e
00000070: d197 87bf 9d9d 693e 747a 17bf d10a 33bf
00000080: 1e8e a1bf 460a 013f 3a01 bf3e ff45 1abf
00000090: 5e0b a73e 2e68 2ebe d217 b2bd 4671 cdbf
000000a0: a55c 90ba be7c 79bf 8be1 713e a802 113f
000000b0: f69d fd3e 07f9 123f b1ae 02bf 596a 43bf
000000c0: b6f8 9cbd ccda 353f cc9c 29bf a501 7bbf
000000d0: 6263 6cbe d421 e73e f559 d3bd 9b51 80bf
000000e0: 87bd 51be cfc0 b5be 4c82 8bbf 5325 a2bf
000000f0: 0161 5cbe 53b8 213f 4863 25bf c363 a0bf
00000100: 50ab 87be ee10 443d 5ecc 933e 7927 36bf
00000110: 728b 6ebf 550d bbbf 6f0d 173f 9eaf 1bbf
00000120: 1e20 f8bd 979b 82bf 17a0 fabe 8723 50bf
00000130: 9a4a cbbe 8c17 72be ef05 17bf 4c2e 5abf
00000140: e106 6fbd 9e91 d4be 832c 08be 15ed 63bf
00000150: 0b59 d2bf 3e0d 8bbf 490c 313f ab91 363e
00000160: d827 503e c1d2 573f ecd5 82bf 5792 433f
00000170: 9cfa 9dbe f952 55be 744a 22bf b6b0 45bf
00000180: 52de 30bf d97b 663f 1696 d1bd 4193 bcbf
00000190: cb3e 133f 700f c6be f097 69bf 58e2 09be
000001a0: 3480 48bf 91da 1e3f 659c 15bf 4613 303e
000001b0: 5649 dbbd c9a7 89bf ab36 e83e fb90 96bf
000001c0: a46f 8abf c905 993e 7fd0 113f 52a4 c8bf
000001d0: fe84 5fbf 6453 b53e d93f c2bf ac8f 30bf
000001e0: e188 35bf b3ef b5bf 8dde 1e3f 77b5 753f
000001f0: 0d13 0c3f a5ef 05bd 665a 843f 8a03 eb3b
00000200: bb91 583f b469 87bf 6491 803e be11 96bf
00000210: 6536 2a3f b0bd 00bf 00fc 3bbe 4564 13bf
00000220: eed7 88bf 5ca7 083d 4ead 6cbf 41c0 dfbe
00000230: 38df 4bbf 612d 54bf 699c a5bd 5661 19bf
00000240: 0074 4cbf 5365 48be b8ca c0be 4208 5cbd
00000250: fb38 1e3b 2a09 8e3e e3cf a0bf 6228 7abf
00000260: 05d8 8abf 8be1 14bf 4cf3 6abf c310 b3bf
00000270: cc91 dc3e d256 41be fca0 523f 85ce e73e
00000280: ac64 493f c202 723f dd03 5e3d 8384 23bf
00000290: fce0 463f 88f5 6ebf 5cad eb3d ed2d 43be
000002a0: 8c03 323f 4a9f 2b3e 2678 bcbf 604a c5be
000002b0: 103e 82bf ca7d d2be 490f aebe 082b 1cbf
000002c0: fecb 5cbe 8254 bcbf b470 cebf 6cc0 8cbf
000002d0: 9532 123e 94d6 86bf 3301 8bbf 92a6 94be
000002e0: e2f6 e2be 05bf 243f 325a 0f3f 81ab 97bf
000002f0: cdcf 173f 4f10 cd3e 01e4 433f b8eb 20be
00000300: f558 b33e 07f4 86bf 2725 69bf 0356 be3e
00000310: 9af4 933c ccee 28bf f3b7 abbf cef8 50bf
00000320: 18c5 0dbf 913a fabe cb07 06be d5d2 1fbf
00000330: 440e 6bbf 87ec 95bf 5eb5 c7bf 578b 8abf
00000340: 0a58 b9bf beec 45be 8a97 4e3f 11e8 83bf
00000350: 22ce abbf 027e ebbe 9d5e 91bc 0385 7f3f
00000360: c713 a1be 1336 f6bd 7e43 3f3f 287b 62bf
00000370: e780 42bf ff87 ba3e 434d e73e 0743 b4be
00000380: beb9 13bf 351b 673d dfe2 39bf 3e73 763e
00000390: 2284 fa3e c160 b03e 26a2 7b3e 795e 8fbe
000003a0: 1f9c 77bf c6d7 b9bf 8c50 153f 0e2e 08be
000003b0: 62ff 09bf 60d0 20bf 0c57 553f a751 a3bf
000003c0: 6998 943e bb83 81bf f64f 873e 3201 123f
000003d0: 94aa 30bf a250 033f 4b6a c13e dcca f4be
000003e0: 341d 41bf 26a9 303f c8b3 e1be 0d52 3dbf
000003f0: a608 49bf 83d7 67bf 1d12 acbf 22d0 d73d
-0.8073796 -0.5402565 -0.5611562 -1.6193924 0.2946837 -0.64836645 -0.9107745 -0.09662152
-0.6053308 -1.2508662 0.69521004 -0.66510063 -1.3399177 -0.5059249 -0.66626793 -0.6054546
-0.28368205 -0.75866795 -0.5107242 0.042411566 -1.1650448 -0.109805554 -0.4271323 -1.1281614
0.2874858 0.15184362 -1.5141097 0.3935117 -1.0593206 0.22814031 -0.59171224 -0.6993838
-1.2621496 0.504063 0.37305623 -0.60263056 0.3262586 -0.17031929 -0.086959496 -1.6050193
-0.0011013938 -0.97455966 0.23621194 0.5664468 0.49534577 0.57411236 -0.5104781 -0.7633415
-0.07664625 0.7103698 -0.6625488 -0.98049384 -0.23084787 0.45142996 -0.10319892 -1.0024904
-0.20482455 -0.35498664 -1.0899138 -1.266764 -0.21521379 0.6317188 -0.64604616 -1.2530445
-0.2649789 0.047867708 0.28866857 -0.7115398 -0.93181527 -1.4613444 0.59004873 -0.60814846
-0.12115501 -1.0203732 -0.48950264 -0.8130421 -0.39705354 -0.23641795 -0.5899343 -0.85226893
-0.05835617 -0.41517347 -0.1329823 -0.89033633 -1.6433424 -1.0863416 0.6915937 0.17829005
0.20327699 0.8430596 -1.0221534 0.7639517 -0.30855262 -0.20832433 -0.63394856 -0.77222764
-0.69089234 0.90032727 -0.10233705 -1.4732438 0.5751769 -0.38683653 -0.91247463 -0.1346525
-0.7832062 0.62052256 -0.58441764 0.17194852 -0.10707347 -1.0754329 0.45354208 -1.1762995
-1.081532 0.29887226 0.56958765 -1.5675147 -0.87312305 0.35415184 -1.5175735 -0.68969226
-0.70911986 -1.4213775 0.62058336 0.9598002 0.5471657 -0.032699246 1.0340087 0.0071720527
0.8459737 -1.0579133 0.25110924 -1.1724164 0.6648925 -0.5028944 -0.18357849 -0.57574874
-1.0690897 0.03336273 -0.9245194 -0.43701366 -0.7963748 -0.8288174 -0.080864735 -0.5991415
-0.798645 -0.19569902 -0.37654662 -0.053718813 0.002414285 0.27741367 -1.2563442 -0.9771787
-1.0847174 -0.5815665 -0.9177749 -1.398949 0.43079984 -0.18880776 0.8227689 0.4527475
0.7866924 0.9453546 0.054202903 -0.6387407 0.7768705 -0.933434 0.11507675 -0.19060488
0.6953666 0.16759983 -1.4724166 -0.38533306 -1.017519 -0.41111594 -0.33996037 -0.6100316
-0.21562192 -1.471329 -1.6128144 -1.0996222 0.14277108 -1.0534234 -1.0859741 -0.29033333
-0.44328982 0.6435397 0.55997 -1.1849214 0.59301454 0.40051505 0.7651978 -0.1571492
0.35028806 -1.0543221 -0.91072315 0.37174997 0.018060971 -0.65989375 -1.3415512 -0.81629646
-0.55378866 -0.48872808 -0.1308891 -0.6243108 -0.9181864 -1.1712807 -1.5602224 -1.0823773
-1.4479992 -0.19328591 0.8069998 -1.0305196 -1.3422282 -0.45994574 -0.01774531 0.99812335
-0.314604 -0.120220326 0.7471236 -0.8846917 -0.7597794 0.36431882 0.45176134 -0.35207388
-0.57705295 0.05642243 -0.726118 0.24067399 0.48928934 0.34448817 0.24573573 -0.28001764
-0.96722597 -1.4518974 0.5832603 -0.13298818 -0.5390531 -0.62817955 0.8333595 -1.2759293
0.2902253 -1.0118326 0.26428193 0.57033074 -0.6901028 0.5129491 0.37776408 -0.4781102
-0.75435185 0.690081 -0.44082475 -0.73953325 -0.7852882 -0.9056322 -1.3443028 0.10537745

fc2.weight f4 [300, 400]
00000000: 4815 e8bd 6043 2cbe a56e 2fbe 228f 75bc
00000010: 1d03 c03a 1da5 83be b383 8dbe 52df 11be
00000020: ea7f c0bd 1290 26be 2e67 85bd ead7 56be
00000030: 4aea 01be 0629 73bc 2567 4fbe 7130 d2bd
00000040: acbc 0abe 3fde 96bd 6f34 82be d19e 113c
00000050: 58a2 01be 97b4 2ebe 6d99 55be 1b9e 2cbe
00000060: 577d 19bd 876f b8bd 9917 8fbc 3dc2 bd3c
00000070: 266d 86be 29b8 723b 0f07 ddbe 0b7e 9539
00000080: cdc2 60bd d919 3ebd 5388 02be 20f6 28be
00000090: 9036 0ebe e591 0ebe ead0 b2bd 5ecc 95bd
000000a0: 6187 5aba 0259 b0bc be6e 713e 1a3b bb3e
000000b0: a66d e3bd 8d87 7bbd e44b 9c3d 68f8 e4bd
000000c0: 9611 1dbd 4cdc c1bd 8299 77be 66b6 0cbd
000000d0: fd0c 0a3e 907d 13bd e2a1 45be 1052 eebd
000000e0: 6d08 2cbe 04f4 0ebe 67c6 8bbe 0696 00bd
000000f0: 5d1d 5dbe 5dff babd 8d31 16bd e6aa 7abe
00000100: 8757 0abd 5f51 8dbd a643 353c 77a5 50be
00000110: 5067 29be 7c0e a8bd 5120 c7bd c981 56be
00000120: fad3 c6be d4c4 a8bd 1b82 09be 8d3f 00be
00000130: a371 9ebd 8087 a9bd 388c b13e f613 debd
00000140: 595b aebd 3a53 07be 1630 b7bd 9639 e83d
00000150: c137 4cbd 4524 02be 3269 64bd de6c f5bd
00000160: 88cf 6c3d c5c9 283d 637c 3ebd 556f b3bd
00000170: 398a 51be 477f 8d3c 3090 0abe 62de 6bbe
00000180: 21b0 5abe cf28 14bc eda1 a9bd 98a6 96bd
00000190: 3178 bdbd 5322 89bd deed 70bc f00d 03bf
000001a0: 75af 3abe 292f a4bd 592a 64be f82d c43d
000001b0: 6d0c 1cbe 57df 98bd 7e2b 7bbd cf13 9ebe
000001c0: 6421 23be b2ff 2ebe 566f d3bd 52d4 1ebe
000001d0: 8071 35be a6a7 be3d 5ac6 22bd 28e5 65bc
000001e0: a12e 8abe bc59 abbd 3b2d d6bd 721f 7bbc
000001f0: d327 213d bf81 83be 09d0 573d 5e2c 9abd
00000200: 22bb 013b 44dc 48be a229 96bd 2b81 84bd
00000210: 83a3 9bbd a3fe 43be 92df 7abe 21da 70bd
00000220: a057 72be 1c4c 2ebe c4b4 d8be 0a29 14be
00000230: edea c9bd b836 9cbe 62ee 843d 4907 a6be
00000240: da6d 07be 3caf dabd d6de f7bd 985e 203d
00000250: 1fb9 f4bd 1e13 5abb fa2f 22be 28ce 68be
00000260: 7ceb d9bd 9259 efbd 5d15 c2bd d436 f3bd
00000270: ba91 663e b896 78be 8ae9 a2bd a4e0 9cbd
00000280: 8187 d0bc 7bbf 0d3e b2ec b9bd d383 48bd
00000290: dadf c0bc e298 9cbd 0b34 36bd 5a14 933e
000002a0: 3421 9bbd fe6a 90bd d6a5 82be 4e0d 6cbc
000002b0: d1d1 c63c c38a 06bd b8f7 7cbd 7465 5ebe
000002c0: 3a4a dabd 4b46 b0bd 3ace bbbe ed21 e6bd
000002d0: 6f5c 163e 55aa 83be cbda a3be a3a0 07be
000002e0: 33de dcbd 81c2 b7bd 5380 8d3b eede 0ebe
000002f0: 4a79 5dbd 0dcd 10be 7e2e 8c3d c7da f1bd
00000300: eb9e 03bd f7b3 44be 1a2c bdbd cb28 f0bd
00000310: 84f6 efbd c5fa 39bd c750 8bbd d493 bfbd
00000320: cf88 10be bdbd 66be 92d4 12be a9c0 6dbe
00000330: 141f 83bd aab6 8cbe de30 04bc cffa abbd
00000340: 8ccc 90bd b422 8fbe 92a3 99bd dc31 65be
00000350: 3cf9 9fbd bdd4 9ebd 661f 80be 422d 803e
00000360: 4cfb 98be f252 01be f818 9a3d 5914 2dbd
00000370: 8d7a 11bb 1b5b debd d961 a8bd 2900 1ebe
00000380: f16a 1b3f 0c22 68bd 1988 9dbe 4f6d 06be
00000390: df3f 933d 99f8 c6bd 8733 39be b581 35bd
000003a0: fe95 39be 8ef5 86be 21a3 60bd 06eb 0ebe
000003b0: 11a4 c1bd 82e7 1dbc 8115 293d 6a32 64be
000003c0: cc1f 9e3d 808e 8dbe 0314 8ebd 5ac1 09bd
000003d0: 7a21 b03d 47bd 92bd 41ab 4b3e 261d 3abe
000003e0: 8966 c8be fbb9 883c b6a3 57be f2a0 3cbe
000003f0: 6d0e abba 39c6 5fbd e5ea fbbd e537 1cbc
-0.11332184 -0.16822577 -0.17132051 -0.014987739 0.0014649365 -0.2571191 -0.2763954 -0.14245346
-0.09399398 -0.16265896 -0.065138206 -0.20980802 -0.1268703 -0.014841324 -0.2025419 -0.10263146
-0.13548535 -0.07366609 -0.2543063 0.008887962 -0.12659585 -0.17061077 -0.20859309 -0.16857187
-0.03747305 -0.09005647 -0.017467307 0.02316391 -0.2625515 0.0037036038 -0.43169448 0.00028513404
-0.054873277 -0.04641137 -0.12747316 -0.16500139 -0.13888001 -0.13922842 -0.087312534 -0.073143706
-0.0008336213 -0.021526817 0.23577401 0.36568528 -0.11104898 -0.06140857 0.076316625 -0.11180192
-0.03834685 -0.094658464 -0.24179652 -0.034353636 0.13481517 -0.036008418 -0.19300035 -0.11636746
-0.16800089 -0.13960272 -0.27299806 -0.031393073 -0.21593232 -0.09130738 -0.03666835 -0.24479255
-0.03377488 -0.06900286 0.011063492 -0.2037562 -0.16543317 -0.08205888 -0.09722961 -0.20947947
-0.388336 -0.08240667 -0.13428538 -0.12524243 -0.07736518 -0.08277798 0.3467729 -0.10843651
-0.08513517 -0.13215342 -0.089447185 0.11339109 -0.04985786 -0.12709148 -0.055764385 -0.119836554
0.057815105 0.041208047 -0.046505343 -0.08761469 -0.20462884 0.017272605 -0.13531566 -0.23034051
-0.2135625 -0.009042933 -0.08282838 -0.07355994 -0.0925144 -0.06696 -0.014705149 -0.5119314
-0.18230994 -0.080168076 -0.2228178 0.0957908 -0.15239115 -0.07464474 -0.061320774 -0.30874488
-0.15930706 -0.17089728 -0.1032397 -0.15510681 -0.17719078 0.0930932 -0.039739944 -0.014031686
-0.269887 -0.08366725 -0.10457846 -0.015327321 0.03934462 -0.25684926 0.052688632 -0.075279936
0.0019795378 -0.19615275 -0.073321596 -0.06469949 -0.07599547 -0.19140105 -0.24499348 -0.058801774
-0.23666239 -0.17021221 -0.42325413 -0.1446878 -0.09859262 -0.30510497 0.064907804 -0.32427433
-0.13225499 -0.106779546 -0.121030495 0.03915271 -0.119493715 -0.0033275555 -0.15838614 -0.22734892
-0.10640618 -0.11687006 -0.09476731 -0.11875692 0.22516528 -0.24276245 -0.079547 -0.07660034
-0.025455238 0.13842575 -0.09078349 -0.048953842 -0.02354424 -0.076463476 -0.044483226 0.28726465
-0.07574692 -0.07051657 -0.25517148 -0.014407469 0.02426997 -0.032847177 -0.06175968 -0.21718389
-0.10658689 -0.08607157 -0.36680776 -0.112369396 0.14683698 -0.2571589 -0.32002863 -0.13244872
-0.10784569 -0.089726456 0.004318276 -0.13952228 -0.05407075 -0.1414072 0.06844805 -0.118093066
-0.032133978 -0.19209276 -0.09236927 -0.11726531 -0.11716941 -0.045405168 -0.068025164 -0.09354368
-0.14114688 -0.22533317 -0.14338902 -0.23218025 -0.06402412 -0.27483112 -0.0080682915 -0.08397447
-0.07070264 -0.27956164 -0.07501902 -0.22382301 -0.078112096 -0.0775542 -0.25023955 0.2503453
-0.29879224 -0.12629297 0.07524294 -0.042255733 -0.002219829 -0.10857221 -0.08221788 -0.15429749
0.60710055 -0.056673095 -0.30767897 -0.13127635 0.07189917 -0.09715385 -0.18086062 -0.04431315
-0.18123624 -0.26359218 -0.05484307 -0.13956842 -0.09455121 -0.009637715 0.041280273 -0.22284856
0.077209085 -0.2764778 -0.06937411 -0.03363166 0.08600135 -0.07165008 0.19889547 -0.18175182
-0.39140728 0.016690245 -0.21058545 -0.18420771 -0.0013050564 -0.0546324 -0.12300662 -0.009534811

fc2.bias f4 [300]
00000000: 6c90 0b3e 8b81 15bd 1a9e 21bd 6285 0bbd
00000010: 3910 583e 71df 583e 6163 fd3e a7c6 7a3e
00000020: eaa7 893f 6d77 8a3d 198e 283d 6555 6e3e
00000030: 162d a83c 6fe9 d73c cf1b 123e e435 cc3c
00000040: 108c 9d3f 37f1 2b3e 9e1d 2b3e b946 253f
00000050: fa03 bb3d 662b a5bc bccb 043d 2dec f83b
00000060: ca0c 243d aba7 213d 724f 053e b9cb 3b3e
00000070: 98f6 dd3e 8095 853e ca96 323f c721 d53c
00000080: 9e59 34bd 8554 7abc 9926 96bd b669 0b3e
00000090: 0d23 973d e4e9 c83e 3cd3 243e e208 66bd
000000a0: 1c84 44bd 9c1f 89bc c294 883c eeea 143f
000000b0: 5526 753e ce8a 8b3c 9a7d 593c 3b96 15bc
000000c0: c60c 583c df1b 1f3e e48f 9f3e 2fc1 823e
000000d0: b430 703b 8933 703e 912a 1a3e 5e41 70bd
000000e0: 1869 2b3e af89 12bd b833 62bc 14e1 a53e
000000f0: f8ce 243d 6ff3 1b3b da8f bdbc e766 97bb
00000100: 510c 023f b9a3 523e dc7f 563e 2581 b13c
00000110: 4aee de3c 046f 473e 56c6 ed3d c694 a43e
00000120: 5eea 7f3e 2110 6c3f d412 d7bc 490a 90bd
00000130: 3955 113c 392d 93ba b49c 743f 8ba4 bb3e
00000140: abfa f13d 4e08 8fbc ed8a 623e 944b ebbc
00000150: 9d44 cb3e 351f 593f 1477 05bd 9ab8 b93d
00000160: ef3c 7ebc ff58 043e d032 4fbd e30e 243e
00000170: c7ee 473e 7dd8 013d 567c 253f 7b08 253e
00000180: 8d86 69bd 9087 6d3e 0878 59bd 2c27 4ebd
00000190: 4c2b f53b b709 afbd 7c5b c2bc 1aee 30bc
000001a0: 08f7 cf3e 4a01 0ebc 369a e3be 6182 8d3e
000001b0: d440 5ebd 4268 203f b7c1 673e 1bad 003f
000001c0: 069f 163f d819 bcbc ce85 723d c080 c2bb
000001d0: d672 21bc c9a9 113f 90c5 4b3f aacf 2d3e
000001e0: 7aae 453e 45dc df3e 58db 673c 808c 9fbc
000001f0: 05b0 b43e 5a05 163e 2543 553c e3d5 073e
00000200: 76c3 6d3f 203e 3ebd cd03 703e 2f56 283e
00000210: 5440 923b c355 943e b0ef c53c 64ff 6ebd
00000220: 7719 4fbd 2275 3e3e ee07 8cbc 00cc 1ebd
00000230: f29b 873b 4a20 363e 12e4 183e aae2 38bd
00000240: e5af 363d 913b 633e 5dbd c33e 4d2b 543e
00000250: 6a0e d43e 84bf 473e 6adb d03e 65c9 1abb
00000260: 3e2a 1a3e aa4d f0bc 94bf 3e3c e0d6 dd3c
00000270: 3f73 33be 2622 a2bd 8d94 9cbd e126 1c3e
00000280: e006 25bd 1ee9 17bc a3b6 fd3c c739 af3d
00000290: d8ba 273f fd00 163e a61c 2abd 1e8d 1ebd
000002a0: 4fd9 233b d522 8d3c 2062 433c a686 063c
000002b0: b679 883f 91a9 893c d463 443e 92f9 063f
000002c0: 8d36 02ba e51d d43d dc53 3b3c 54f6 6f3b
000002d0: 6717 17bd 2d01 663e 256c 41bb 97cd d53b
000002e0: 48e8 2a3e dc3c 253d 187d f83a 7a89 1b3e
000002f0: 0223 703e bea1 adbd 65a7 823e bebd c3bc
00000300: deff 2b3e 223f 0f3d b8fa 623e f116 d8bd
00000310: e599 1b3e 7f30 d7bd c046 0d3f 22df 5fbd
00000320: 7df4 f93e 6188 233c 8c77 1abd ec8e b2be
00000330: e5bc 783e eaf9 3a3e 953c e2bc 387b 8bbb
00000340: c977 81bc 2fc3 4a3e 3c72 ddbc 7cb5 afbc
00000350: 1a5c 433e 8bf3 273e 83ec 603e 0c4e e73b
00000360: 6796 5a3e 45e9 59bd 5932 043f 2e8a 473e
00000370: 0a7d c1bc 4cc4 efbc 85a2 763c ac66 a139
00000380: 098a d1bc d240 b83d dd9a 163c 061b 27ba
00000390: fff6 3cbd 61d2 593e 9be1 3fbc 4378 1bbc
000003a0: e6f1 d83b 60db 193f 35b8 9f3b 68b7 133b
000003b0: 3033 933c f87b 0dbd b378 13bc 8adf d33e
000003c0: a3de 6fbd cb04 583c fa1a 433e 6589 99bb
000003d0: 76d1 533e 8295 9e3d 7433 fe3d 68f5 773e
000003e0: 6545 44bd 5875 753e 6e75 893e aa6b 25bd
000003f0: b141 873f b8af 05bd 0e8d 9abd 30ef 4f3e
0.13629311 -0.036500495 -0.039457418 -0.03406275 0.21099938 0.21178986 0.49489883 0.24489842
1.0754368 0.0676106 0.04115114 0.23274763 0.020529311 0.026356427 0.1426842 0.02492804
1.2308369 0.16791235 0.16710517 0.6456104 0.09131618 -0.020162296 0.03242086 0.0075965137
0.04005126 0.03946654 0.13018587 0.18339433 0.433522 0.26090622 0.69761336 0.026017083
-0.044030778 -0.01527894 -0.07331581 0.13614544 0.07379732 0.39240944 0.16096205 -0.056160815
-0.04797755 -0.016738705 0.016672496 0.58170974 0.23940404 0.01703396 0.013274575 -0.009130056
0.013186639 0.15537976 0.31164467 0.25538012 0.0036650123 0.23457159 0.150553 -0.05865609
0.16739309 -0.035775837 -0.013806276 0.32398283 0.040236443 0.002379622 -0.023139883 -0.004620421
0.50800043 0.20570268 0.20947212 0.021668026 0.027213234 0.19475943 0.11610095 0.32144755
0.24991748 0.9221211 -0.026254095 -0.07033212 0.008870416 -0.0011228687 0.9555161 0.36648974
0.11815389 -0.017460015 0.22123308 -0.028722562 0.39700785 0.84813243 -0.032584265 0.09068413
-0.015517457 0.12924574 -0.050585568 0.16021304 0.1952468 0.0317006 0.64642847 0.16116516
-0.057013083 0.23196244 -0.053092986 -0.050330326 0.007481968 -0.08546775 -0.023725264 -0.010798955
0.40618157 -0.0086672995 -0.4445359 0.27638534 -0.054261044 0.62659085 0.2263249 0.5026414
0.588364 -0.022961542 0.059209637 -0.0059357584 -0.009854039 0.56899697 0.7959833 0.16973749
0.19304839 0.4372274 0.014151417 -0.019476175 0.35290542 0.14650479 0.013016497 0.13265185
0.92876375 -0.046445966 0.2343895 0.16439126 0.004463235 0.2897168 0.024162143 -0.05834903
-0.050561395 0.1859937 -0.017093625 -0.03876877 0.004138463 0.17785755 0.14930752 -0.04513804
0.04460134 0.22190692 0.3823041 0.20719643 0.41417247 0.19506651 0.407924 -0.0023618576
0.15055177 -0.029333908 0.0116423555 0.02708 -0.17524432 -0.079166695 -0.07645521 0.15249206
-0.04028976 -0.009271888 0.030970877 0.08555942 0.65519476 0.14648814 -0.041531228 -0.0387088
0.0025001352 0.017228523 0.01192525 0.008210814 1.0662143 0.016804488 0.19178706 0.52724564
-0.0004967235 0.103572644 0.011433568 0.003661533 -0.036887553 0.22461386 -0.0029513922 0.0065247524
0.16690171 0.040341243 0.0018958179 0.15189162 0.23450854 -0.084781155 0.25518337 -0.023894187
0.16796824 0.034972318 0.22165954 -0.10551251 0.15195425 -0.10507297 0.5518608 -0.054656155
0.48819342 0.009981246 -0.037711665 -0.34874666 0.24290808 0.18259397 -0.027616778 -0.004256632
-0.015804188 0.19801019 -0.02703201 -0.021448843 0.19078103 0.16401498 0.21965222 0.0070588645
0.21346436 -0.05320098 0.51639324 0.19486305 -0.023619194 -0.029268406 0.015053396 0.0003078481
-0.025578516 0.089967385 0.009192196 -0.0006374571 -0.04613399 0.2127166 -0.011711503 -0.009489122
0.0066206334 0.60100365 0.004874254 0.0022539739 0.017968744 -0.034542054 -0.009000945 0.41381484
-0.058561932 0.0131847365 0.1905326 -0.004685568 0.20685372 0.0774336 0.12412158 0.24214709
-0.047917742 0.23970544 0.26847404 -0.04038588 1.0566922 -0.03263828 -0.07546435 0.20306087

fc3.weight f4 [1, 300]
00000000: 2492 b7bb f830 183d 99e2 263c 2b77 043d
00000010: 9a4b 93ba d976 003d f2ab a2bd 6609 743e
00000020: f8bb 4dbe 74a0 403d e874 c93c 8e28 40ba
00000030: 61ea b23b bbdf cc3a f1f5 473b ea70 e23c
00000040: 3ea6 7bbe 1f78 a9bb ca87 da3a 8cdd c1bb
00000050: 2b13 00bd a1e8 143c 3673 c93c a2b5 143d
00000060: ced9 233d 0e2c 13ba 9152 463c 6af3 a3bc
00000070: 77fd 3fbf 515f 493c e206 02bf 281d b2bb
00000080: 26b4 553b b88d 183a 3fa3 d0bc c89d bbbc
00000090: 16da 853c 0162 7040 23fe 04be 5413 1b3d
000000a0: 606b 1dbc e7a2 f33c 7fbb 9e3b ee12 a0be
000000b0: 0d43 01bd d70e 433d 0dc9 f53c f13a 0d3d
000000c0: 3507 e73b 3761 303c 8376 0c3d 5291 44bc
000000d0: 6b2b d2bf 1c46 c8bc cea2 b43b 0fef afbc
000000e0: 4fd7 0ac0 0527 253d 044f d23c f8d9 343c
000000f0: 52d5 2a3d d222 b93c c40d 2e3c 05b1 1a3c
00000100: e31b 81ba 3fd9 56bd 6c09 16bf 756a 343c
00000110: 2440 c73b 0575 22bc 3b61 a5bf f17a 7dc0
00000120: ca2d dfbc 767a ecbd 46a8 e0ba a88d 85bb
00000130: edc0 233d 62f4 483c cf5a f8bd 8a8c 8bbf
00000140: b9e1 babc 5ccc 403d 4ddb 1e3d 9b37 f43c
00000150: 69ac e6bb 17d8 49bd 1df6 083c 1e1c 3b3a
00000160: 1d34 c0bb 8cd1 dfbb a699 213d b0fb 3abc
00000170: 619c 00bd ac85 363c 936c 04bf 0256 95bc
00000180: 0e40 823c c1fc 583c 67c6 043d 3091 213c
00000190: 5176 0a3d d25f 343c 4a33 1e3d df3d c3bf
000001a0: f6d6 2b40 9fd1 433d 14f0 56bf ab2e ee3c
000001b0: fb87 353d 0997 c1be ec7b 1abc 524c b9be
000001c0: 885a b4bd aed5 203c 61e5 03bb 4b4e ca3c
000001d0: 4859 493c 133e 37be ab66 83bd 1422 773e
000001e0: 5c5a bd3c 22f2 21bf 6900 113d 630b 3a3d
000001f0: c31f 39bf b52e 2bbc 4b6f a03c dc2f 75bc
00000200: 7458 c9bd 2135 383d aa59 f0bc 62c6 9cbc
00000210: 37af 403d ec20 f23f e680 1ebb 6bc0 813c
00000220: 92d4 9f3c 64eb ddbc 193a 0fbb 060a 933c
00000230: d43b 043c 135c 00bd e3c2 03bc 9dfb 163c
00000240: 0618 fc3c 9392 e2bf 8e79 8e3f 5396 adbc
00000250: 8b77 f83c eda9 18c0 769c 6840 21f2 8d3c
00000260: 0c2d 3fbc a4ed 4d3d ff9a 213d 4317 303d
00000270: b2d4 bfbe 9dff ffbc ea32 863c 5392 da3b
00000280: 2a9f a1bc e421 2c3d f03b 3b3d de34 51bb
00000290: 61bc 23bf 9aaf debc 29f5 dc3c 5cbc ffbb
000002a0: fdea c9bb d676 243b 9fcd e83c 3143 e7bb
000002b0: ce55 0dbf 3a17 183d e5c4 b2bc a8e4 38bf
000002c0: 3883 9d3f aeeb bfbc 8c7f 433c afc1 453d
000002d0: d332 a93c d83f 923c 7161 dc3c dfbd 0ebd
000002e0: 1899 0fbd ec75 1b3d 7e99 6b3c 7658 4ebc
000002f0: 0f97 b43b 84ee 9e3c 4217 c8bb 6daa a63c
00000300: 3a22 cd3c 69c7 403d 7c8a f5bc 0f29 613c
00000310: 778d 50bf d323 9a3b c329 b0bf bb4d 113d
00000320: 4413 f0be 9a4b f1b9 0f99 d9ba e3dd 9e3e
00000330: ed09 ae3c 2c9f dfb9 04d5 c13c ad13 a0bb
00000340: bd7c 683b 6704 613c 3943 933c 58d6 143d
00000350: 6f3e 82bb eadb eebc 05f1 d13b 4569 993c
00000360: 4d4c e03b 9df2 99bc b604 da3b 84bb b23b
00000370: b10c db3c 296c d8bc ba4a 323d 0275 003b
00000380: d797 953c 2e16 28bb 98cd 68bb 4dfe ab3c
00000390: e498 85bc 6178 c13c 0f8e 5bbc 4f5b a23c
000003a0: e8bd 72bb 45f3 eabd ad40 2d3d f0d4 fe3c
000003b0: 783a 853c 1414 87bb 9522 9b3b 2e82 4fbe
000003c0: c3b2 f83c 2c9f 0ec0 b35c 603c f562 4c3d
000003d0: 8ddf 30bc 3b0a eebb b99b 243c 914c 81be
000003e0: 4f69 383b 3b98 d2bb a8c5 f33c a08d 2f3d
000003f0: 88a4 27bf b63d bdbb 4239 843c 76d7 79bf
-0.005602138 0.037156075 0.010185861 0.03234021 -0.0011237741 0.031363342 -0.07942952 0.2383171
-0.20091236 0.04702802 0.024591878 -0.0007330262 0.005460069 0.0015630642 0.0030511583 0.027641732
-0.24575135 -0.0051717903 0.0016672548 -0.005916303 -0.03126828 0.009088666 0.02459107 0.03630603
0.040002637 -0.00056141696 0.012104646 -0.02001353 -0.7499613 0.012290792 -0.5079175 -0.0054356046
0.0032608598 0.00058194576 -0.025468467 -0.022902384 0.016339343 3.7559817 -0.1298757 0.03786023
-0.00960812 0.029740764 0.0048441286 -0.31264442 -0.031558085 0.047621574 0.030003095 0.03448004
0.0070504197 0.010765365 0.03429271 -0.011997538 -1.64195 -0.024447493 0.005512572 -0.021476297
-2.1693914 0.040320415 0.025672443 0.011038296 0.041707344 0.022599611 0.010623399 0.009441619
-0.000985023 -0.052453276 -0.58608127 0.011011709 0.006080644 -0.009915595 -1.2920297 -3.9606287
-0.027243514 -0.11546795 -0.0017139993 -0.0040757246 0.03997891 0.012265297 -0.12126695 -1.0902264
-0.022812711 0.047069892 0.03878336 0.029811671 -0.007039596 -0.049278345 0.008359459 0.00071376737
-0.0058655874 -0.0068304 0.03945317 -0.011412546 -0.031399135 0.011140268 -0.5172817 -0.018229488
0.015899684 0.013243855 0.032415774 0.009861276 0.03380424 0.0110091735 0.03862313 -1.5253257
2.6849952 0.047807332 -0.8396008 0.029074987 0.044319134 -0.37810543 -0.009428959 -0.3619104
-0.0880633 0.00981657 -0.0020125734 0.024695536 0.012289353 -0.17894773 -0.06416067 0.24134094
0.023114376 -0.6326009 0.03540078 0.045421015 -0.7231409 -0.010448148 0.019584319 -0.014965024
-0.09831324 0.044972543 -0.02933963 -0.019137565 0.047042098 1.8916297 -0.0024185716 0.015838822
0.019510541 -0.027089782 -0.0021854697 0.017949115 0.008070905 -0.03133781 -0.00804207 0.009215263
0.030773174 -1.7700981 1.1130846 -0.021189844 0.03033044 -2.3853714 3.6345496 0.01732737
-0.011668455 0.05027546 0.039454456 0.042990934 -0.3746696 -0.031249816 0.0163817 0.0066702752
-0.019729216 0.042024508 0.045711458 -0.003192238 -0.6395932 -0.027183343 0.02697237 -0.0078044366
-0.006162046 0.0025095246 0.02841836 -0.0070575704 -0.5520905 0.037131526 -0.021822402 -0.722239
1.230567 -0.02342781 0.011932265 0.048280414 0.020654118 0.017852709 0.026901932 -0.034849044
-0.03505811 0.037954256 0.014379857 -0.012594333 0.0055111717 0.019400842 -0.006106288 0.020344937
0.025040735 0.047065172 -0.029973261 0.013742699 -0.8146586 0.0047039776 -1.3762745 0.03547452
-0.46889699 -0.0004602343 -0.0016601401 0.3102866 0.021244967 -0.00042652467 0.023661144 -0.004885158
0.003547474 0.01373396 0.01797639 0.036337227 -0.003974728 -0.029157598 0.0064069056 0.018726954
0.0068450333 -0.018792445 0.0066533936 0.0054544825 0.02673945 -0.026418762 0.043528296 0.0019600992
0.01826088 -0.0025647986 -0.0035522934 0.020995283 -0.016308255 0.023616971 -0.013400569 0.01981893
-0.0037039462 -0.11472181 0.042298008 0.031107396 0.016263232 -0.0041222665 0.004734347 -0.20264503
0.030358678 -2.228465 0.013693976 0.04989906 -0.010795486 -0.007264403 0.010046893 -0.25253728
0.002813894 -0.0064268387 0.029757336 0.042859674 -0.6548543 -0.005775179 0.016140584 -0.9759439
