Char10 TD3/expTD3.pyPendulum-v0./critic_1_target.pth (torch_old, 491501 bytes, 5 tensors)

fc1.weight f4 [400, 4]
0	0x3e866c68	0.26254582
1	0x3f66b61e	0.9012164
2	0xbcb063c5	-0.021531949
3	0x3e1046e0	0.14089537
4	0xbf4e3b7e	-0.8055953
5	0x3e04f63c	0.12984556
6	0x3ea05475	0.31314436
7	0x3d971252	0.07376541
8	0xbf135a46	-0.5755962
9	0x3f46aec1	0.77610403
10	0x3e1bb348	0.15205109
11	0x3de4f108	0.111787856
12	0x3ef44d47	0.47715208
13	0xbebd5b64	-0.36983788
14	0xbecf8af9	-0.40535715
15	0xbd4b8a22	-0.04969228
16	0xbf422a21	-0.75845534
17	0xbf241e74	-0.6410897
18	0x3d2c3845	0.04204585
19	0xbd0abc04	-0.033870712
20	0x3f7a2387	0.9771046
21	0xbfab4c40	-1.3382645
22	0xbe8ce369	-0.2751725
23	0xbd760e52	-0.06007225
24	0xbf67a1d4	-0.90481305
25	0x3f016c0e	0.50555503
26	0x3f02ea94	0.5113919
27	0x3d98f804	0.0746918
28	0x3c4dc8e9	0.012560108
29	0xbd3da02f	-0.04629534
30	0xbb8253b4	-0.0039772633
31	0xbc6426b2	-0.013925241
32	0x3f39ce03	0.72579974
33	0x3fa54ee5	1.2914702
34	0x3df08a76	0.11745159
35	0x3d293119	0.04130659
36	0x3fb5edf2	1.421324
37	0xbeebb110	-0.46033525
38	0xbe729536	-0.23689732
39	0xbd5d24a2	-0.053990014
40	0x3f9e39e5	1.2361418
41	0x3d1c7a1f	0.0382024
42	0xbd892805	-0.06697086
43	0x3b64d958	0.0034919586
44	0xbe7d0d48	-0.24712098
45	0xbea008f0	-0.3125682
46	0x3ee1d78f	0.4410977
47	0xbe7e204e	-0.24817011
48	0x3f063bd1	0.5243502
49	0xbf1ee35a	-0.6206566
50	0x3f0d8b68	0.5529084
51	0x3e055386	0.13020143
52	0xbe07c95c	-0.13260406
53	0x3d8b39d4	0.06798139
54	0x3cb69a87	0.022290481
55	0xbe0743c4	-0.13209444
56	0xbeb4b3cf	-0.35293433
57	0xbee35d35	-0.4440705
58	0x3e095634	0.1341179
59	0xbe9bc41d	-0.3042306
60	0xbc8fdc7e	-0.017561194
61	0x3f0030d9	0.50074536
62	0xbd937993	-0.07200923
63	0x3f26b17d	0.65114576
64	0xbe9a64d7	-0.3015506
65	0x3f655518	0.8958297
66	0x3d34a1a0	0.04409945
67	0xbdeef208	-0.116672575
68	0xbc747e4c	-0.01492269
69	0x3e728a4b	0.23685567
70	0xbc7fc9b3	-0.015612054
71	0x3e54aaa1	0.20768215
72	0xbef0e896	-0.4705245
73	0xbe1c5a72	-0.15268877
74	0x3e66b764	0.22530895
75	0xbdea4939	-0.11439747
76	0x3ebd8bdd	0.3702077
77	0x3f804501	1.0021058
78	0xbe24d742	-0.1609774
79	0x3ed45155	0.414683
80	0x3f85882f	1.0432185
81	0xbd97b80d	-0.07408152
82	0x3e6423ec	0.22279328
83	0x3c8698e8	0.016430333
84	0xbe3835a7	-0.17989217
85	0x3f444963	0.7667448
86	0x3e5a1a13	0.21299009
87	0x3f002987	0.50063366
88	0xbf0698f6	-0.5257715
89	0xbf04e05d	-0.5190485
90	0x3ed6937c	0.41909397
91	0x3d1eda0a	0.038782157
92	0x3ed60c89	0.4180644
93	0x3f042acc	0.516278
94	0x3d890754	0.06690851
95	0x3d5ef439	0.054432128
96	0x3fa7b808	1.3103037
97	0xbf318e7f	-0.69358057
98	0xbd72272c	-0.05911939
99	0x3c9c96ef	0.01911494
100	0xbe1b8d0e	-0.15190527
101	0xbf827328	-1.0191393
102	0xbe96a6fc	-0.29424274
103	0xbd00a1a0	-0.031404138
104	0x3f07db54	0.53069043
105	0xbecee045	-0.4040548
106	0xbecdd39b	-0.40200505
107	0xbd0c06a2	-0.034186013
108	0x3f756255	0.9585317
109	0x3fc8f8bd	1.5700909
110	0x3d962170	0.073305964
111	0xbd84a64c	-0.06477031
112	0xbfaf80dc	-1.37112
113	0xbebbaca2	-0.36655146
114	0xbe6c8322	-0.23096898
115	0xbe2691e8	-0.16266596
116	0xbf3fcd90	-0.7492304
117	0xbf1178c0	-0.56824875
118	0x3dc1c7dd	0.09461949
119	0xbed864ba	-0.42264348
120	0xbf39a3f1	-0.7251578
121	0xbf821636	-1.0163028
122	0x3e59446a	0.21217504
123	0x3e9f2f3d	0.31090727
124	0x3e9dfafb	0.30855545
125	0xbe982f28	-0.29723477
126	0xbf0fc028	-0.5615258
127	0xbd996717	-0.07490366
128	0x3f490982	0.7853013
129	0xbfd5ab5d	-1.6692921
130	0xbedb2253	-0.42799625
131	0xbd686418	-0.05673608
132	0x3e08693b	0.13321392
133	0xbf01d91b	-0.507219
134	0xbd353712	-0.044241972
135	0xbe48f5cf	-0.19625019
136	0xbe5427b7	-0.20718275
137	0xbe5239dd	-0.20529886
138	0xbccf0682	-0.025271658
139	0x3dfb82b2	0.122807875
140	0xbf64606b	-0.8920962
141	0xbe08a91c	-0.1334576
142	0x3e0781e8	0.13233149
143	0x3fad6ad3	1.3548225
144	0xbc8f1d96	-0.017470162
145	0xbefd42f6	-0.4946515
146	0xbd1b20d8	-0.03787312
147	0x3d82b94b	0.06382998
148	0x3b6988d3	0.0035634532
149	0xbd8dcd34	-0.06923905
150	0x3c55bff9	0.013046258
151	0x3ae401fa	0.0017395609
152	0xbef66b2a	-0.48128635
153	0xbff89a48	-1.9422083
154	0xbee9eff5	-0.45690885
155	0xbdaf39d5	-0.085559525
156	0x3f8d6934	1.104773
157	0x3f10b742	0.5652963
158	0x3f06df56	0.52684534
159	0x3dafc319	0.08582134
160	0xbf90f263	-1.132397
161	0x3f058b30	0.5216551
162	0x3d27dc07	0.04098132
163	0xbce1b2f2	-0.027551148
164	0x3f25d9bd	0.6478537
165	0xbf6a0ff7	-0.9143061
166	0xbea30383	-0.31838617
167	0x3dd2091d	0.102556445
168	0x3f961488	1.1725016
169	0xbf25c492	-0.6475307
170	0x3e00ae64	0.12566525
171	0xbcf79dd7	-0.030226631
172	0x3fd14ec5	1.6352164
173	0x3ef0c76a	0.4702714
174	0xbc32b10d	-0.01090647
175	0x3d79b39a	0.060962297
176	0x3bed29fc	0.007237671
177	0x3ec3b57a	0.38224393
178	0x3db52349	0.08844621
179	0xbcc8c3c8	-0.024507418
180	0xbf3b3410	-0.73126316
181	0xbeebfe82	-0.46092612
182	0xbe524ea1	-0.20537807
183	0xbcf18b68	-0.02948542
184	0x3f88b67e	1.0680692
185	0x3fbe4c06	1.486695
186	0x3d755ead	0.059904743
187	0x3c876504	0.01652766
188	0xbe3bdd9c	-0.18346256
189	0xbf744fe2	-0.9543439
190	0xbe351380	-0.1768322
191	0x3f24985d	0.6429499
192	0xbf3ef670	-0.74594784
193	0x3fa47e86	1.2851112
194	0x3e5a0dfa	0.21294394
195	0x3d9f5606	0.077800795
196	0x3ed1d9cf	0.40986487
197	0xbf93868d	-1.1525437
198	0xbbda872d	-0.0066689462
199	0x3c2045b6	0.009782245
200	0xbf359b37	-0.70939964
201	0xbe87b21f	-0.26503083
202	0x3e8b3a8f	0.27193114
203	0x3c9b41fc	0.018952362
204	0x3eebd8a0	0.4606371
205	0x3ffe4ce6	1.9867218
206	0x3eebc928	0.46051908
207	0x3d93edaa	0.07223065
208	0x3fd16a8f	1.6360644
209	0xbf4432ef	-0.7664022
210	0xbe474f32	-0.19463804
211	0x3ea0afad	0.3138403
212	0xbf46a133	-0.7758972
213	0x3f7a029a	0.9766022
214	0x3e923a1c	0.2855996
215	0x3c989f4d	0.018630648
216	0x3d05760d	0.032583285
217	0x3da3eaee	0.08003794
218	0xba80956b	-0.0009810155
219	0x3a3b02a7	0.0007133879
220	0x3e88b067	0.26697084
221	0xbfafc79e	-1.3732793
222	0xbeb5b808	-0.35491967
223	0x3e85fe20	0.26170444
224	0x3f2c3ea8	0.67283106
225	0xbfccf4dc	-1.6012225
226	0xbec89fa4	-0.39184296
227	0xbd81dd45	-0.06341032
228	0xbdc958f8	-0.098314226
229	0xbe92cb54	-0.28670752
230	0x3a857ea5	0.0010184838
231	0xbca53566	-0.020167064
232	0xbd564269	-0.052309427
233	0x3ed293df	0.41128442
234	0x3f2a815f	0.66603655
235	0x3ef11300	0.47084808
236	0xbed76ec7	-0.42076704
237	0x3e6cce96	0.23125681
238	0xbdd43b00	-0.10362816
239	0xbee65ada	-0.4499119
240	0xbe56e04f	-0.20984004
241	0x3f61aff9	0.8815914
242	0x3e5fe38e	0.21864149
243	0x3c469179	0.012119644
244	0x3cc0e15f	0.023544965
245	0xbf4affa9	-0.79296356
246	0xbe0f7c5b	-0.14012282
247	0x3e57f1f9	0.21088399
248	0x3ece2518	0.40262675
249	0xbd9926ad	-0.0747808
250	0xbba39ccf	-0.0049930583
251	0xbdbff50f	-0.09372913
252	0xbe4afef3	-0.19823818
253	0x3e9f8c7e	0.31161875
254	0x3f00a81a	0.502565
255	0x3e2105b6	0.15724835

fc1.bias f4 [400]
0	0xbf4c97e8	-0.7991929
1	0xbf09c643	-0.5381815
2	0xbf1078b6	-0.5643419
3	0xbfcee64c	-1.6164031
4	0x3e96a860	0.29425335
5	0xbf25ba17	-0.64737076
6	0xbf690aa7	-0.9103188
7	0xbdc5e179	-0.09662146
8	0xbf197965	-0.5995086
9	0xbfa02b32	-1.2513182
10	0x3f3508cd	0.70716554
11	0xbf287700	-0.6580658
12	0xbfab6ca0	-1.3392525
13	0xbf0183e5	-0.5059188
14	0xbf2a6d99	-0.6657348
15	0xbf1a3920	-0.60243416
16	0xbe8fd47a	-0.28091794
17	0xbf4237f9	-0.7586666
18	0xbf032f74	-0.5124428
19	0x3d3fdd5a	0.046841957
20	0xbf94930b	-1.1607374
21	0xbdd7fb9a	-0.10546036
22	0xbeded0f7	-0.43518803
23	0xbf90679e	-1.1281621
24	0x3e906b66	0.28206939
25	0x3e173ba8	0.14768851
26	0xbfc18042	-1.5117266
27	0x3ecb97ce	0.39764255
28	0xbf8794f6	-1.0592334
29	0x3e6a0cbd	0.22856422
30	0xbf1825fb	-0.59432954
31	0xbf32ccaf	-0.6984357
32	0xbfa13224	-1.2593427
33	0x3f014c3e	0.5050696
34	0x3ebfeb3f	0.37484166
35	0xbf17bee8	-0.59275675
36	0x3ea713a4	0.32632172
37	0xbe2e6817	-0.17031895
38	0xbdbc0f45	-0.091826
39	0xbfcd70f1	-1.6050092
40	0x3ad9cedc	0.0016617435
41	0xbf791ccf	-0.97309583
42	0x3e5d7bd0	0.21629262
43	0x3f1164c9	0.5679441
44	0x3efe2f89	0.4964564
45	0x3f135ff4	0.5756829
46	0xbf00a9f3	-0.5025932
47	0xbf3ffeb1	-0.74998003
48	0xbd94b0be	-0.072602734
49	0x3f3637cf	0.7117891
50	0xbf290254	-0.6601918
51	0xbf7ae120	-0.97999763
52	0xbe6d4738	-0.23171699
53	0x3ee7dc16	0.452851
54	0xbdd359ea	-0.10319884
55	0xbf803133	-1.0015014
56	0xbe50b4d6	-0.20381483
57	0xbeb5c090	-0.35498476
58	0xbf8c1174	-1.0942826
59	0xbfa2acdf	-1.2709006
60	0xbe5c3214	-0.21503478
61	0x3f20ef29	0.6286493
62	0xbf2562b7	-0.6460375
63	0xbfa06c46	-1.2533042
64	0xbe842674	-0.25810587
65	0x3d43d993	0.047814917
66	0x3e94b86e	0.2904696
67	0xbf355695	-0.7083524
68	0xbf6ce043	-0.92529696
69	0xbfbad8af	-1.4597377
70	0x3f167c6d	0.5878361
71	0xbf1b7ea5	-0.6074012
72	0xbe09b2df	-0.1344714
73	0xbf829b95	-1.020373
74	0xbefa91a5	-0.48939243
75	0xbf502342	-0.813038
76	0xbecbbbdb	-0.3979176
77	0xbe721774	-0.23641759
78	0xbf15280b	-0.58264226
79	0xbf5b0f24	-0.8556998
80	0xbd480447	-0.048832204
81	0xbed491a2	-0.4151736
82	0xbe082bcd	-0.13297959
83	0xbf6306f0	-0.8868246
84	0xbfd1d694	-1.6393609
85	0xbf8a02a3	-1.0782055
86	0x3f3105ea	0.6914965
87	0x3e36e0ff	0.17859267
88	0x3e4fae16	0.20281252
89	0x3f582136	0.84425676
90	0xbf833f88	-1.0253763
91	0x3f44c074	0.7685616
92	0xbe99d766	-0.30047148
93	0xbe578da6	-0.21050128
94	0xbf2711d9	-0.6526161
95	0xbf4542e8	-0.77055216
96	0xbf3192f2	-0.69364846
97	0x3f66581f	0.8997821
98	0xbdd19592	-0.102336064
99	0xbfbc9bc5	-1.4735037
100	0x3f1295c2	0.5725976
101	0xbec6ebba	-0.3885172
102	0xbf6cca61	-0.92496306
103	0xbe03621f	-0.12830399
104	0xbf46f60c	-0.7771919
105	0x3f202d51	0.6256915
106	0xbf160547	-0.586018
107	0x3e31c11e	0.17358825
108	0xbddb492a	-0.10707314
109	0xbf89ce9e	-1.076618
110	0x3eebdb1d	0.46065608
111	0xbf976994	-1.1829095
112	0xbf8a1f44	-1.0790792
113	0x3e98d3d6	0.29849118
114	0x3f12429e	0.571329
115	0xbfc85e1e	-1.5653722
116	0xbf5efd85	-0.8710559
117	0x3eb62fdc	0.3558339
118	0xbfc1fa53	-1.5154518
119	0xbf2dde7c	-0.6791761
120	0xbf34b5cf	-0.7058992
121	0xbfb5a3ae	-1.4190576
122	0x3f213a69	0.6297975
123	0x3f757f48	0.9589734
124	0x3f0cf0de	0.55055034
125	0xbd0ea301	-0.03482342
126	0x3f843e1c	1.0331454
127	0x3c101a01	0.008795262
128	0x3f58d45f	0.8469905
129	0xbf85c0f6	-1.0449512
130	0x3e7e6581	0.24843408
131	0xbf95da8c	-1.170732
132	0x3f2a1a4b	0.6644637
133	0xbf02418d	-0.5088127
134	0xbe4da325	-0.20081766
135	0xbf14707d	-0.57984143
136	0xbf88d7ad	-1.0690819
137	0x3d065cfe	0.032803528
138	0xbf6d361c	-0.9266069
139	0xbedfc022	-0.43701273
140	0xbf4c2530	-0.79744244
141	0xbf52cb97	-0.82341903
142	0xbda4decb	-0.08050307
143	0xbf18d5e0	-0.5970135
144	0xbf49c157	-0.7881064
145	0xbe490964	-0.19632488
146	0xbec0ca59	-0.3765438
147	0xbd510136	-0.051026545
148	0x3aeb7dc2	0.0017966556
149	0x3e9080d4	0.28223288
150	0xbf9fff48	-1.2499781
151	0xbf79ede3	-0.9762861
152	0xbf8ae045	-1.0849692
153	0xbf152dc5	-0.58272964
154	0xbf6ad11c	-0.91725326
155	0xbfb32e2a	-1.3998463
156	0x3ed84e7f	0.42247388
157	0xbe3dd1f1	-0.18537118
158	0x3f53077b	0.8243329
159	0x3ee6f58b	0.4510921
160	0x3f4912a8	0.7854409
161	0x3f722db3	0.9460098
162	0x3d0b7fca	0.034057416
163	0xbf23f8bc	-0.64051414
164	0x3f46e461	0.7769223
165	0xbf6f001a	-0.9335953
166	0x3df0a968	0.11751062
167	0xbe3ff089	-0.187441
168	0x3f314a8a	0.6925436
169	0x3e2c2252	0.16809967
170	0xbfbc5b81	-1.4715425
171	0xbec549e9	-0.3853295
172	0xbf81fe08	-1.0155649
173	0xbed4a1ab	-0.41529593
174	0xbeae0f07	-0.3399584
175	0xbf1a5f55	-0.60301715
176	0xbe598fac	-0.21246213
177	0xbfbc14d9	-1.4693862
178	0xbfcdfd14	-1.6092858
179	0xbf8c677a	-1.0969079
180	0x3e1be380	0.15223503
181	0xbf86a005	-1.0517584
182	0xbf8af46a	-1.0855839
183	0xbe9439fa	-0.28950483
184	0xbee2d92a	-0.44306308
185	0x3f24ad1d	0.6432665
186	0x3f0ffd8a	0.56246245
187	0xbf9771cd	-1.1831604
188	0x3f184c9c	0.59491897
189	0x3ecf19f2	0.40449482
190	0x3f4464ce	0.76716316
191	0xbe26d4df	-0.16292141
192	0x3eb2fd36	0.3495881
193	0xbf865c77	-1.0496968
194	0xbf697e05	-0.91207916
195	0x3ec0e8c1	0.37677577
196	0x3c586895	0.013208528
197	0xbf2a6689	-0.66562706
198	0xbfaba970	-1.3411083
199	0xbf4e6ede	-0.8063792
200	0xbf0d6f30	-0.55247784
201	0xbefc5d9f	-0.49290177
202	0xbe06075d	-0.13088746
203	0xbf1fd27e	-0.6243056
204	0xbf69f6ce	-0.9139222
205	0xbf962ef9	-1.1733085
206	0xbfc78692	-1.5587943
207	0xbf8b3d22	-1.0878031
208	0xbfb979f0	-1.4490337
209	0xbe46f919	-0.1943096
210	0x3f4e6ffc	0.80639625
211	0xbf82d468	-1.0221071
212	0xbfabac90	-1.3412037
213	0xbee98556	-0.4560954
214	0xbc574967	-0.013140059
215	0x3f7dbb87	0.9911427
216	0xbea2689f	-0.31720445
217	0xbdfb439b	-0.12268754
218	0x3f3f5a44	0.7474711
219	0xbf5f71d3	-0.87283057
220	0xbf433709	-0.7625585
221	0x3ebb6271	0.36598542
222	0x3ee824b9	0.45340517
223	0xbeb5017e	-0.353527
224	0xbf13f0f4	-0.5778954
225	0x3d61c249	0.055116925
226	0xbf39c7f8	-0.72570753
227	0x3e7656c0	0.2405653
228	0x3efc13c3	0.49233827
229	0x3eb15729	0.3463681
230	0x3e7c213a	0.2462205
231	0xbe8d767f	-0.27629468
232	0xbf76bb62	-0.96379673
233	0xbfb951c5	-1.4478079
234	0x3f159e2f	0.58444494
235	0xbe082d5d	-0.13298555
236	0xbf088461	-0.53326994
237	0xbf20d067	-0.62817997
238	0x3f560cb0	0.8361311
239	0xbfa352f7	-1.2759694
240	0x3e955a74	0.29170573
241	0xbf82127b	-1.016189
242	0x3e86628d	0.26247063
243	0x3f120e6f	0.57053274
244	0xbf308543	-0.6895334
245	0x3f030961	0.51186186
246	0x3ebfb90e	0.37445873
247	0xbef422c2	-0.47682768
248	0xbf3f0fd8	-0.7463355
249	0x3f30cdd9	0.690641
250	0xbee9b7c8	-0.45648026
251	0xbf3dfb1d	-0.74211293
252	0xbf490881	-0.785286
253	0xbf677659	-0.9041496
254	0xbfabb80e	-1.3415544
255	0x3dd526bb	0.10407778

fc2.weight f4 [300, 400]
0	0xbde814f3	-0.11332121
1	0xbe2c42df	-0.16822384
2	0xbe2f6e97	-0.1713203
3	0xbc758ef4	-0.014987696
4	0x3ac003e8	0.0014649602
5	0xbe83a534	-0.25711977
6	0xbe8d83c4	-0.27639592
7	0xbe11de9e	-0.14245078
8	0xbdc07f59	-0.0939929
9	0xbe268f7f	-0.16265677
10	0xbd856735	-0.06513826
11	0xbe56d7aa	-0.20980707
12	0xbe01ea3d	-0.12687011
13	0xbc7328e4	-0.014841292
14	0xbe4f67c0	-0.20254421
15	0xbdd23042	-0.10263111
16	0xbe0abc0d	-0.13548298
17	0xbd96dd86	-0.07366471
18	0xbe823475	-0.25430647
19	0x3c119f55	0.008888085
20	0xbe01a25d	-0.12659593
21	0xbe2eb3df	-0.17060803
22	0xbe5598ea	-0.20859113
23	0xbe2c9d7f	-0.16856955
24	0xbd197c9e	-0.03747236
25	0xbdb86f48	-0.090056
26	0xbc8f17ac	-0.017467342
27	0x3cbdc28f	0.023164062
28	0xbe866ced	-0.2625498
29	0x3b72b863	0.0037036173
30	0xbedd067a	-0.43169004
31	0x39957df6	0.00028513343
32	0xbd60c382	-0.05487395
33	0xbd3e1948	-0.04641083
34	0xbe02880d	-0.12747212
35	0xbe28f58f	-0.16499923
36	0xbe0e35e5	-0.13887747
37	0xbe0e914d	-0.13922615
38	0xbdb2d038	-0.08731121
39	0xbd95cc16	-0.07314317
40	0xba5a8831	-0.0008336334
41	0xbcb059bf	-0.02152717
42	0x3e716f7b	0.23577683
43	0x3ebb3baf	0.36568972
44	0xbde36d8b	-0.11104878
45	0xbd7b8714	-0.061408117
46	0x3d9c4c25	0.07631711
47	0xbde4f813	-0.11180129
48	0xbd1d1106	-0.038346313
49	0xbdc1dbc9	-0.09465749
50	0xbe7798d4	-0.24179393
51	0xbd0cb64d	-0.034353543
52	0x3e0a0d0c	0.1348154
53	0xbd137d76	-0.03600832
54	0xbe45a169	-0.19299854
55	0xbdee51d3	-0.116367005
56	0xbe2c0847	-0.16800033
57	0xbe0ef484	-0.13960463
58	0xbe8bc5ad	-0.27299252
59	0xbd009696	-0.03139361
60	0xbe5d1d22	-0.21593145
61	0xbdbafec0	-0.09130621
62	0xbd1630de	-0.036667697
63	0xbe7aaac4	-0.24479204
64	0xbd0a5745	-0.033774633
65	0xbd8d50fd	-0.06900213
66	0x3c354390	0.011063471
67	0xbe50a4f2	-0.20375422
68	0xbe2966d7	-0.16543137
69	0xbda80e4f	-0.08205854
70	0xbdc72039	-0.09722943
71	0xbe568281	-0.20948221
72	0xbec6d3a9	-0.3883336
73	0xbda8c51e	-0.08240722
74	0xbe0981fd	-0.13428493
75	0xbe003fde	-0.12524363
76	0xbd9e715e	-0.07736467
77	0xbda986df	-0.08277678
78	0x3eb18cc7	0.34677717
79	0xbdde1402	-0.1084366
80	0xbdae5acf	-0.08513414
81	0xbe075364	-0.13215405
82	0xbdb72fc0	-0.089446545
83	0x3de839aa	0.113391235
84	0xbd4c3820	-0.049858212
85	0xbe02240d	-0.12709065
86	0xbd64691b	-0.0557643
87	0xbdf56c94	-0.119836
88	0x3d6ccfe2	0.05781544
89	0x3d28ca96	0.041208826
90	0xbd3e7bb8	-0.046504706
91	0xbdb36ed0	-0.0876137
92	0xbe5189da	-0.20462742
93	0x3c8d7fdc	0.017272882
94	0xbe0a8f85	-0.13531311
95	0xbe6bddb3	-0.2303379
96	0xbe5ab0d1	-0.21356513
97	0xbc14288e	-0.009042872
98	0xbda9a16f	-0.08282744
99	0xbd96a60e	-0.07355891
100	0xbdbd7790	-0.0925132
101	0xbd8921e5	-0.06695918
102	0xbc70edcc	-0.014705133
103	0xbf030da5	-0.51192695
104	0xbe3aaf10	-0.18230844
105	0xbda42ee7	-0.080167584
106	0xbe6429d3	-0.2228158
107	0x3dc42d89	0.09578998
108	0xbe1c0c16	-0.15238985
109	0xbd98dece	-0.074643716
110	0xbd7b2ae4	-0.0613202
111	0xbe9e139e	-0.30874342
112	0xbe23215f	-0.15930699
113	0xbe2effa7	-0.17089711
114	0xbdd36f02	-0.103239074
115	0xbe1ed3ce	-0.15510485
116	0xbe3570e0	-0.1771884
117	0x3dbea778	0.09309286
118	0xbd22c6be	-0.039740317
119	0xbc65e4cb	-0.014031599
120	0xbe8a2f6c	-0.26989305
121	0xbdab5947	-0.08366638
122	0xbdd62c92	-0.1045772
123	0xbc7b1f2c	-0.015327256
124	0x3d2127e6	0.03934469
125	0xbe838145	-0.25684562
126	0x3d57d019	0.05268869
127	0xbd9a2c66	-0.075279996
128	0x3b01bb5c	0.0019795513
129	0xbe48dcc0	-0.1961546
130	0xbd96290e	-0.07332049
131	0xbd8480bd	-0.064698674
132	0xbd9ba366	-0.07599525
133	0xbe43fea9	-0.19140114
134	0xbe7adf1c	-0.24499172
135	0xbd70d97c	-0.05880116
136	0xbe72584b	-0.23666494
137	0xbe2e4bf7	-0.17021166
138	0xbed8b501	-0.42325595
139	0xbe14288e	-0.14468595
140	0xbdc9ea49	-0.098591395
141	0xbe9c3646	-0.30510157
142	0x3d84eee4	0.06490877
143	0xbea606c7	-0.32427046
144	0xbe076d2d	-0.13225241
145	0xbddaaf42	-0.10677959
146	0xbdf7de5c	-0.121029586
147	0x3d205f1e	0.03915321
148	0xbdf4b8e4	-0.119493276
149	0xbb5a1302	-0.003327549
150	0xbe222ff7	-0.1583861
151	0xbe68ce1b	-0.22734873
152	0xbdd9eb2a	-0.10640557
153	0xbdef591b	-0.116869174
154	0xbdc214d1	-0.09476627
155	0xbdf3362c	-0.11875567
156	0x3e66923a	0.22516719
157	0xbe7896bc	-0.2427625
158	0xbda2e91f	-0.079546206
159	0xbd9ce096	-0.07660024
160	0xbcd08742	-0.025455121
161	0x3e0dbfec	0.13842744
162	0xbdb9ec88	-0.09078318
163	0xbd488478	-0.048954457
164	0xbcc0df71	-0.023544045
165	0xbd9c997d	-0.07646463
166	0xbd36342f	-0.04448336
167	0x3e9314c5	0.28726783
168	0xbd9b20ee	-0.0757464
169	0xbd906abe	-0.070516095
170	0xbe82a5bd	-0.25517073
171	0xbc6c0e22	-0.014407666
172	0x3cc6d151	0.024269732
173	0xbd068a9d	-0.032847036
174	0xbd7cf70c	-0.06175904
175	0xbe5e6609	-0.21718611
176	0xbdda49b2	-0.106585875
177	0xbdb04638	-0.08607143
178	0xbebbcdc8	-0.36680436
179	0xbde62282	-0.112370506
180	0x3e165c9d	0.14683767
181	0xbe83aaac	-0.2571615
182	0xbea3db4e	-0.32003254
183	0xbe079ff5	-0.13244613
184	0xbddcddda	-0.10784502
185	0xbdb7c1d8	-0.0897252
186	0x3b8d80a4	0.0043183137
187	0xbe0edea5	-0.1395212
188	0xbd5d7952	-0.05407078
189	0xbe10cc66	-0.14140472
190	0x3d8c2f24	0.06844929
191	0xbdf1da84	-0.11809257
192	0xbd039e2d	-0.03213327
193	0xbe44b3e9	-0.19209255
194	0xbdbd2bc8	-0.09236866
195	0xbdf02824	-0.11726406
196	0xbdeff623	-0.11716869
197	0xbd39fa98	-0.045405
198	0xbd8b507d	-0.06802461
199	0xbdbf9368	-0.093542874
200	0xbe10886e	-0.14114544
201	0xbe66bd33	-0.22533111
202	0xbe12d3ee	-0.14338657
203	0xbe6dc083	-0.23217969
204	0xbd831ed5	-0.06402365
205	0xbe8cb64d	-0.27482834
206	0xbc04310c	-0.008068334
207	0xbdabfa37	-0.08397334
208	0xbd90cd2d	-0.07070384
209	0xbe8f229d	-0.27956095
210	0xbd99a2e6	-0.075017735
211	0xbe6531e3	-0.22382312
212	0xbd9ff98d	-0.0781127
213	0xbd9ed496	-0.07755391
214	0xbe801f0f	-0.25023696
215	0x3e802d82	0.2503472
216	0xbe98faee	-0.29878944
217	0xbe0152ad	-0.12629195
218	0x3d9a19a5	0.075244226
219	0xbd2d143f	-0.042255636
220	0xbb117a9d	-0.0022198327
221	0xbdde5b1a	-0.1085722
222	0xbda8611f	-0.082216494
223	0xbe1e0016	-0.1542972
224	0x3f1b6b25	0.60710365
225	0xbd682173	-0.056672525
226	0xbe9d87c6	-0.3076765
227	0xbe066ced	-0.1312749
228	0x3d934085	0.071900405
229	0xbdc6f861	-0.09715343
230	0xbe393360	-0.18086004
231	0xbd35820f	-0.044313487
232	0xbe3995d0	-0.18123555
233	0xbe86f4dd	-0.2635869
234	0xbd60a37a	-0.054843403
235	0xbe0eea5d	-0.1395659
236	0xbdc1a389	-0.0945502
237	0xbc1de716	-0.009637615
238	0x3d291596	0.04128035
239	0xbe64326b	-0.22284858
240	0x3d9e201d	0.07720969
241	0xbe8d8ded	-0.27647343
242	0xbd8e1385	-0.06937317
243	0xbd09c145	-0.03363158
244	0x3db02247	0.08600288
245	0xbd92bd46	-0.07165007
246	0x3e4bab80	0.19889641
247	0xbe3a1dbf	-0.1817541
248	0xbec86601	-0.39140323
249	0x3c88bac4	0.01669062
250	0xbe57a392	-0.21058491
251	0xbe3ca17f	-0.18420981
252	0xbaab0e47	-0.001305052
253	0xbd5fc59a	-0.054631807
254	0xbdfbea4c	-0.12300548
255	0xbc1c37d6	-0.009534797

fc2.bias f4 [300]
0	0x3e0b908c	0.13629359
1	0xbd158116	-0.03650006
2	0xbd219ddf	-0.0394572
3	0xbd0b84d5	-0.034062225
4	0x3e5810f1	0.21100213
5	0x3e58dff9	0.21179189
6	0x3efed7c0	0.4977398
7	0x3e789d6e	0.24278805
8	0x3f899411	1.0748311
9	0x3d8a7814	0.06761184
10	0x3d288e19	0.04115114
11	0x3e6e55ba	0.2327489
12	0x3ca82d8e	0.020529535
13	0x3cd7e9e1	0.02635664
14	0x3e121c55	0.1426862
15	0x3ccc3690	0.024928361
16	0x3f9d76da	1.2301896
17	0x3e2bf19e	0.16791388
18	0x3e2b1de6	0.16710624
19	0x3f26d640	0.6517067
20	0x3dbb0437	0.09131663
21	0xbca52b3f	-0.020162223
22	0x3d04cc84	0.032421604
23	0x3bf8ecab	0.0075965724
24	0x3d240d4e	0.04005175
25	0x3d21a806	0.03946688
26	0x3e054fc4	0.1301871
27	0x3e3bcc37	0.1833962
28	0x3ee1fab1	0.44136575
29	0x3e859614	0.26091063
30	0x3f330829	0.69934326
31	0x3cd52229	0.026017265
32	0xbd345930	-0.04403037
33	0xbc7a540c	-0.015278827
34	0xbd9625ee	-0.07331453
35	0x3e0b6a44	0.13614756
36	0x3d9723d5	0.07379881
37	0x3ec8dc83	0.39230737
38	0x3e24d3be	0.16096398
39	0xbd6608bb	-0.05616067
40	0xbd448379	-0.047976945
41	0xbc891f8d	-0.016738677
42	0x3c889544	0.016672738
43	0x3f15851e	0.58406246
44	0x3e75270b	0.23940675
45	0x3c8b8b14	0.017034091
46	0x3c597dc9	0.013274618
47	0xbc15962e	-0.009130044
48	0x3c580d09	0.013186702
49	0x3e1f1c75	0.15538199
50	0x3e9f9015	0.31164613
51	0x3e82c1dc	0.25538528
52	0xb9298ad7	-0.00016168818
53	0x3e7033db	0.23457281
54	0x3e1a2ad5	0.15055402
55	0xbd704124	-0.058655873
56	0x3e2e28b7	0.17007719
57	0xbd1289b6	-0.035775863
58	0xbc62337b	-0.013806219
59	0x3ea5e146	0.32398432
60	0x3d24cf0e	0.040236525
61	0x3b1bf3dd	0.0023796477
62	0xbcbd8fc8	-0.02313985
63	0xbb97663e	-0.0046203425
64	0x3f020c9c	0.5080049
65	0x3e52a3e1	0.20570327
66	0x3e504665	0.20339353
67	0x3cb181d7	0.021668358
68	0x3cdeeec1	0.027213456
69	0x3e476f20	0.19475985
70	0x3df394ec	0.11893639
71	0x3ea431c4	0.32069218
72	0x3e7fea83	0.24991803
73	0x3f6be85f	0.92151445
74	0xbcd71242	-0.026253823
75	0xbd9009de	-0.07033132
76	0x3c1155e5	0.0088705765
77	0xba932cfe	-0.0011228619
78	0x3f747422	0.95489705
79	0x3ebc4491	0.36771062
80	0x3df1fb53	0.118155144
81	0xbc8f080d	-0.017459894
82	0x3e628bc2	0.22123626
83	0xbceb4b9b	-0.028722575
84	0x3ecc3598	0.3988464
85	0x3f5932da	0.8484322
86	0xbd0576d5	-0.03258403
87	0x3db9b8f7	0.09068482
88	0xbc7e3cd4	-0.015517432
89	0x3e0459ac	0.12924832
90	0xbd4f32a1	-0.050585393
91	0x3e240fa6	0.16021594
92	0x3e47ef40	0.1952486
93	0x3d01d90c	0.031701133
94	0x3f261cc2	0.6488763
95	0x3e2508de	0.16116664
96	0xbd69867b	-0.057013016
97	0x3e6d8842	0.2319651
98	0xbd59778a	-0.053092517
99	0xbd4e26a9	-0.050329838
100	0x3bf52bbb	0.0074820197
101	0xbdaf0907	-0.08546644
102	0xbcc25b21	-0.023725094
103	0xbbf5f5fb	-0.00750613
104	0x3ecf40d9	0.40479162
105	0xbc0e00c5	-0.008667176
106	0xbee0c337	-0.43898937
107	0x3e8d82fc	0.27638996
108	0xbd5e408a	-0.054260768
109	0x3f20940f	0.6272592
110	0x3e67c222	0.2263265
111	0x3f00e0d9	0.5034309
112	0x3f17e7dd	0.5933817
113	0xbcbc1990	-0.022961408
114	0x3d73e5b2	0.059545226
115	0xbbc280a1	-0.005935744
116	0xbc21721f	-0.009853869
117	0x3f12723b	0.5720555
118	0x3f4badd8	0.7956214
119	0x3e2dcfbe	0.16973779
120	0x3e45aeb0	0.19304919
121	0x3ee03d14	0.437966
122	0x3c67dbea	0.014151553
123	0xbc9f8c2e	-0.019476023
124	0x3eb953e0	0.36196804
125	0x3e1605e5	0.14650686
126	0x3c5543c1	0.013016642
127	0x3e07d6a4	0.13265473
128	0x3f6d9f2b	0.92820996
129	0xbd3e3e00	-0.046445847
130	0x3e700433	0.23439102
131	0x3e2856f6	0.16439423
132	0x3b92410d	0.004463321
133	0x3e94a57d	0.29032508
134	0x3cc5f050	0.024162441
135	0xbd6eff43	-0.058348905
136	0xbd4f18d9	-0.050560806
137	0x3e3e7577	0.18599497
138	0xbc8c074d	-0.017093325
139	0xbd1ecbfe	-0.03876876
140	0x3b879c0c	0.0041384753
141	0x3e3620a7	0.17785893
142	0x3e18e445	0.14930828
143	0xbd38e220	-0.045137525
144	0x3d36b067	0.044601824
145	0x3e5fc715	0.21853288
146	0x3ec4df82	0.38451773
147	0x3e542c11	0.20719935
148	0x3ed40f29	0.41417816
149	0x3e44a75e	0.1920447
150	0x3ed16c24	0.40902817
151	0xbb1ac96e	-0.0023618597
152	0x3e1a2ad5	0.15055402
153	0xbcf04da4	-0.029333897
154	0x3c3ebfaf	0.011642381
155	0x3cddd711	0.02708009
156	0xbe27e4f2	-0.1639593
157	0xbda221e7	-0.079166226
158	0xbd9c9406	-0.07645421
159	0x3e1c276d	0.15249415
160	0xbd250687	-0.040289428
161	0xbc17e8b6	-0.009271791
162	0x3cfdb73b	0.03097116
163	0x3daf3a3e	0.08556031
164	0x3f2784af	0.65436834
165	0x3e160135	0.14648898
166	0xbd2a1c17	-0.041530695
167	0xbd1e8cb6	-0.03870841
168	0x3b23d9be	0.002500161
169	0x3c8d22e4	0.017228551
170	0x3c436268	0.011925317
171	0x3c0686b4	0.008210827
172	0x3f888593	1.0665764
173	0x3c89a9d4	0.016804613
174	0x3e446438	0.19178855
175	0x3f071994	0.52773404
176	0x3bb1eb4f	0.0054296623
177	0x3dd41e01	0.10357285
178	0x3c3b54ae	0.011433763
179	0x3b6ff6ea	0.0036615678
180	0xbd171756	-0.03688749
181	0x3e6601b2	0.22461584
182	0xbb416c11	-0.0029513875
183	0x3bd5ce09	0.0065248054
184	0x3e2ae8c6	0.16690359
185	0x3d253d36	0.04034158
186	0x3af87dbb	0.0018958369
187	0x3e1b899d	0.15189214
188	0x3e702373	0.23451023
189	0xbdada1a7	-0.08478098
190	0x3e82a814	0.25518858
191	0xbcc3bd09	-0.02389385
192	0x3e2c0076	0.16797051
193	0x3d0f3f84	0.034972683
194	0x3e62fb7a	0.22166243
195	0xbdd8166a	-0.1055115
196	0x3e196f7f	0.14983939
197	0xbdd72ff2	-0.10507192
198	0x3f0dd8f3	0.55409163
199	0xbd5fde9a	-0.05465565
200	0x3ef96bca	0.4871505
201	0x3c23887e	0.009981273
202	0xbd1a7766	-0.037711523
203	0xbeaf9b82	-0.3429833
204	0x3e78bd03	0.24290852
205	0x3e3afa0f	0.18259452
206	0xbce23c13	-0.027616536
207	0xbb8b7aad	-0.0042565675
208	0xbc817765	-0.015804002
209	0x3e4ac378	0.19801128
210	0xbcdd7182	-0.027031664
211	0xbcafb4e7	-0.021448566
212	0x3e435c28	0.19078124
213	0x3e27f3be	0.16401574
214	0x3e60ecea	0.21965376
215	0x3be74e82	0.0070589194
216	0x3e5a9709	0.21346678
217	0xbd59e8d2	-0.05320055
218	0x3f04329c	0.51639724
219	0x3e478a78	0.19486415
220	0xbcc17c79	-0.023618924
221	0xbcefc423	-0.02926833
222	0x3c76a2bb	0.015053446
223	0x39a1672e	0.00030785188
224	0xbcd189da	-0.025578428
225	0x3db8412f	0.08996808
226	0x3c169b1d	0.009192255
227	0xba271a8f	-0.0006374502
228	0xbd3cf6a8	-0.046133667
229	0x3e59d2f1	0.21271874
230	0xbc3fe188	-0.011711486
231	0xbc1b77a6	-0.009488976
232	0x3bd8f2b9	0.0066207317
233	0x3f1a5de1	0.602995
234	0x3b9fb8b5	0.0048743137
235	0x3b13b80d	0.0022540123
236	0x3c93333d	0.017968768
237	0xbd0d7bf5	-0.034542043
238	0xbc1377fe	-0.009000776
239	0x3ed7b76f	0.42132136
240	0xbd6fddeb	-0.058561247
241	0x3c8a6d0c	0.0168977
242	0x3e431b50	0.19053388
243	0xbb99891e	-0.004685535
244	0x3e53d239	0.20685662
245	0x3d9e9615	0.077434696
246	0x3dfe343b	0.12412306
247	0x3e7385d6	0.23781523
248	0xbd4444f9	-0.04791734
249	0x3e7575f3	0.23970775
250	0x3e89757c	0.26847446
251	0xbd256b4f	-0.04038554
252	0x3f8763f1	1.0577375
253	0xbd05af15	-0.032637674
254	0xbd9a8c7e	-0.07546328
255	0x3e5229a6	0.205237

fc3.weight f4 [1, 300]
0	0xbbb792f6	-0.005602236
1	0x3d18315d	0.03715645
2	0x3c26e316	0.010185977
3	0x3d04775c	0.032340392
4	0xba934b76	-0.0011237699
5	0x3d00768f	0.031363066
6	0xbda49042	-0.080353275
7	0x3e71509f	0.23565911
8	0xbe4e1c4e	-0.20127985
9	0x3d40a029	0.04702774
10	0x3cc974e8	0.024591878
11	0xba4028a0	-0.00073302723
12	0x3bb2eac7	0.0054601165
13	0x3acce018	0.001563075
14	0x3b47f581	0.0030511322
15	0x3ce27132	0.027641866
16	0xbe7be5ea	-0.24599424
17	0xbba978ce	-0.0051718717
18	0x3ada876a	0.0016672437
19	0xbc1b64d4	-0.0094844885
20	0xbd0012f3	-0.03126807
21	0x3c14e8bd	0.009088692
22	0x3cc972c1	0.024590852
23	0x3d14b5f5	0.03630634
24	0x3d23da86	0.040003322
25	0xba132b6e	-0.00056140765
26	0x3c4652c0	0.01210469
27	0xbca3f2bf	-0.020013211
28	0xbf3f1769	-0.74645096
29	0x3c495f39	0.012290769
30	0xbf02dff1	-0.5112296
31	0xbbb21c88	-0.00543553
32	0x3b55b441	0.003260866
33	0x3a188e55	0.0005819549
34	0xbcd0a29a	-0.02546816
35	0xbcbb9d58	-0.022902176
36	0x3c85dad4	0.016339697
37	0x40704354	3.7541094
38	0xbe04fe84	-0.12987715
39	0x3d1b13a5	0.03786053
40	0xbc1d6ade	-0.009607999
41	0x3cf3a38b	0.02974107
42	0x3b9ebb95	0.004844139
43	0xbe9fe8ca	-0.3123229
44	0xbd01430d	-0.031558085
45	0x3d430f98	0.047622293
46	0x3cf5c98b	0.03000333
47	0x3d0d3b1c	0.0344802
48	0x3be7076a	0.0070504444
49	0x3c30618f	0.010765447
50	0x3d0c763d	0.03429245
51	0xbc4490c1	-0.011997403
52	0xbfd24307	-1.6426705
53	0xbcc845f9	-0.024447428
54	0x3bb4a367	0.005512643
55	0xbcafef7e	-0.021476503
56	0xc00aa44b	-2.1662776
57	0x3d252756	0.040320717
58	0x3cd24f81	0.025672676
59	0x3c34d950	0.011038139
60	0x3d2ad606	0.041708015
61	0x3cb922f7	0.02259968
62	0x3c2e0e3e	0.010623513
63	0x3c1ab135	0.0094416635
64	0xba811b35	-0.0009850027
65	0xbd56da01	-0.052454
66	0xbf143b56	-0.5790304
67	0x3c346b27	0.011011875
68	0x3bc74040	0.0060806572
69	0xbc2274b7	-0.009915522
70	0xbfa5d7bc	-1.2956462
71	0xc07d997d	-3.9624932
72	0xbcdf2d42	-0.02724326
73	0xbdeda8d3	-0.11604466
74	0xbae0a82b	-0.0017139962
75	0xbb858d7d	-0.0040757046
76	0x3d23c186	0.03997948
77	0x3c48f4f8	0.012265436
78	0xbdf96198	-0.12176818
79	0xbf8c163d	-1.0944287
80	0xbcbae110	-0.022812396
81	0x3d40ccb0	0.047070205
82	0x3d1edad6	0.038782917
83	0x3cf437fb	0.02981185
84	0xba172a17	-0.0005766465
85	0xbd56eb85	-0.052470703
86	0x3c08f6ec	0.008359652
87	0x3a3b1c6f	0.0007137721
88	0xbbc03391	-0.005865522
89	0xbbdfd152	-0.006830373
90	0x3d2199f6	0.03945347
91	0xbc3afba0	-0.011412531
92	0xbd009c0f	-0.03139883
93	0x3c368637	0.011140398
94	0xbf04fa84	-0.51944757
95	0xbc955556	-0.018229168
96	0x3c82402c	0.01589974
97	0x3c58fc1a	0.013243699
98	0x3d04c70c	0.03241639
99	0x3c21915e	0.009861318
100	0x3d0a7684	0.03380443
101	0x3c346037	0.0110092675
102	0x3d1e33a5	0.03862347
103	0xbfc2e1d4	-1.5225167
104	0x402bcbaa	2.6843057
105	0x3d43d220	0.047807813
106	0xbf55b30e	-0.8347634
107	0x3cee2eab	0.029074987
108	0x3d35884f	0.044319447
109	0xbec0fd4f	-0.3769326
110	0xbc1a7b4e	-0.009428812
111	0xbeb8f77f	-0.36126325
112	0xbdbf07c5	-0.09327654
113	0x3c20d5de	0.009816615
114	0xbad43980	-0.0016191453
115	0x3cca4f10	0.024695903
116	0x3c4959c0	0.0122894645
117	0xbe38241d	-0.17982526
118	0xbd88b6c8	-0.06675488
119	0x3e7722db	0.2413439
120	0x3cbd59e0	0.023114145
121	0xbf2163f0	-0.6304312
122	0x3d1100bd	0.035401095
123	0x3d3a0bc7	0.045421388
124	0xbf3808e5	-0.7188857
125	0xbc2b2e4f	-0.010448053
126	0x3ca06f86	0.019584429
127	0xbc75306b	-0.014965157
128	0xbdc98d3f	-0.09841394
129	0x3d383577	0.044972863
130	0xbcf0595c	-0.029339485
131	0xbc9cc606	-0.019137394
132	0x3d40afc8	0.047042638
133	0x3ff21093	1.8911308
134	0xbb1e8036	-0.0024185306
135	0x3c81c0d4	0.015839018
136	0x3c9fd40e	0.019510295
137	0xbcddeb62	-0.027089778
138	0xbb0f3a0d	-0.002185467
139	0x3c930a9d	0.017949397
140	0x3c043bfc	0.008070942
141	0xbd005b9b	-0.03133736
142	0xbc03c2e5	-0.008042072
143	0x3c16fbfd	0.009215352
144	0x3cfc179c	0.030772977
145	0xbfe22db7	-1.7670201
146	0x3f8f32e9	1.1187412
147	0xbcad95ef	-0.021189658
148	0x3cf8777c	0.030330412
149	0xc0187d96	-2.3826652
150	0x4068900f	3.6337926
151	0x3c8df2b4	0.017327644
152	0xbc3f2d10	-0.011668459
153	0x3d4dee68	0.05027619
154	0x3d219b86	0.03945496
155	0x3d301757	0.04299101
156	0xbec0c9e1	-0.3765402
157	0xbcffff9c	-0.031249814
158	0x3c86331c	0.016381793
159	0x3bda925a	0.0066702785
160	0xbca19ea7	-0.019728972
161	0x3d2c220e	0.042024665
162	0x3d3b3c77	0.04571196
163	0xbb5134b2	-0.0031922278
164	0xbf238ebc	-0.6388967
165	0xbcdeaf7a	-0.027183283
166	0x3cdcf482	0.02697206
167	0xbbffbba4	-0.007804351
168	0xbbc9ea49	-0.006161962
169	0x3b24778e	0.0025095674
170	0x3ce8cd53	0.028418219
171	0xbbe74392	-0.0070576156
172	0xbf0d19be	-0.55117404
173	0x3d181795	0.037131865
174	0xbcb2c480	-0.021822214
175	0xbf39221a	-0.7231766
176	0x3f9e1531	1.2350217
177	0xbcbfec77	-0.023428185
178	0x3c438018	0.011932395
179	0x3d45c238	0.048280925
180	0x3ca93346	0.020654332
181	0x3c923f7e	0.017852541
182	0x3cdc61a1	0.026902022
183	0xbd0ebe9c	-0.034849748
184	0xbd0f9895	-0.035057623
185	0x3d1b754e	0.037953667
186	0x3c6b99ba	0.014379913
187	0xbc4e57e1	-0.012594194
188	0x3bb497af	0.005511246
189	0x3c9eee5e	0.019400772
190	0xbbc81719	-0.006106269
191	0x3ca6aad6	0.020345133
192	0x3ccd21b9	0.025040494
193	0x3d40c800	0.047065735
194	0xbcf58a44	-0.029973157
195	0x3c6129da	0.013742888
196	0xbf4ec6d2	-0.80772126
197	0x3b9a2495	0.004704068
198	0xbfb03988	-1.3767557
199	0x3d114e15	0.035474855
200	0xbef00b26	-0.46883506
201	0xb9f14b8c	-0.0004602339
202	0xbad9985a	-0.001660119
203	0x3e9faa58	0.3118465
204	0x3cae098f	0.021244792
205	0xb9df9f51	-0.00042652574
206	0x3cc1d588	0.02366139
207	0xbba01357	-0.004885118
208	0x3b687cda	0.0035474808
209	0x3c61045b	0.013733949
210	0x3c9343a5	0.017976591
211	0x3d14d6c5	0.036337633
212	0xbb823e9c	-0.003974749
213	0xbceedb53	-0.029157316
214	0x3bd1f0fa	0.0064069005
215	0x3c9969dd	0.018727237
216	0x3be04bfb	0.006844995
217	0xbc99f296	-0.018792432
218	0x3bda042a	0.0066533284
219	0x3bb2bbe7	0.0054545286
220	0x3cdb0d01	0.0267396
221	0xbcd86b92	-0.026418481
222	0x3d324b67	0.04352894
223	0x3b007562	0.0019601216
224	0x3c959885	0.018261204
225	0xbb28161f	-0.002564795
226	0xbb68cd53	-0.0035522773
227	0x3cabfee6	0.020995568
228	0xbc85986d	-0.016308034
229	0x3cc177c9	0.023616688
230	0xbc5b8dea	-0.013400534
231	0x3ca25bb6	0.019819122
232	0xbb72bddc	-0.0037039435
233	0xbdf05566	-0.117350385
234	0x3d2d40c6	0.0422981
235	0x3cfed52b	0.031107506
236	0x3c853aac	0.016263328
237	0xbb871356	-0.004122178
238	0x3b9b2345	0.004734429
239	0xbe4d7947	-0.20065795
240	0x3cf8b2db	0.030358722
241	0xc00e8ec5	-2.227464
242	0x3c605c63	0.013693902
243	0x3d4c6318	0.04989919
244	0xbc30df58	-0.010795437
245	0xbbee09f3	-0.0072643696
246	0x3c249b7f	0.010046839
247	0xbe7f2d4d	-0.24919625
248	0x3b3869cf	0.0028139239
249	0xbbd298f1	-0.0064269234
250	0x3cf3c524	0.02975709
251	0x3d2f8dd6	0.042859875
252	0xbf278afe	-0.6544646
253	0xbbbd3e87	-0.005775276
254	0x3c8438dd	0.016140396
255	0xbf7ac525	-0.9795707
