Char10 TD3/expTD3.pyPendulum-v0./critic_2_target.pth (torch_old, 491501 bytes, 5 tensors)

fc1.weight f4 [400, 4]
0	0xbf0c9ebd	-0.54929715
1	0xbe1d03b1	-0.1533344
2	0x3daba384	0.083807975
3	0x3cac27a4	0.021014996
4	0x3f7719f4	0.96523976
5	0xbf1b4aec	-0.60661197
6	0xbef3c79a	-0.4761322
7	0xbd898ba1	-0.06716085
8	0xbfb44422	-1.4083292
9	0xbef61578	-0.48063254
10	0xbe7a137b	-0.24421494
11	0xbd8f2319	-0.06989116
12	0x3f60cf46	0.87816274
13	0xbe80d63f	-0.25163457
14	0x3e716a4d	0.23575707
15	0x3ef92aa8	0.48665357
16	0xbef88134	-0.48536074
17	0xbd1a5cb3	-0.03768606
18	0xbdc1914a	-0.0945154
19	0x3f0e4700	0.5557709
20	0x3faae2b6	1.3350437
21	0x3f90586e	1.1276987
22	0x3eaecf0a	0.34142333
23	0x3d323155	0.043504078
24	0x3f0f596d	0.5599583
25	0xbf0fef5e	-0.5622462
26	0x3d204464	0.039127722
27	0x3e7e5913	0.24838667
28	0x3d6fef1b	0.058577638
29	0x3d49ca40	0.049265146
30	0xb9c5e561	-0.0003774567
31	0x3c61f2a3	0.013790759
32	0x3fa3a1eb	1.2783788
33	0x3f84fdf2	1.0389998
34	0xbdb9f096	-0.09079091
35	0x3d0d1c83	0.03445102
36	0xbf824b46	-1.0179222
37	0xbd2bc6f7	-0.041937795
38	0xbe21d687	-0.15804492
39	0x3ed595c2	0.4171582
40	0xbe0d236b	-0.13783042
41	0x3fe16b31	1.7610837
42	0x3e385ef2	0.18004969
43	0xbbb8ce8a	-0.0056398557
44	0x3f9fd033	1.2485412
45	0x3fc75891	1.5573903
46	0x3d8afe28	0.06786758
47	0x3c5a00a6	0.013305819
48	0x3f3bce31	0.733615
49	0x3ffe388b	1.9861006
50	0x3e36df48	0.17858613
51	0x3b88420a	0.004158263
52	0x3f1c1459	0.6096855
53	0x3ea8479a	0.32867128
54	0x3ea811c9	0.3282607
55	0x3ed2210b	0.41040835
56	0x3f587bf9	0.8456417
57	0x3dff1f63	0.124571584
58	0xbc21bc56	-0.009871563
59	0x3d3fd5cf	0.046834763
60	0x3f6153d3	0.8801853
61	0xbf832504	-1.0245671
62	0x3cc18e96	0.02362756
63	0xbd8a4724	-0.0675185
64	0xbf5bc9eb	-0.8585498
65	0x3f017de3	0.5058271
66	0xbd9e9e6a	-0.07745059
67	0x3f1546df	0.58311266
68	0x3e19c9f6	0.15018448
69	0xbe39efa7	-0.18157826
70	0xbdb4ddff	-0.08831405
71	0xbadf4bb9	-0.0017036117
72	0x3e8eaf37	0.27868053
73	0x3f053a98	0.5204253
74	0x3f1f0621	0.62118727
75	0x3dcdfc21	0.100578554
76	0xbf47e890	-0.7808924
77	0xbe58e00e	-0.2117922
78	0x3e919721	0.28435615
79	0x3bea3b3c	0.0071481746
80	0x3eedb5c2	0.46427733
81	0x3f33a19c	0.7016847
82	0x3ea5fd15	0.3241965
83	0x3da7940e	0.08182536
84	0xbf310c97	-0.69159836
85	0xbf8a9757	-1.0827435
86	0xbe2fe10c	-0.17175692
87	0x3e09b5b0	0.13448215
88	0x3f97ac9c	1.1849551
89	0x3eaaadf3	0.33335838
90	0xbd846bac	-0.06465849
91	0x3e6c1dba	0.23058215
92	0x3eae0866	0.33990782
93	0x3e8ade24	0.27122605
94	0x3eaee071	0.3415561
95	0x3d1a5861	0.03768194
96	0x3f041d48	0.5160718
97	0x3f98029a	1.1875794
98	0x3d5dfbc2	0.054195173
99	0xbc555290	-0.013020173
100	0xbe346a19	-0.17618598
101	0x3eabc4ac	0.33548486
102	0x3da4ecfb	0.08053013
103	0xbe08160e	-0.13289663
104	0xbefe548d	-0.49673882
105	0x3e8e480b	0.2778934
106	0xbd1a9a0a	-0.03774456
107	0x3d82afa9	0.06381161
108	0xbf5f07f7	-0.8712153
109	0xbe70658d	-0.23476239
110	0x3ea1f8b6	0.31635064
111	0x3e4d7690	0.20064759
112	0x3f4c01f9	0.7969051
113	0x3f44d0c7	0.7688107
114	0xbe11139b	-0.14167635
115	0x3ef6b058	0.48181415
116	0x3f8ab828	1.083745
117	0xbdd3231f	-0.10309433
118	0x3eb68e44	0.35655415
119	0xbeff9f22	-0.49926096
120	0x3f4950c8	0.7863889
121	0x3f9f8ae2	1.2464259
122	0x3dcb22c6	0.09918742
123	0xbda96939	-0.08272023
124	0x3f61e127	0.8823418
125	0xbf239396	-0.63897073
126	0xbf0cc929	-0.54994446
127	0xbd45781a	-0.04821024
128	0x3fa113a6	1.2584121
129	0xbf5d592d	-0.86464196
130	0xbec77cf6	-0.38962525
131	0xbdafcf26	-0.08584432
132	0x3e7cb473	0.24678211
133	0x3f72cc7a	0.94843256
134	0x3e655661	0.22396232
135	0x3d383804	0.044975296
136	0x3d2d1f2e	0.042266063
137	0xbea5f1ae	-0.3241095
138	0xbd19319d	-0.03740083
139	0x3da94796	0.08265607
140	0x3ea30d4d	0.31846085
141	0x3e82a95e	0.25519842
142	0x3f17d8f2	0.5931541
143	0x3d3b072f	0.045661148
144	0xbf0d6613	-0.5523388
145	0x3f37b117	0.7175459
146	0xbe22688a	-0.15860191
147	0x3d0ab1e3	0.033861052
148	0xbf1cb5d0	-0.61214924
149	0x3fb61302	1.4224551
150	0x3eb2bc81	0.34909442
151	0x3c124726	0.008928096
152	0x3fbd8441	1.4805986
153	0x3f87c563	1.0607113
154	0x3f12891f	0.5724048
155	0x3db04109	0.086061545
156	0x3f084eb2	0.5324508
157	0xbf7116e7	-0.9417557
158	0xbe97e161	-0.29664138
159	0x3e224ed9	0.1585039
160	0x3eca289a	0.39484102
161	0xbffa335e	-1.9546926
162	0xbe823efd	-0.2543868
163	0x3bfd978e	0.007739014
164	0x3fc97db7	1.574149
165	0x3f0e00bb	0.55469865
166	0x3c4599df	0.0120606115
167	0x3e30693b	0.17227642
168	0x3f2969e4	0.661772
169	0x3f4cb17d	0.79958326
170	0x3d21f733	0.03954239
171	0x3c87d070	0.016578883
172	0xbf408557	-0.7520346
173	0x3f451d47	0.769978
174	0x3f204512	0.6260539
175	0x3dc7d8a7	0.0975812
176	0xbeea9cb6	-0.45822686
177	0x3fa1f9b8	1.2654333
178	0x3f202942	0.62562954
179	0x3dc85b87	0.097830825
180	0x3f90dc64	1.1317258
181	0x3f3a698b	0.72817296
182	0x3eefd94b	0.4684547
183	0x3d9541ba	0.07287927
184	0x3f869588	1.0514383
185	0x3f1518ba	0.58240855
186	0xbe04a98d	-0.12955303
187	0x3f1f4c92	0.6222621
188	0xbf3c58ea	-0.7357317
189	0x3ed2928e	0.41127437
190	0x3e8ca07b	0.27466187
191	0x3e5d3b2b	0.21604602
192	0xbe35569a	-0.17708817
193	0xbfc0d870	-1.5066051
194	0xbdd1968c	-0.10233793
195	0x3f01b745	0.5067027
196	0x3f23b5d5	0.6394933
197	0x3ebc1496	0.36734456
198	0x3e4c6976	0.19962105
199	0x3cc03a7a	0.023465384
200	0xbf01ac39	-0.50653416
201	0x3ea89057	0.32922623
202	0x3cf5e72d	0.03001746
203	0x3f813d45	1.0096823
204	0x3fca7c0f	1.581911
205	0x3fc9e955	1.5774332
206	0xbe43423b	-0.19068234
207	0x3b16b4cf	0.0022995954
208	0xbf44b81e	-0.7684344
209	0xbef7cfba	-0.4840067
210	0x3e889fcd	0.26684418
211	0xbeb1bb09	-0.3471301
212	0x3e4ec478	0.20192134
213	0xbd86ac34	-0.06575814
214	0x3c20574e	0.00978644
215	0x3aedf732	0.0018155335
216	0x3f99f4a0	1.2027779
217	0xbd57b4b0	-0.05266255
218	0x3d9260ec	0.07147393
219	0x3e4c6eba	0.19964114
220	0xbe89dd82	-0.2692681
221	0xbef95530	-0.48697805
222	0xbe411b51	-0.18858077
223	0xbdb4f021	-0.088348635
224	0x3f78afef	0.97143453
225	0x3ec870f8	0.39148688
226	0xbcb609ac	-0.022221409
227	0x3cb7c722	0.022433821
228	0xbc6f4859	-0.014604651
229	0xbeb165db	-0.34648022
230	0x3e9b26eb	0.3030313
231	0xbf1fcca6	-0.62421644
232	0x3f212af1	0.6295615
233	0xbf00f3a8	-0.5037179
234	0xbf29b425	-0.66290504
235	0xbdbf1efb	-0.09332081
236	0x3fd1ef22	1.6401103
237	0xbf870166	-1.0547302
238	0xbec51cb2	-0.38498455
239	0xbd9f8f94	-0.07791057
240	0x3e9c6820	0.3054819
241	0xbf935860	-1.1511345
242	0x3df05735	0.117353834
243	0x3e0a80f6	0.13525757
244	0xbf4cc375	-0.79985744
245	0xbf1d1346	-0.61357534
246	0xbd2366e3	-0.039893042
247	0x3e78998b	0.24277322
248	0xbefbaa30	-0.4915328
249	0xbf00a227	-0.50247425
250	0x3d9df68a	0.07713039
251	0x3e29ae3e	0.16570374
252	0xbe177f3d	-0.14794631
253	0x3db62eb7	0.08895629
254	0xbac79ae1	-0.0015228653
255	0x3b438720	0.002983518

fc1.bias f4 [400]
0	0x3f3d7667	0.7400879
1	0xbfc1b394	-1.5132928
2	0xbf61a028	-0.88135004
3	0xbf6e23e5	-0.9302352
4	0xbf6d0cce	-0.92597663
5	0xbf1d0d4b	-0.6134841
6	0x3e6dd6c3	0.23226456
7	0xbe073745	-0.13204677
8	0xbf0fca94	-0.56168485
9	0xbfa013a1	-1.250599
10	0xbf10edf7	-0.56613106
11	0xbed2fab5	-0.412069
12	0xbf922565	-1.1417662
13	0xbf83cbb4	-1.029654
14	0xbf85a8d5	-1.0442148
15	0x3e586dc2	0.2113562
16	0xbfa02849	-1.2512294
17	0xbf61702b	-0.8806178
18	0xbf9bec3e	-1.218147
19	0xbf335d96	-0.70064676
20	0x3ec37c45	0.38180748
21	0xbde10e89	-0.109891005
22	0x3f21809f	0.63086885
23	0x3e9720f9	0.29517344
24	0xbf22fc4a	-0.6366621
25	0x3f21188f	0.629281
26	0xbe2d1360	-0.16901922
27	0xbf3e7127	-0.74391407
28	0xbf659f73	-0.89696425
29	0x3e6602e0	0.22462034
30	0x3eb9a708	0.36260247
31	0x3dfc658b	0.12324055
32	0xbf38671c	-0.7203233
33	0xbe069386	-0.13142213
34	0xbf5cafc2	-0.86205685
35	0x3e711e9a	0.2354683
36	0x3f21e62a	0.6324183
37	0xbf5857f6	-0.8450922
38	0xbfa4033b	-1.2813486
39	0xbf4c116b	-0.7971408
40	0x3e5f0c50	0.2178204
41	0x3e1577cd	0.14596482
42	0x3eb4af8f	0.3529019
43	0xbf52c5b0	-0.823329
44	0xbef88719	-0.4854057
45	0xbf970115	-1.1797205
46	0xbeccc78f	-0.39996
47	0xbd6bc3f4	-0.057559922
48	0xbf1e73b8	-0.6189532
49	0xbfa5b18d	-1.2944809
50	0xbf10ef9c	-0.56615615
51	0xbec4fcc4	-0.38474095
52	0xbf61e249	-0.8823591
53	0xbe85a67d	-0.26103583
54	0xbf00311b	-0.5007493
55	0xbf71ba5b	-0.9442498
56	0xbf4a24ec	-0.7896259
57	0xbf6ffee3	-0.937483
58	0xbeff5eaf	-0.49876925
59	0xbe99f68e	-0.3007092
60	0xbed33a56	-0.41255444
61	0x3f193815	0.598512
62	0x3f4fe29c	0.81205153
63	0xbe593c2a	-0.21214357
64	0xbff996b7	-1.949912
65	0xbf418381	-0.75591284
66	0x3ed624f1	0.4182506
67	0xbf279b1e	-0.65471065
68	0xbf7f670b	-0.99766606
69	0xbf944e7f	-1.1586455
70	0xbe858325	-0.26076618
71	0xbed014e6	-0.40640944
72	0x3d8c2f00	0.06844902
73	0x3ef60432	0.48050076
74	0x3f787de0	0.9706707
75	0xbf36dfd4	-0.71435285
76	0x3ed5148a	0.41617233
77	0xbe74f465	-0.23921354
78	0xbd6c658d	-0.057714034
79	0x3f167128	0.5876641
80	0x3f3f8ac3	0.7482111
81	0x3f1631f7	0.5866999
82	0xbf65dfa4	-0.89794374
83	0xbe9dbe76	-0.30809373
84	0xbfbd1e29	-1.4774829
85	0xbf6b7556	-0.91975915
86	0xbdf7efb6	-0.12106268
87	0xbf02165f	-0.50815386
88	0x3f71c726	0.944445
89	0xbe045ccd	-0.12926026
90	0x3e5bb37d	0.21455188
91	0xbeedfaa9	-0.464803
92	0xbf0dfee9	-0.5546709
93	0xbf0d9a37	-0.5531344
94	0x3f4556f4	0.77085805
95	0x3f003b62	0.5009061
96	0xbebb8f4a	-0.36632758
97	0x3f0f6828	0.56018305
98	0xbfcb0501	-1.5860902
99	0xbd9e2d66	-0.07723503
100	0x3f2928bc	0.6607778
101	0xbeab81e7	-0.33497545
102	0xbf5114aa	-0.81672156
103	0xbf85fed9	-1.0468398
104	0x3ea0c6ff	0.31401822
105	0x3f1e9eb7	0.6196093
106	0x3e2ed575	0.17073615
107	0x3f255eb5	0.64597636
108	0xbf9e7052	-1.2378027
109	0x3e520dd0	0.20513082
110	0xbf5f6a75	-0.87271816
111	0x3ecfe2b7	0.40602657
112	0xbf28837f	-0.6582565
113	0xbf2f8ab7	-0.6857104
114	0xbf9bb04e	-1.2163179
115	0xbf861155	-1.0474039
116	0xbedbdeef	-0.42943522
117	0x3f203752	0.6258441
118	0x3e6d5764	0.23177868
119	0xbf5a60f7	-0.85304207
120	0xbf6cd1be	-0.9250754
121	0xbf9e0bfc	-1.2347407
122	0xbf9356da	-1.151088
123	0xbf55eaf2	-0.83561623
124	0xbf249f70	-0.6430578
125	0x3f2d58b4	0.67713475
126	0x3f236736	0.6382936
127	0xbf8cb047	-1.0991296
128	0xbf95f51f	-1.171543
129	0xbf1211bf	-0.5705833
130	0x3f40e606	0.7535099
131	0xbefb0d17	-0.49033424
132	0xbf8b9e1b	-1.0907625
133	0xbf32183e	-0.6956824
134	0xbe8a0434	-0.26956332
135	0xbf8c44d4	-1.0958505
136	0xbebe6830	-0.37188864
137	0xbddb9af4	-0.10722914
138	0x3ebf0640	0.37309456
139	0xbe219347	-0.15778838
140	0x3f6e2384	0.9302294
141	0x3d091965	0.033471484
142	0xbf4fb37c	-0.81133246
143	0x3f0c22c5	0.54740554
144	0x3ebc8bd1	0.3682542
145	0xbf4898b0	-0.7835798
146	0x3edff9cc	0.43745267
147	0xbf524ccf	-0.8214845
148	0xbf201852	-0.6253711
149	0xbe6cdeec	-0.23131913
150	0x3eded0b5	0.43518606
151	0xbd05f101	-0.032700542
152	0xbcb1fe21	-0.021727623
153	0x3f519b9b	0.8187806
154	0xbf410361	-0.7539578
155	0xbfb2848a	-1.3946698
156	0x3f342588	0.7036977
157	0xbf6cb90b	-0.92469853
158	0xbf5bd7da	-0.8587624
159	0x3f3277d4	0.69714093
160	0x3f0ac6a0	0.5420933
161	0xbf397891	-0.72449595
162	0xbe08a035	-0.13342364
163	0x3dc8ee37	0.09811061
164	0x3ec3125c	0.38099945
165	0xbf92e764	-1.1476865
166	0x3f19bcda	0.6005379
167	0xbe6cc8db	-0.23123495
168	0xbfa410e7	-1.2817658
169	0xbfa1c85a	-1.2639267
170	0x3e88d643	0.2672597
171	0xbf87dd79	-1.0614463
172	0x3de99cc1	0.114068516
173	0x3e9a2eb6	0.30113763
174	0xbf0480bd	-0.5175894
175	0xbe44b7bb	-0.19210713
176	0xbf436272	-0.7632209
177	0x3c07d555	0.008290608
178	0xbf1dc966	-0.61635435
179	0xbe1b1637	-0.15145193
180	0xbe430eaf	-0.1904857
181	0x3ed1c257	0.40968582
182	0xbf8cdf2c	-1.1005607
183	0x3f0f653c	0.56013846
184	0xbe852405	-0.26004043
185	0x3d83227b	0.06403061
186	0xbfa23eb7	-1.2675389
187	0x3efeff77	0.4980428
188	0xbf4b89a3	-0.7950689
189	0xbd52a702	-0.051428802
190	0xbdaf2ab5	-0.085530676
191	0x3d892fa2	0.06698538
192	0xbe7fd3a8	-0.24983084
193	0x3eb80434	0.35940707
194	0xbe9a624e	-0.30153126
195	0x3dd7a498	0.10529441
196	0xbf871d93	-1.05559
197	0xbf1aafa4	-0.60424256
198	0xbf6bc6f7	-0.9210047
199	0xbf6dbc47	-0.92865413
200	0xbd03bb44	-0.032161012
201	0xbf7b54e7	-0.98176426
202	0xbfb7d16b	-1.4360784
203	0x3d353020	0.04423535
204	0xbfb96c0e	-1.4486101
205	0xbf79386d	-0.97351724
206	0xbebcedd9	-0.36900213
207	0xbf0e5b72	-0.55608284
208	0x3e2e1e56	0.1700376
209	0xbf0a730b	-0.5408179
210	0xbf52c81b	-0.82336587
211	0x3efd8b20	0.49520206
212	0x3e9054d3	0.28189716
213	0x3f887f8c	1.0663924
214	0x3e5ff32d	0.21870108
215	0x3f10fca8	0.5663552
216	0xbeeaa91f	-0.45832154
217	0xbfa9d725	-1.3268782
218	0xbe28403b	-0.16430752
219	0x3ea3534e	0.31899494
220	0xbf1e4960	-0.6183071
221	0xbd4236f4	-0.04741569
222	0x3f436868	0.76331186
223	0x3e8b7dd6	0.27244443
224	0x3f3ec0c9	0.74512917
225	0xbd9ac19e	-0.07556461
226	0xbf78a813	-0.9713146
227	0xbf925558	-1.1432295
228	0xbe557b0a	-0.20847717
229	0x3eacdc4d	0.33761826
230	0xbe941376	-0.28921098
231	0x3ed81fc5	0.42211738
232	0xbfb8f485	-1.4449621
233	0x3edb6f44	0.42858326
234	0xbe1af146	-0.15131101
235	0x3e892288	0.26784158
236	0xbf2adc8c	-0.6674278
237	0xbe325d11	-0.17418315
238	0xbee2828f	-0.44240233
239	0xbfeb01bc	-1.8359904
240	0x3f05cb17	0.52263016
241	0xbf966cef	-1.1751994
242	0x3e35f7b6	0.17770275
243	0x3f00d037	0.5031771
244	0xbec4e3be	-0.38455003
245	0x3f3eefca	0.7458464
246	0x3eba2df3	0.3636318
247	0xbfaa4685	-1.3302771
248	0x3e6f2349	0.23353304
249	0xbf0ff58d	-0.56234056
250	0xbeebe72b	-0.46074805
251	0xbf5aaceb	-0.854201
252	0xbf14efbe	-0.5817832
253	0xbe977a8e	-0.2958569
254	0xbfbdaba6	-1.4818008
255	0xbf831010	-1.0239277

fc2.weight f4 [300, 400]
0	0x3eb7530f	0.35805556
1	0xbf1523a3	-0.582575
2	0xbda3ee96	-0.08004491
3	0x3eebce6a	0.4605592
4	0x3ec407ed	0.38287297
5	0x3f01192d	0.5042904
6	0x3e04b88b	0.12961023
7	0xbd97cc95	-0.07412068
8	0x3eb1bd06	0.34714526
9	0xbde99a42	-0.114063755
10	0xbfcc437c	-1.5958095
11	0x3e7dac4e	0.2477276
12	0xbedd0cf9	-0.4317396
13	0x3f4c1c44	0.7973063
14	0x3f0ec8c5	0.557751
15	0x3e6f68aa	0.2337977
16	0x3f8df09b	1.1089052
17	0xbd2d1ff7	-0.042266812
18	0x3f13931c	0.57646346
19	0x3f44ae61	0.7682858
20	0x3d89a4f2	0.06720914
21	0xbfbe183e	-1.4851148
22	0x3e85b3d9	0.26113775
23	0x3d03a069	0.0321354
24	0x3f5e4e96	0.8683866
25	0x3e5eea96	0.21769175
26	0x3e37745c	0.17915481
27	0x3d8e34d3	0.06943669
28	0x3e942d31	0.28940728
29	0x3f269d64	0.6508391
30	0x3e5e6cc6	0.21721181
31	0x3dc145a3	0.0943711
32	0xbdfbec84	-0.12300971
33	0x3ee8ef72	0.45495182
34	0xbf8a35ad	-1.079763
35	0x3e3b8e8d	0.18316098
36	0x3f148ae9	0.5802446
37	0xbe646213	-0.22303037
38	0xbecc732d	-0.39931622
39	0xbf92b774	-1.1462235
40	0xbf560047	-0.83594173
41	0x3eb5dc80	0.3551979
42	0x3d89f91d	0.06736968
43	0x3ee98f0b	0.45616946
44	0x3e59a1cf	0.21253131
45	0x3f1c7076	0.611091
46	0x3e5bc69f	0.21462487
47	0xbebdf50e	-0.37101024
48	0xbf1e82e5	-0.6191848
49	0x3f09c785	0.5382007
50	0xbef046ae	-0.46928924
51	0x3f000ce4	0.5001967
52	0xbe1d89e3	-0.15384631
53	0xbbe26af3	-0.006909722
54	0x3ebe6c6d	0.37192097
55	0x3c752e0e	0.014964594
56	0xbdfbce8e	-0.122952566
57	0xbe481072	-0.19537523
58	0xbd394135	-0.045228202
59	0xbd842a28	-0.06453353
60	0xbea7e020	-0.3278818
61	0xbf03e02f	-0.5151395
62	0x3e87c3e5	0.26516643
63	0xbd12d006	-0.035842918
64	0xbf065947	-0.52479976
65	0x3d2b299e	0.041787736
66	0xbe45bb74	-0.19309789
67	0x3dc278d2	0.09495701
68	0x3c709487	0.014683849
69	0x3f1e8c0a	0.6193243
70	0xbe2717a2	-0.16317609
71	0xc0553a04	-3.331666
72	0x3e62bb2d	0.22141714
73	0x3e652032	0.22375563
74	0x3e21f9d5	0.1581796
75	0xbd9770f4	-0.07394591
76	0xbe1d76c9	-0.15377344
77	0xc0530dcc	-3.297717
78	0x3e4c0bfb	0.19926445
79	0x3e567610	0.20943475
80	0x3eceaca9	0.40366104
81	0x3f15dd13	0.5854046
82	0x3ee421e2	0.445571
83	0xbd87173c	-0.065962285
84	0xc17b6d2e	-15.714155
85	0x3ed85d81	0.42258838
86	0x3ea33760	0.31878185
87	0x3db26ec6	0.087125346
88	0x3f058ed4	0.52171063
89	0xbe9565bd	-0.29179183
90	0xbe7bf915	-0.24606736
91	0x3dda68fd	0.10664556
92	0x3dd0eb00	0.10201073
93	0x3f52f9d9	0.8241249
94	0xbdfea239	-0.12433285
95	0x3e5a3165	0.21307905
96	0x3ef9cb9c	0.48788154
97	0x3e576be3	0.2103725
98	0xbec9f1e6	-0.39442366
99	0xbc761eb4	-0.015021969
100	0x3ea6e476	0.32596177
101	0x3eabb0c6	0.33533305
102	0x3e103efe	0.1408653
103	0xbf11de09	-0.56979424
104	0xbd086f7f	-0.033309456
105	0xbde8db11	-0.113699086
106	0x3c23a606	0.009988314
107	0x3cee605e	0.029098686
108	0xbfe64bf2	-1.7991927
109	0x3e623b4e	0.22092935
110	0xbe1d75ff	-0.15377043
111	0xbe1b22e8	-0.15150034
112	0x3e70dd64	0.23521954
113	0xbebde427	-0.3708813
114	0xbdd9f5ba	-0.10642572
115	0x3dcfdd82	0.10149671
116	0x3ec51b38	0.3849733
117	0xbfd8f368	-1.6949282
118	0xbf665555	-0.89973956
119	0xbf989be7	-1.1922578
120	0x3eb2fa5c	0.34956634
121	0xbef0b727	-0.47014734
122	0x3e03885d	0.12844987
123	0x3be9a29b	0.00712998
124	0x3ea7fb52	0.3280893
125	0x3e57a3a2	0.21058515
126	0x3eaf0da2	0.3419009
127	0xbf401c94	-0.75043607
128	0x3f5682c4	0.8379328
129	0x3e214727	0.15749799
130	0x3f23bf5c	0.63963866
131	0x3f8ce3b8	1.1006994
132	0x3f17a450	0.59235096
133	0x3dc6aba1	0.09700704
134	0x3ee4ee86	0.4471323
135	0x3e812720	0.25225163
136	0xbd3da670	-0.046301305
137	0x3ed120c9	0.40845326
138	0x3e7ccfef	0.24688695
139	0x3dd5440a	0.10413368
140	0x3f3e84ff	0.74421686
141	0x3e2705ec	0.16310853
142	0x3e984b71	0.29745057
143	0xbecbe0d2	-0.39819962
144	0x3e120b7d	0.14262195
145	0xbf82be4a	-1.0214322
146	0xc0995b8d	-4.7924256
147	0xbf5fd573	-0.8743507
148	0xbe74e30c	-0.23914737
149	0x3d1c38c2	0.038140066
150	0x3f2f90ce	0.6858033
151	0x3e9f95e5	0.31169048
152	0x3e0c87fd	0.1372375
153	0xbcddd2d1	-0.027078064
154	0x3cb75d0f	0.022383241
155	0xbe6769a5	-0.22598894
156	0xbdeaafcc	-0.11459312
157	0xbf7fcfb2	-0.9992629
158	0xbf048a81	-0.5177384
159	0x3f10fc65	0.56635123
160	0xbeda03c5	-0.42581
161	0x3e93bdf0	0.28855848
162	0xbdb39838	-0.08769268
163	0xbfad4319	-1.3536102
164	0x3daab555	0.083353676
165	0xc020e90b	-2.5142238
166	0x3cab62fd	0.020921225
167	0xbf015695	-0.5052274
168	0xbdb4e034	-0.08831826
169	0x3f0e5386	0.55596197
170	0x3ead6ae5	0.33870617
171	0x3e648d0a	0.22319427
172	0xbe320702	-0.17385486
173	0x3dfd3181	0.12362958
174	0xbda5b8a7	-0.0809186
175	0xbff2a01e	-1.8955114
176	0xbf29db4d	-0.6635025
177	0x3ca8c8cf	0.020603565
178	0xbaf15b2b	-0.0018414011
179	0xbe303e63	-0.17211299
180	0x3f6b9db4	0.9203751
181	0x3ea313df	0.31851098
182	0x3c4b554f	0.012410476
183	0xbe653a52	-0.22385529
184	0xbe80e615	-0.2517554
185	0x3f8fa0f5	1.1220995
186	0x3de5fb86	0.11229615
187	0xbd29be0e	-0.041441016
188	0x3da20b2c	0.07912287
189	0xbe5a9fa2	-0.21349958
190	0x3da81680	0.082074165
191	0xc001f05d	-2.0302956
192	0xbeccb33e	-0.399805
193	0x3e754c8a	0.23954979
194	0xbdab05ae	-0.08350693
195	0xbd074191	-0.033021513
196	0xbe95f6ac	-0.29289758
197	0xc158c41c	-13.547878
198	0xc14757ca	-12.458933
199	0x3f8bdf15	1.0927454
200	0xc12cc4d6	-10.798056
201	0xbe97d2d2	-0.2965303
202	0xbf482566	-0.78182065
203	0x3e145f31	0.14489438
204	0x3f78fda4	0.97262025
205	0xbf5b7724	-0.8572867
206	0x3e73aa8a	0.23795524
207	0xbf070805	-0.5274661
208	0xc090d747	-4.526279
209	0xbfe6e649	-1.8039027
210	0x3f809991	1.0046865
211	0x3eb28d33	0.3487335
212	0x3d15ab19	0.036540125
213	0xbfd87625	-1.6911055
214	0x3db064e3	0.086129926
215	0xbe7ccfa4	-0.24688584
216	0x3e467af7	0.19382845
217	0x3efe7906	0.4970171
218	0xbdbd91ee	-0.092563495
219	0x3e212961	0.15738441
220	0xbf1ef5b3	-0.6209366
221	0xc03dc912	-2.9653974
222	0x3ec00285	0.37501922
223	0x3d50eefd	0.051009167
224	0xbad15071	-0.0015969408
225	0xbd834775	-0.06410114
226	0x3ed15556	0.4088542
227	0xbe2399ce	-0.1597664
228	0xbf8a9e16	-1.0829494
229	0xbdce78d3	-0.10081639
230	0xbe2fad17	-0.17155872
231	0x3e5f99a3	0.21835952
232	0xbedfffa5	-0.4374973
233	0x3f2fdcac	0.68696094
234	0x3d7ecb03	0.062205326
235	0x3da1bc44	0.07897237
236	0xbf85a883	-1.0442051
237	0xbdde0b25	-0.108419694
238	0xc0c3649d	-6.106032
239	0x3e146227	0.14490567
240	0xc0b505a9	-5.656941
241	0x3d64b18c	0.055833384
242	0xbe0d0193	-0.13770132
243	0xbd8587ea	-0.06520064
244	0x3ef699b3	0.48164138
245	0xbe19227c	-0.14954561
246	0xbd781e7a	-0.06057594
247	0xc1245dd4	-10.272907
248	0x3f010256	0.5039419
249	0xbcf56c94	-0.029959
250	0xbeb39b42	-0.3507939
251	0xc10fc9f5	-8.986806
252	0x3fc715b5	1.55535
253	0xbe84c4b4	-0.25931323
254	0xbf842a8b	-1.0325483
255	0x3dfa3ad9	0.122182555

fc2.bias f4 [300]
0	0x3ea3584f	0.31903312
1	0xbc4d00e9	-0.012512424
2	0x3d1d91ed	0.038469244
3	0x3e81aedc	0.2532872
4	0x3e45e498	0.19325483
5	0x3e5aa7cc	0.21353072
6	0x3f62a596	0.88533914
7	0xbc402e19	-0.011729741
8	0xbd4d1219	-0.050066087
9	0xbd98f95e	-0.07469438
10	0x3e412b38	0.18864143
11	0x3f9637a1	1.1735727
12	0x3eea46b3	0.45757064
13	0xbd00d675	-0.031454522
14	0x3eab6424	0.3347484
15	0x3e165405	0.14680488
16	0xbc4e8081	-0.01260388
17	0xbd210dda	-0.03931985
18	0x3d679fc2	0.05654884
19	0x3e9e6640	0.30937386
20	0xbc85e36d	-0.016343797
21	0x3cdc5841	0.026897551
22	0xbd374fc8	-0.04475382
23	0x3dd30ee9	0.10305578
24	0x3dd1d029	0.102447815
25	0xbd203a67	-0.039118197
26	0x3f89304f	1.0717868
27	0x3aa43396	0.0012527581
28	0x3d10534d	0.03523569
29	0x3e2180f6	0.15771851
30	0xbd1666c6	-0.036719106
31	0xbd0d43b5	-0.0344884
32	0x3f3fd774	0.7493813
33	0x3c598bd9	0.013277971
34	0x3d21b22e	0.039476566
35	0x3ec87834	0.39154208
36	0x3e369c17	0.17832981
37	0x3f04a7fb	0.5181882
38	0xbd7d3a3c	-0.061823115
39	0xbd196466	-0.037449263
40	0xbcc25d79	-0.023726212
41	0x3cccb6b0	0.024989456
42	0x3e13c48d	0.14430447
43	0x3f207ff9	0.6269527
44	0x3d176c7d	0.036968697
45	0x3e434008	0.19067395
46	0x3e671404	0.22566229
47	0x3f20174a	0.62535536
48	0x3f3bd67a	0.7337414
49	0x3e5abbc1	0.21360685
50	0xbd14d9e6	-0.036340617
51	0x3f4558ba	0.7708851
52	0x38b2ec57	8.531723e-05
53	0xbc659a93	-0.014013904
54	0x3c72840b	0.014801989
55	0x3dd474b9	0.103738256
56	0x3f408b85	0.7521289
57	0xbc4fa4b1	-0.012673543
58	0x3e9ad470	0.30240202
59	0x3e645fba	0.22302142
60	0x3f7f7758	0.9979148
61	0xbd94625e	-0.072453246
62	0xbd36f5f0	-0.044668138
63	0x3e99fa65	0.30073848
64	0xbd4f2d29	-0.050580177
65	0x3cd9fd21	0.02660996
66	0x3f01a4b4	0.5064194
67	0x3d8c236c	0.06842694
68	0xbcbf8940	-0.023380876
69	0x3f7d238a	0.98882353
70	0x3e6b0d1a	0.22954217
71	0x3d2e13b6	0.042499267
72	0xbc848bad	-0.016179884
73	0x3d25ac26	0.040447377
74	0xbb0d2f65	-0.0021543142
75	0xbd11088e	-0.03540855
76	0xbd370c98	-0.044689745
77	0xbbbbe6c8	-0.0057342984
78	0xbd4a1799	-0.04933891
79	0x3a53f179	0.00080849935
80	0x3e2f051e	0.17091796
81	0x3d1d3f1d	0.038390268
82	0x3fada2e2	1.3565333
83	0x3e3cf387	0.18452273
84	0x3e5fb789	0.21847357
85	0x3e2ca86e	0.16861126
86	0x3e73c5eb	0.23805968
87	0xbd8ca5e5	-0.06867579
88	0xbc7fe2b4	-0.015618015
89	0xbcf2138c	-0.029550336
90	0xbc98bf8e	-0.018646028
91	0x3d9c1e0d	0.07622919
92	0xbca43527	-0.020044876
93	0xbc5a8062	-0.013336273
94	0x3f1039e8	0.5633836
95	0xbcf42924	-0.029804774
96	0xbcb70400	-0.022340775
97	0x3f83e835	1.0305239
98	0x3ee20523	0.44144544
99	0xbd5b127a	-0.053484417
100	0x3e19477d	0.14968677
101	0x3b5644c9	0.0032694808
102	0xbcd0ca72	-0.025487158
103	0x3f0270da	0.5095345
104	0xbd0a30fd	-0.033738125
105	0x3c9fb8b5	0.019497255
106	0x38a6e88e	7.9588135e-05
107	0x3df1406a	0.11779864
108	0x3e604fe2	0.21905473
109	0xbc5952d2	-0.013264375
110	0x3ecbf85d	0.39837924
111	0x3e16de4d	0.14733239
112	0xbd9eddf6	-0.077571794
113	0x3eca9a27	0.39570734
114	0x3ecb79ca	0.39741355
115	0xbd326148	-0.043549806
116	0x3f1229b3	0.5709488
117	0x3f7ee855	0.9957326
118	0x3eb83d47	0.3598425
119	0x3e86011c	0.2617272
120	0xbcabce77	-0.020972474
121	0x3e6d4daa	0.23174158
122	0x3ea13905	0.31488815
123	0x3f12a839	0.5728794
124	0xbd9a14f6	-0.07523529
125	0xbd179136	-0.03700372
126	0x3e72feb3	0.23729973
127	0x3a9d342d	0.0011993699
128	0xbda6208f	-0.08111679
129	0xbc893a1d	-0.016751343
130	0x3d9264fd	0.07148168
131	0x3dacbf16	0.08434884
132	0x3e749742	0.23885825
133	0x3c14512d	0.009052557
134	0x3e2eccde	0.17070338
135	0x3cab70b6	0.020927768
136	0x3db20ce7	0.08693867
137	0x3e70f0eb	0.23529403
138	0xbc8349cd	-0.016026402
139	0xbbeff7b3	-0.007323229
140	0x3e145c1d	0.14488263
141	0xbcb54a98	-0.022130296
142	0x3dc3d7d8	0.09562653
143	0x3cd1dd71	0.025618287
144	0x3c9ac64d	0.018893385
145	0x3eb3c72b	0.3511289
146	0xbb2c252f	-0.002626728
147	0xbd522872	-0.051308103
148	0x3d415630	0.047201335
149	0xbd2fa79f	-0.042884465
150	0x3e242d30	0.16032863
151	0x3ecfd0a0	0.40588856
152	0xbd49bdc1	-0.04925323
153	0xbce3a75b	-0.027789762
154	0xbd37ab30	-0.04484099
155	0xbd97f216	-0.07419221
156	0x3cc6be90	0.02426079
157	0x3df52963	0.119707845
158	0x3e42cf88	0.1902448
159	0xbbbde8d8	-0.0057955794
160	0x3e42a3c8	0.1900779
161	0xbd03ac05	-0.032146472
162	0xba8bc28d	-0.0010662839
163	0x3cba23ff	0.022722242
164	0xbd5ac45a	-0.05340991
165	0x3e764c03	0.24052434
166	0xbd2d3c17	-0.042293634
167	0xbc8a1285	-0.016854534
168	0x3f27d03d	0.6555212
169	0x3e2bf586	0.16792879
170	0xbd55f9ca	-0.05224017
171	0xbd50a682	-0.050940044
172	0x3c8941ec	0.016755067
173	0xbccfd2c9	-0.025369065
174	0x3c8073d2	0.015680227
175	0x3e37eabb	0.17960636
176	0x3cd79711	0.026317151
177	0x3dca84f8	0.09888643
178	0xbd276c97	-0.040875044
179	0x3f51d02f	0.8195829
180	0x3df4f82b	0.11961397
181	0x3df69c7b	0.12041565
182	0x3e5f7cf1	0.21825005
183	0xbcba7090	-0.022758752
184	0x3e2fe556	0.17177328
185	0x3ec5bb30	0.38619375
186	0xbd96100e	-0.07327281
187	0x3dc40f10	0.095731854
188	0xbd8c3230	-0.0684551
189	0x3ddebd89	0.10875995
190	0xbd81b6ad	-0.06333671
191	0xbdddb798	-0.10826033
192	0x3f1913e6	0.5979599
193	0x3ef69c7b	0.4816626
194	0x3e454f60	0.1926856
195	0x3f037e79	0.51364857
196	0xbc9ce9f6	-0.01915453
197	0x3f00cc9e	0.5031222
198	0x3d6aa46a	0.057285704
199	0x3f9e6a92	1.2376273
200	0x3f1f2b16	0.6217512
201	0x3dd3acb9	0.103356786
202	0xbb62ddcb	-0.0034617062
203	0xbd2ff10f	-0.0429545
204	0x3eb0137d	0.34389868
205	0x3e409470	0.18806624
206	0x3e5900c9	0.21191706
207	0x3eac491e	0.33649534
208	0xbd18a5c6	-0.03726747
209	0xbd9e873e	-0.07740639
210	0x3e2c077e	0.16799733
211	0x3d6368da	0.055519916
212	0x3ebfd625	0.37468067
213	0xba60d89b	-0.00085771986
214	0x3f007a76	0.5018686
215	0xbd269e57	-0.04067835
216	0x3c295fce	0.010337783
217	0x3c0a7bfc	0.008452412
218	0xbc4bc869	-0.012437918
219	0xbcc367e1	-0.023853244
220	0x3e1c771d	0.15279813
221	0x3f9d39d0	1.2283268
222	0x3d12c8fd	0.03583621
223	0xbd207c07	-0.03918078
224	0x3dc52918	0.09626979
225	0xbcd35d09	-0.025801199
226	0x3e8fd7dc	0.28094375
227	0x3e165e2d	0.14684363
228	0x3ceff6ea	0.029292542
229	0x3e3a2337	0.18177496
230	0x3d083f54	0.03326352
231	0x3df2426b	0.118290745
232	0x3b98987d	0.00465685
233	0x3f047558	0.5174155
234	0xbcb139f8	-0.021634087
235	0x3e5445d9	0.2072977
236	0x3c820fbc	0.015876643
237	0x3cfed143	0.031105643
238	0x3f1ec71d	0.6202257
239	0x3edf5d22	0.43625742
240	0x3ebfaf30	0.37438345
241	0x3ba4e5b6	0.0050322665
242	0x3e05fd34	0.1308487
243	0x3edaf196	0.4276244
244	0x3d04b6a4	0.032400742
245	0xbc8d7105	-0.017265806
246	0x3e4dd7c0	0.20101833
247	0xbd5408ea	-0.051766314
248	0xbc076305	-0.008263354
249	0xbd11c7f6	-0.03559109
250	0xbd9c77e6	-0.07640056
251	0xbd14990e	-0.036278777
252	0x3e6e943a	0.23298731
253	0xbd972ec6	-0.07381968
254	0x3d7a5c77	0.061123338
255	0x3e33c3f7	0.17555223

fc3.weight f4 [1, 300]
0	0x4033f567	2.8118532
1	0x3d035bc4	0.032069936
2	0x3d1772bd	0.036974657
3	0x39dc81a9	0.00042058274
4	0xbaf8cbdb	-0.0018981652
5	0x400ed11e	2.2315135
6	0xbe3d4845	-0.184846
7	0x3d38700f	0.045028742
8	0xba90af7e	-0.0011038629
9	0xbc8b2585	-0.016985664
10	0x3cb1c440	0.021700025
11	0xbe51fea2	-0.20507291
12	0xbfd72367	-1.6807679
13	0x3cad1cd6	0.021131914
14	0xbf23cf78	-0.6398845
15	0x3ca68b96	0.020330232
16	0x3b5f2189	0.0034047088
17	0x3d683220	0.056688428
18	0x3d009d9f	0.03140032
19	0xbf2d6c47	-0.67743343
20	0x3cd85999	0.026409911
21	0x3ce69a0a	0.028149623
22	0x3ca66ac6	0.020314585
23	0x3cf4cadc	0.029881887
24	0xbcf028ec	-0.029316388
25	0x3cf1373b	0.029445281
26	0xbe9e592b	-0.30927405
27	0x3ccd97b0	0.025096744
28	0x3cafa47e	0.02144074
29	0x3b3f9430	0.0029232614
30	0x3d30faaf	0.04320782
31	0x3d3aff87	0.045653846
32	0xbe270bfc	-0.16313165
33	0x3b910e05	0.00442672
34	0x3d189c65	0.037258524
35	0xbf8badef	-1.0912455
36	0xbbf39fa4	-0.007434802
37	0x3b7045a0	0.0036662593
38	0x3ca3102e	0.019905176
39	0x3cfd2523	0.030901497
40	0x3d252756	0.040320717
41	0x3cd1e159	0.02562015
42	0xbcdc0702	-0.02685881
43	0xbe127419	-0.143021
44	0x3b94c8b5	0.0045405277
45	0xbb607dfb	-0.0034254778
46	0xbfb68323	-1.425877
47	0xbe3c7260	-0.18403006
48	0xbe62a21e	-0.22132155
49	0x3cb60870	0.02222082
50	0x3c844c64	0.016149707
51	0xbc7e423c	-0.015518721
52	0x3ce72c23	0.028219288
53	0x3d16b73d	0.036795843
54	0x3d4360d8	0.04769978
55	0xbced0ff3	-0.02893827
56	0xbf889db2	-1.0673125
57	0x3d377547	0.04478958
58	0xc07b87d9	-3.9301665
59	0xbc818e0c	-0.015814804
60	0xbdc455d6	-0.095866844
61	0x3bc55b18	0.006022822
62	0xbc07d065	-0.008289431
63	0x3bdb0532	0.006683969
64	0x3c8bed84	0.01708103
65	0x3d15d705	0.03658201
66	0xbcdacb62	-0.026708309
67	0xbde5eef2	-0.11227216
68	0x3d4e6b68	0.0503954
69	0xbee1813d	-0.44043913
70	0x3cdc92da	0.026925493
71	0x3ba99f16	0.005176435
72	0x3d0b72dc	0.034045085
73	0x3c879d9c	0.016554646
74	0x3d4ca580	0.04996252
75	0x3b8e5c2c	0.004344484
76	0x3d079d9c	0.033109292
77	0x3d17ca3d	0.037058104
78	0x3c9b547d	0.018961186
79	0xbb80eac5	-0.0039342367
80	0xbcd83352	-0.026391659
81	0x3d3b7fa7	0.045776036
82	0xbebc0b1e	-0.36727232
83	0xbcdcd3b2	-0.026956413
84	0xbcfc3ac4	-0.03078974
85	0x3cc46e61	0.023978414
86	0xbc999fc5	-0.018752942
87	0xbc730a6c	-0.014834028
88	0x3b8f193c	0.004367022
89	0x3cd0a29a	0.02546816
90	0x3d0b7e94	0.03405626
91	0xbbea0c12	-0.007142552
92	0x3d218286	0.039431117
93	0x3cde1b09	0.0271125
94	0xbe349b44	-0.17637354
95	0x3cac30e6	0.02101941
96	0x3c7da15b	0.015480365
97	0xbed5764f	-0.41691825
98	0xc00605a4	-2.0940943
99	0x3c6b40aa	0.014358679
100	0x379906a5	1.8242115e-05
101	0x3d0873ac	0.03331344
102	0x3d1c771d	0.038199533
103	0xbcd4e717	-0.025989098
104	0x3d23dffe	0.040008537
105	0x3d21e9a6	0.039529465
106	0xbba8530f	-0.0051368545
107	0xc027d0a7	-2.6221101
108	0x3ba17477	0.004927214
109	0xbb5e4152	-0.0033913446
110	0x3fc0e746	1.5070579
111	0xbd282687	-0.041052368
112	0x3cc040d9	0.023468422
113	0x3fa7e18e	1.3115709
114	0x408a0a15	4.3137307
115	0x3bfa892b	0.007645746
116	0xbec3a4c8	-0.38211656
117	0xbe678479	-0.22609128
118	0x3c9cadce	0.019125845
119	0x3ceef38b	0.029168865
120	0x3d27383e	0.04082512
121	0x3ce58003	0.028015142
122	0xbde68cf6	-0.11257355
123	0x3a652eb2	0.0008742615
124	0xbca565d7	-0.020190163
125	0x3d019064	0.031631842
126	0xbc49c8b1	-0.012315915
127	0x3cef2eea	0.029197175
128	0xbcaf740f	-0.021417646
129	0x3d18d3dd	0.037311424
130	0x3c11c4d6	0.008897027
131	0x3c20a24e	0.009804321
132	0xbe9de315	-0.30837312
133	0xbbbcdb50	-0.005763449
134	0x3ccd0981	0.025028946
135	0xbcf3bafc	-0.029752247
136	0xbd09a13d	-0.033601034
137	0xbcdb9f1a	-0.026809264
138	0x3d00ec55	0.031475384
139	0x3caf3656	0.021388214
140	0x3ced0373	0.028932309
141	0xbc4acb49	-0.0123775685
142	0xbff031bd	-1.8765179
143	0x3ccc9f40	0.02497828
144	0x3d16b4e5	0.03679361
145	0xbf241489	-0.64093834
146	0x3c6e78e2	0.014555188
147	0x3b56c291	0.003276978
148	0x3ba253e6	0.004953849
149	0x3cf8871b	0.03033786
150	0xbe8d3c06	-0.27584857
151	0xbfba9a72	-1.4578383
152	0x3b3f302f	0.0029173007
153	0x3c523361	0.0128296325
154	0x3d2cd816	0.042198263
155	0xbc9a1fe6	-0.018814038
156	0x3c0143d4	0.007889707
157	0xbf04caf4	-0.5187218
158	0x3bc3f6d9	0.0059803543
159	0x3b80d5ac	0.0039317217
160	0x3cca1479	0.024667965
161	0xbd0ac012	-0.03387458
162	0x3c1b673e	0.009485064
163	0x3c801162	0.015633289
164	0x3bb00497	0.005371641
165	0x3cd7ed02	0.026358131
166	0x3d346a5f	0.044046756
167	0x3c876ad4	0.016530432
168	0xbea8d092	-0.32971627
169	0xbbf604eb	-0.0075079105
170	0x3cfc241b	0.030778935
171	0x3bab5a0e	0.005229241
172	0x3ca4fb96	0.020139497
173	0x3ca2725e	0.019829925
174	0x3bc48ff8	0.0059986077
175	0x3ee8643a	0.45388967
176	0xb9c74f19	-0.0003801517
177	0x3d34dba8	0.044154793
178	0x3d2b5496	0.041828714
179	0xbd435e65	-0.047697444
180	0x3cc43df1	0.023955317
181	0xbc6f6fc3	-0.014614048
182	0x3bf27d04	0.007400157
183	0x3b88627c	0.004162131
184	0x3c2a150f	0.010380997
185	0xbcf5513c	-0.029945962
186	0x3c4b25e9	0.012399175
187	0xbcd6659a	-0.026171494
188	0xbeb7d42a	-0.35904056
189	0xbc9c3a2e	-0.019070711
190	0xbc20173f	-0.009771167
191	0xbf555f90	-0.8334894
192	0xbef58f02	-0.4796067
193	0x3b325e27	0.0027216764
194	0x3cbd5d00	0.023115635
195	0xbf838a97	-1.0276669
196	0x3d2c0396	0.041995607
197	0xbe890aab	-0.26765952
198	0xbfdef051	-1.7417089
199	0xbe58341f	-0.21113633
200	0xbf64a110	-0.8930826
201	0xbcdb014a	-0.026734013
202	0x3bc5a2f8	0.0060313903
203	0x3adab4b9	0.001668594
204	0x408b73c7	4.357883
205	0xbbf368f3	-0.0074282824
206	0xbce4245b	-0.027849367
207	0xbc0f9895	-0.008764406
208	0x3cbc34e7	0.022974445
209	0x3ca5d4c7	0.020243062
210	0xbceca03b	-0.028884998
211	0x3c9c3005	0.019065866
212	0xbe92eef8	-0.28697944
213	0x3c8e914c	0.017403267
214	0x3ba13aa6	0.0049203215
215	0x3d336250	0.04379493
216	0xbb8abb44	-0.0042337496
217	0x3c0d780c	0.008634578
218	0x3d409dd0	0.0470255
219	0x3d1c3965	0.038140673
220	0xbcce9ca1	-0.02522117
221	0xbe6b4535	-0.22975619
222	0x3ca3f12e	0.020012464
223	0x3aa3742e	0.0012470537
224	0x3c01aa2c	0.007914107
225	0xbf88281b	-1.0637239
226	0xbab63fe7	-0.0013904542
227	0x3cce50d9	0.025185036
228	0x3d3a2eef	0.045454916
229	0x3ba009f7	0.0048840004
230	0x3c5be0b9	0.013420277
231	0x3bbe5958	0.0058089904
232	0x3c7e136b	0.015507559
233	0xbe1ac18f	-0.15112899
234	0xbc1ba10e	-0.009498848
235	0x3c4979c9	0.012297102
236	0x3c40dea8	0.011771835
237	0x3a7e6ed3	0.0009705845
238	0xbe6bfe08	-0.23046124
239	0xbf4f14be	-0.80891025
240	0xbd8bcbfc	-0.06826016
241	0x3d442748	0.047889024
242	0xbcccafa9	-0.024986105
243	0xbeaf0065	-0.34179989
244	0x3ccc1a70	0.02491495
245	0x3d0180c4	0.03161694
246	0x3c93f8e6	0.01806302
247	0x3a5a1a09	0.00083199196
248	0x3d14df5d	0.03634583
249	0x3cd05221	0.025429787
250	0xbce5df53	-0.02806059
251	0x3d183f6d	0.037169863
252	0x3cfe136c	0.03101512
253	0xbecedd78	-0.40403342
254	0xbf6a9b18	-0.91642904
255	0x3cf301d4	0.029663958
