Char10 TD3/expTD3.pyPendulum-v0./critic_2.pth (torch_old, 491501 bytes, 5 tensors)

fc1.weight f4 [400, 4]
000000 7d ed 0c bf 89 5d 20 be ac 3e b3 3d da 6e aa 3c
       -0.5504988 -0.15660681 0.08752188 0.020804811
000010 56 f9 77 3f e9 2b 1c bf 07 5c f2 be 41 ad 86 bd
       0.9686483 -0.610045 -0.47335836 -0.06576014
000020 e5 1d b5 bf ad 5f f5 be 86 cc 7c be 9a 7e a7 bd
       -1.4149748 -0.47924557 -0.24687394 -0.08178444
000030 61 05 62 3f c0 f7 7f be 53 54 76 3e e5 1f f6 3e
       0.8828946 -0.24996853 0.24055605 0.4807121
000040 b5 1c f7 be 78 65 00 bd 59 cb ce bd 4f 82 0b 3f
       -0.4826409 -0.03134677 -0.10097379 0.5449571
000050 e9 f4 aa 3f 7a ba 90 3f aa 22 ac 3e 5b f8 1f 3d
       1.3355991 1.1306908 0.33620197 0.03905521
000060 9e 3a 0f 3f 93 23 10 bf 5c c2 f5 3c e8 93 7f 3e
       0.5594882 -0.5630428 0.029999904 0.24958766
000070 50 ef 6f 3d 31 ca 49 3d 98 e5 c5 b9 00 f3 61 3c
       0.058577836 0.04926509 -0.0003774583 0.013790846
000080 ce e0 a3 3f 96 15 84 3f cd 4c b2 bd 1f a3 27 3d
       1.280298 1.0319088 -0.08706055 0.04092705
000090 3e 43 81 bf d4 80 37 bd 60 1a 1a be a5 27 d7 3e
       -1.0098646 -0.044800594 -0.15049124 0.42022434
0000a0 57 ec 12 be a7 45 e2 3f 57 5b 33 3e 80 59 c4 bb
       -0.14347969 1.7677506 0.17515312 -0.0059921145
0000b0 bf 82 a0 3f 0e 16 c7 3f 5e ba 79 3d 88 50 8f 3b
       1.25399 1.5553606 0.06096875 0.0043736137
0000c0 02 54 3d 3f 3c cc fe 3f 2d 1b 2e 3e 5c 22 a4 3a
       0.7395631 1.9906077 0.17002554 0.0012522447
0000d0 87 d3 1b 3f 0f 6c a6 3e 38 6c a8 3e 4e 23 d3 3e
       0.6086964 0.32504317 0.32895064 0.41237873
0000e0 c0 7b 58 3f fb 1e ff 3d 08 bc 21 bc 88 d5 3f 3d
       0.8456383 0.12457081 -0.00987149 0.0468345
0000f0 d3 e2 61 3f 08 fc 82 bf 26 14 8f 3c ba 1c 85 bd
       0.8823673 -1.0233164 0.017465662 -0.0649962
000100 b3 be 5d bf 5f f5 00 3f fe be 9c bd 9f d5 14 3f
       -0.8661911 0.50374407 -0.07653616 0.5813846
000110 2d ca 19 3e 4c ef 39 be c7 dd b4 bd e6 4a df ba
       0.1501853 -0.18157691 -0.08831363 -0.0017035871
000120 a0 f9 91 3e 2e 34 05 3f 68 73 1f 3f ec ba d6 3d
       0.2851076 0.52032745 0.6228547 0.10484871
000130 7c db 46 bf 03 a1 50 be c9 7e 91 3e 39 82 62 3c
       -0.77678657 -0.20373921 0.28417042 0.013824993
000140 07 1f ee 3e b4 b0 32 3f e4 5e a6 3e ae 82 ad 3d
       0.46508047 0.6980088 0.3249427 0.08472191
000150 75 80 31 bf 5e 5d 8a bf 07 97 32 be bf 7e 04 3e
       -0.69336635 -1.0809743 -0.17440425 0.12938975
000160 0b c3 98 3f 8d 15 a9 3e d6 3f 89 bd 2e e6 66 3e
       1.1934522 0.33024254 -0.06701629 0.22548744
000170 94 94 af 3e cc 44 8d 3e 74 02 af 3e 77 d3 36 3d
       0.34293044 0.2759155 0.3418156 0.044635262
000180 c3 2f 05 3f 4d b3 98 3f 5a 59 31 3d 14 f2 c1 bc
       0.52026004 1.1929718 0.043298103 -0.023675002
000190 21 f0 36 be 46 a6 ac 3e 0e 25 a8 3d 39 58 08 be
       -0.1786504 0.33720607 0.082101926 -0.13314904
0001a0 7f 04 00 bf 53 45 8f 3e ec 94 23 bd da d7 72 3d
       -0.5000686 0.27982578 -0.039936945 0.059287883
0001b0 5f ef 5e bf 06 4b 62 be b6 33 a1 3e 1f 6e 4f 3e
       -0.87084 -0.22098932 0.31484765 0.20256852
0001c0 0e 11 4b 3f 5e 4c 45 3f fd f0 14 be e7 ad f3 3e
       0.793229 0.7706965 -0.14545055 0.47593614
0001d0 63 be 89 3f 6a 5f e6 bd 8a f0 b7 3e ab 92 01 bf
       1.0761226 -0.112486675 0.35925704 -0.5061442
0001e0 a6 53 47 3f 3a b7 9f 3f d3 aa d1 3d 64 24 b6 bd
       0.7786201 1.2477791 0.1023766 -0.0889366
0001f0 67 ca 60 3f 8d 72 29 bf e1 5e 0b bf 98 e6 19 bd
       0.8780884 -0.66190416 -0.5444165 -0.037573427
000200 d5 67 a1 3f 46 25 5c bf 77 85 c7 be 81 0e ae bd
       1.2609812 -0.85994375 -0.38969013 -0.0849886
000210 d6 a5 7b 3e d4 35 74 3f a2 7b 65 3e 54 6b 36 3d
       0.2457498 0.95394635 0.22410443 0.04453595
000220 07 1f 2d 3d 2d f1 a5 be 6e 31 19 bd e4 46 a9 3d
       0.042265918 -0.32410565 -0.037400655 0.082654744
000230 47 2b a5 3e 2b 99 86 3e 13 f4 16 3f e3 4a 51 3d
       0.3225958 0.26288733 0.5896618 0.05109681
000240 d1 56 0d bf 29 ba 37 3f c5 a0 23 be ec 9d 04 3d
       -0.55210596 0.7176843 -0.15979297 0.03237717
000250 13 35 18 bf 77 a6 b4 3f 2a a7 b3 3e c3 19 d5 3c
       -0.59455985 1.4113301 0.35088474 0.02601326
000260 5d b3 bd 3f 1c 27 88 3f 70 04 12 3f 3e e5 b1 3d
       1.4820362 1.0636935 0.5703802 0.086863026
000270 34 c9 08 3f 9a a2 6f bf d7 0e 98 be 49 8c 23 3e
       0.5343201 -0.93607485 -0.29698822 0.15971483
000280 b6 91 c7 3e 2e cd fa bf 0e 50 82 be 50 10 c2 3b
       0.38978356 -1.9593866 -0.25451702 0.0059223548
000290 03 22 ca 3f 79 b8 09 3f c5 97 50 3c 52 5c 32 3e
       1.579163 0.5379711 0.012731497 0.1741803
0002a0 42 f8 28 3f dd 81 4b 3f 86 29 2b 3d 6f 3d c5 3c
       0.6600381 0.7949503 0.041787647 0.024077145
0002b0 6b 70 3e bf 93 a2 45 3f 08 88 1f 3f f7 18 dd 3d
       -0.74390286 0.77201194 0.6231694 0.10795777
0002c0 88 e2 e9 be 07 49 a1 3f 07 82 20 3f ec 47 e2 3d
       -0.45680642 1.2600411 0.62698406 0.11048874
0002d0 4d d5 91 3f f3 b7 39 3f c2 c3 ee 3e 89 2e 8e 3d
       1.1393219 0.7254631 0.46633726 0.069424696
0002e0 04 7e 86 3f c5 44 15 3f ab e2 04 be cd 33 20 3f
       1.0507207 0.5830806 -0.12977092 0.6257904
0002f0 14 6d 3b bf 35 09 d4 3e 07 79 8e 3e 28 93 62 3e
       -0.73213315 0.41413274 0.27826712 0.22126448
000300 36 3f 34 be 6b 01 c0 bf b5 f4 e6 bd 89 7b fd 3e
       -0.17602238 -1.5000433 -0.11277143 0.49508312
000310 f6 bb 23 3f 9a 55 bb 3e 3f 6b 4a 3e 30 ed 91 3c
       0.6395868 0.36588746 0.19767474 0.017813295
000320 5a f7 01 bf 27 be ae 3e 9a bf f6 3c 20 45 80 3f
       -0.50768054 0.3412945 0.03012066 1.0021095
000330 5d 24 cb 3f bb 79 c9 3f f1 b2 42 be 20 a3 f7 39
       1.5870472 1.5740274 -0.19013573 0.0004723305
000340 71 00 43 bf 11 e3 f5 be 19 57 88 3e 39 f9 ae be
       -0.7617255 -0.480248 0.2662895 -0.34174517
000350 0d c4 4e 3e 06 ac 86 bd dc 56 20 3c b0 f6 ed 3a
       0.20191975 -0.065757796 0.009786334 0.0018155184
000360 58 76 9a 3f af 1e 6f bd 96 9c 8c 3d 92 ce 48 3e
       1.2067366 -0.05837887 0.06865804 0.1961005
000370 ee 03 8c be 1d c3 f2 be 8f e5 49 be ef 2b c0 bd
       -0.27346748 -0.47414485 -0.19716476 -0.0938338
000380 a6 b2 79 3f 5f 2a c6 3e c8 14 ad bc 9e 6d d2 3c
       0.9753822 0.38704202 -0.021128073 0.025687035
000390 64 81 d1 bc 76 39 ac be 27 a3 97 3e 8c 63 22 bf
       -0.025574394 -0.3363759 0.29616663 -0.63433146
0003a0 9a 22 23 3f 11 4b f7 be fe 8c 28 bf f8 5f ba bd
       0.6372467 -0.4829946 -0.65840137 -0.09100336
0003b0 34 a6 d2 3f 8e 3a 84 bf c4 06 c6 be 2c 60 9e bd
       1.6456971 -1.033037 -0.38677037 -0.07733187
0003c0 be 78 98 3e 6e 1c 94 bf 80 85 ea 3d 05 4e 0a 3e
       0.2977962 -1.1571176 0.11451244 0.13506325
0003d0 1b e5 4b bf cd 56 1c bf a7 e6 30 bd 9e 70 78 3e
       -0.7964646 -0.6106995 -0.043188717 0.2426171
0003e0 e2 2f fb be c5 35 00 bf 82 e6 99 3d f4 62 28 3e
       -0.4905997 -0.50082046 0.07514669 0.16443998
0003f0 f6 7e 17 be 7d 2e b6 3d dd 9a c7 ba 81 86 43 3b
       -0.14794526 0.08895586 -0.0015228648 0.002983481

fc1.bias f4 [400]
000000 e2 6e 3c 3f 5e 1e c2 bf 03 4d 60 bf 53 99 6d bf
       0.73606694 -1.5165517 -0.8761751 -0.9281208
000010 eb 7a 6f bf d0 83 1d bf ba 38 6f 3e c8 37 07 be
       -0.9354693 -0.61529255 0.23361483 -0.13204873
000020 93 1b 11 bf 3f 53 a1 bf bf 5e 0f bf 35 f7 d4 be
       -0.566827 -1.260353 -0.56003946 -0.41594854
000030 52 9a 91 bf d1 8d 83 bf 6d a9 85 bf 49 6f 55 3e
       -1.137522 -1.0277654 -1.044233 0.20843233
000040 10 11 a0 bf 4a 70 61 bf 7b a0 9b bf 2b 1e 34 bf
       -1.2505207 -0.88061965 -1.215835 -0.7035853
000050 79 4e c3 3e 3b 72 d9 bd 55 8e 1f 3f f5 cc 93 3e
       0.38145807 -0.10617491 0.62326556 0.28867307
000060 40 d7 21 bf 28 75 20 3f c1 93 2a be b6 bd 3e bf
       -0.6321907 0.62678766 -0.16657926 -0.74508226
000070 1c e9 65 bf 94 fd 71 3e 81 38 ba 3e 68 88 08 3e
       -0.8980882 0.23631889 0.36371234 0.13333285
000080 65 ad 38 bf 91 cb 06 be 2e b0 5c bf 86 e2 6e 3e
       -0.7213958 -0.13163592 -0.8620633 0.233286
000090 28 ab 21 3f 2c 9e 5c bf b2 3e a4 bf 59 39 4d bf
       0.6315179 -0.8617885 -1.2831633 -0.8016563
0000a0 14 10 63 3e a5 e7 11 3e d0 8f b3 3e 8e 92 54 bf
       0.22174102 0.14248522 0.35070658 -0.83036125
0000b0 45 03 f8 be 38 21 97 bf f1 95 cc be 8a 1f 74 bd
       -0.48439994 -1.1807013 -0.39958146 -0.05960039
0000c0 01 cb 1f bf 1d e8 a5 bf 54 b5 11 bf 5a e3 c4 be
       -0.62419134 -1.296146 -0.5691731 -0.38454705
0000d0 cb de 63 bf 2b a7 85 be 46 07 00 bf 11 21 70 bf
       -0.8901183 -0.26104102 -0.500111 -0.93800455
0000e0 2d b8 49 bf 27 e7 6d bf 70 a4 02 bf 72 e0 9f be
       -0.78796655 -0.92930835 -0.5103216 -0.31225926
0000f0 59 4a d1 be 78 25 19 3f 55 8b 4f 3f dc 3c 59 be
       -0.40877035 0.598228 0.8107198 -0.21214622
000100 b3 4d f9 bf 8c 83 41 bf b6 cc d8 3e a1 b8 24 bf
       -1.9476837 -0.7559135 0.42343682 -0.6434422
000110 06 4f 7f bf 4c fc 93 bf e3 d4 8d be 90 39 cf be
       -0.99729955 -1.156137 -0.27701482 -0.40473604
000120 9c b7 96 3d a1 cb f5 3e a3 76 78 3f da c9 36 bf
       0.073592395 0.4800692 0.97056025 -0.7140175
000130 bc 43 d4 3e 52 d4 73 be b6 49 7a bd d3 ee 15 3f
       0.41457927 -0.23811463 -0.061105452 0.5856754
000140 fb 0f 3f 3f 8f f1 1a 3f 03 4e 65 bf 92 be 9d be
       0.7463376 0.6052484 -0.8957216 -0.30809456
000150 d2 58 bd bf 05 f1 6b bf d2 71 f4 bd 52 c3 03 bf
       -1.4792731 -0.9216464 -0.11935772 -0.5146991
000160 2b 0f 74 3f 01 5d 04 be 7e 7f 59 3e 5d 75 e9 be
       0.95335644 -0.12926103 0.2124004 -0.45597354
000170 9e b5 0e bf d9 54 0d bf 83 3b 45 3f d3 93 00 3f
       -0.55745876 -0.5520759 0.7704393 0.5022556
000180 ea c4 bc be bc c9 0e 3f 8d ba ca bf 85 2d 9e bd
       -0.36868984 0.5577657 -1.5838181 -0.07723526
000190 48 0f 28 3f fd 81 ab be 10 15 51 bf ea 6b 85 bf
       0.6564832 -0.3349761 -0.81672764 -1.0423558
0001a0 98 e7 9d 3e d6 14 1e 3f 85 dd 28 3e de f2 24 3f
       0.30840755 0.61750543 0.16490753 0.64433086
0001b0 3a 47 9e bf fa d0 51 3e 88 93 5f bf 77 12 ce 3e
       -1.2365487 0.20489874 -0.8733449 0.40248463
0001c0 f0 83 28 bf 3e 8b 2f bf ef 64 9b bf 74 06 86 bf
       -0.6582632 -0.6857184 -1.2140177 -1.0470719
0001d0 ec fb d9 be 50 f5 1f 3f ac 0d 6d 3e f8 cc 58 bf
       -0.42575014 0.6248369 0.23149747 -0.8468776
0001e0 02 f2 6c bf 8d 0a 9e bf b3 93 91 bf a1 eb 55 bf
       -0.92556775 -1.234697 -1.1373199 -0.83562666
0001f0 c1 62 26 bf 45 7c 2b 3f c4 a7 22 3f 82 d9 8c bf
       -0.64994437 0.66986495 0.6353724 -1.1003878
000200 41 93 95 bf 9b c4 12 bf 0f 1e 40 3f c9 48 fa be
       -1.1685563 -0.57331246 0.75045866 -0.48883656
000210 0e 97 8b bf ed b6 34 bf de bb 88 be 84 6c 8c bf
       -1.0905473 -0.7059162 -0.2670583 -1.0970616
000220 6b 68 be be 23 18 e5 bd 81 f1 be 3e e6 c9 20 be
       -0.3718904 -0.11186244 0.37293628 -0.15702018
000230 97 55 6e 3f 95 4c f2 3c bb 50 4d bf 66 74 0b 3f
       0.9309935 0.029577533 -0.8020131 0.54474485
000240 b6 d7 be 3e 4c 77 49 bf 9b 7c df 3e 57 34 51 bf
       0.3727395 -0.7869766 0.43649754 -0.8172049
000250 8c 37 1e bf 35 30 6b be 46 74 dd 3e 4f 7a 25 bd
       -0.6180351 -0.22967608 0.43252772 -0.040399846
000260 1e ae 0c bc bc 0b 51 3f 82 03 41 bf fe 70 b2 bf
       -0.008586435 0.8165853 -0.7539598 -1.3940732
000270 59 d9 33 3f e3 a4 6c bf ef 14 58 bf 82 f2 31 3f
       0.7025352 -0.924391 -0.8440694 0.6951066
000280 5c e8 09 3f 0b 76 37 bf ba a0 08 be 6a 71 c8 3d
       0.5387018 -0.71664494 -0.13342562 0.09787257
000290 3b 52 be 3e fd e2 92 bf d8 31 19 3f 84 c9 6c be
       0.37172112 -1.1475521 0.5984168 -0.23123747
0002a0 1c 95 a4 bf 9a 36 a2 bf be 14 86 3e 7d 65 88 bf
       -1.2858005 -1.2672913 0.261877 -1.0655972
0002b0 05 32 f4 3d 54 93 9a 3e fd 80 04 bf df 61 43 be
       0.11923603 0.30190527 -0.5175932 -0.19080304
0002c0 bd eb 42 bf d6 5f a5 3c c3 c9 1d bf 23 45 17 be
       -0.7614096 0.0201873 -0.6163599 -0.14772467
0002d0 d9 27 45 be 00 d0 cf 3e e0 3a 8d bf 6d c0 0e 3f
       -0.19253482 0.4058838 -1.1033592 0.5576237
0002e0 b6 24 85 be 0b 87 72 3d 8c 59 a3 bf 67 f8 fd 3e
       -0.2600457 0.05921082 -1.2761703 0.49603578
0002f0 f7 d3 4c bf 1f a7 52 bd ce 26 c3 bd c6 ce 7a 3d
       -0.8001093 -0.05142891 -0.09528886 0.06123235
000300 96 09 82 be 7c 72 b7 3e c7 62 9a be 81 3a e0 3d
       -0.25397938 0.35829532 -0.30153486 0.10948659
000310 47 10 88 bf 02 0f 1b bf 85 18 6c bf 99 13 6d bf
       -1.0629967 -0.60569775 -0.92224914 -0.9260803
000320 f1 45 23 bd e7 46 7d bf 8b b5 b7 bf 55 0e 0d 3d
       -0.039861623 -0.98936313 -1.4352278 0.034437496
000330 09 63 b9 bf 99 1e 77 bf 8e 91 bb be e0 64 0c bf
       -1.4483348 -0.96531063 -0.36634487 -0.54841423
000340 8a 4e 2d 3e 02 59 0a bf 52 90 53 bf 3c 61 fc 3e
       0.16924492 -0.54042065 -0.8264209 0.49292934
000350 75 8b 8e 3e f5 8d 88 3f 66 13 5a 3e 4e df 10 3f
       0.27840772 1.0668322 0.21296462 0.56590736
000360 55 5f eb be cc ac a9 bf 5a 45 30 be e9 ab a1 3e
       -0.4597117 -1.3255858 -0.17213956 0.3157647
000370 09 1d 1d bf 90 fb 34 bd 02 61 43 3f 9b ed 8d 3e
       -0.6137243 -0.04418522 0.763199 0.2772034
000380 30 53 3e 3f b9 c1 9a bd 48 c6 7a bf cf 7a 92 bf
       0.74345684 -0.07556481 -0.97958803 -1.1443728
000390 06 32 4d be 7a 1f ab 3e b9 13 94 be e2 5f d8 3e
       -0.20038614 0.33422452 -0.28921297 0.42260653
0003a0 15 83 b8 bf c6 11 d5 3e 89 f1 1a be 76 1e 89 3e
       -1.4415003 0.41615123 -0.15131201 0.26781052
0003b0 98 e0 2a bf 79 94 47 be 65 df e1 be 19 2b eb bf
       -0.6674895 -0.19490232 -0.4411575 -1.8372527
0003c0 23 b0 04 3f c8 aa 96 bf 2d 64 2c 3e 4d fc 00 3f
       0.51831263 -1.1770868 0.16835089 0.5038498
0003d0 5d dd ba be 8b c8 3e 3f 15 d9 b9 3e c2 74 aa bf
       -0.36497012 0.74524754 0.36298433 -1.3316882
0003e0 a6 89 71 3e a6 f5 0f bf e7 ab e6 be 5a 23 5b bf
       0.23587665 -0.56234205 -0.45053026 -0.8560082
0003f0 05 7b 14 bf cb 7a 97 be 30 21 bf bf 46 72 83 bf
       -0.5800021 -0.2958587 -1.4932003 -1.0269248

fc2.weight f4 [300, 400]
000000 15 f5 b7 3e 10 7b 15 bf 95 31 ad bd 63 c8 ec 3e
       0.3592917 -0.58390903 -0.08456723 0.46246633
000010 51 79 c3 3e 35 15 01 3f f3 17 04 3e 48 cc 97 bd
       0.38178495 0.50422984 0.12899761 -0.074120104
000020 63 3f b1 3e 8e 38 e4 bd 3d fc cc bf 7c 14 7d 3e
       0.34618673 -0.111435995 -1.6014477 0.24714845
000030 a6 6e df be 96 65 4c 3f f1 c8 0e 3f 45 d8 6f 3e
       -0.43639106 0.7984251 0.5577536 0.23422344
000040 e7 f7 8d 3f 82 20 2d bd 23 a6 15 3f 88 e1 46 3f
       1.1091279 -0.04226733 0.5845663 0.77687883
000050 6b a5 8a 3d 1d cb bd bf 7c 59 85 3e 98 78 07 3d
       0.06769832 -1.482761 0.26044834 0.03307399
000060 02 b0 5d 3f dd 1f 5e 3e e9 16 35 3e 11 9c 90 3d
       0.8659669 0.21691842 0.17684521 0.07061017
000070 5e 36 94 3e 10 d2 26 3f f1 6a 5d 3e 02 36 be 3d
       0.2894773 0.6516428 0.21622826 0.09287645
000080 0f b1 fe bd 0b 75 e9 3e 65 36 8a bf a6 ca 3d 3e
       -0.12436115 0.4559711 -1.079785 0.18534335
000090 c4 14 14 3f b4 62 64 be 60 52 cb be 6c 44 93 bf
       0.57844186 -0.22303277 -0.39711285 -1.1505256
0000a0 a9 28 56 bf ec aa b5 3e 96 14 88 3d f6 3b ed 3e
       -0.8365579 0.35481966 0.066445515 0.4633481
0000b0 90 cb 60 3e 99 af 1c 3f 07 b7 5b 3e 87 04 bb be
       0.21952653 0.6120544 0.21456538 -0.36526892
0000c0 5d 55 1e bf 1c c8 09 3f 32 f7 f0 be 95 87 ff 3e
       -0.61849004 0.5382097 -0.47063595 0.49908128
0000d0 8a 71 0b be ea 6a e2 bb a4 f9 bd 3e 22 4f 4d 3c
       -0.1361753 -0.006909718 0.37104523 0.012531074
0000e0 b2 c2 fa bd ce 77 3a be 0d 2a 41 bd f2 bb 86 bd
       -0.122441664 -0.18209764 -0.047159243 -0.065788165
0000f0 f7 fb a5 be 3d a6 03 bf 21 f0 87 3e 94 d0 12 bd
       -0.32418796 -0.51425534 0.2655039 -0.035843447
000100 a8 3f 03 bf d8 28 2b 3d 73 2e 45 be 03 ee bb 3d
       -0.51269007 0.041787 -0.19256 0.091762565
000110 c0 6f c6 3c ed 60 1f 3f 72 52 28 be 08 2b 55 c0
       0.024223208 0.6225727 -0.164377 -3.3307514
000120 9d 41 62 3e cf 6c 64 3e 58 6b 23 3e 92 44 95 bd
       0.22095342 0.22307132 0.15958917 -0.072884694
000130 5f f5 1c be 4b 03 53 c0 26 08 4c 3e 4d fb 55 3e
       -0.15327977 -3.297076 0.19924983 0.20896645
000140 c5 26 cf 3e b4 f1 15 3f c4 43 e3 3e a0 16 87 bd
       0.40459266 0.58571935 0.4438764 -0.06596112
000150 53 86 7b c1 b7 5c d8 3e 92 e3 a2 3e ac 88 b0 3d
       -15.720294 0.42258236 0.31814247 0.08619818
000160 52 7c 05 3f 2d 65 95 be 31 13 7c be 2e e9 da 3d
       0.5214282 -0.29178753 -0.24616696 0.10689007
000170 25 65 d6 3d a8 3b 54 3f a1 d5 fd bd d8 2c 5a 3e
       0.104685105 0.8290353 -0.12394262 0.21306169
000180 a1 e5 fb 3e f0 84 56 3e 02 10 cc be 47 1f 76 bc
       0.4919863 0.20949149 -0.39855963 -0.015022106
000190 f2 9e a6 3e 3c b0 ab 3e 5a 3f 10 3e 23 3e 12 bf
       0.3254314 0.33532894 0.14086667 -0.57126063
0001a0 56 a5 09 bd 57 a6 ea bd 9e 5c 38 3c 01 d0 e9 3c
       -0.033604942 -0.11457508 0.01125255 0.028541567
0001b0 5d 6c e6 bf 2d 6e 60 3e c5 bb 1f be ab ce 1b be
       -1.800182 0.21917029 -0.15598972 -0.15215556
0001c0 ad dd 70 3e 8a e3 bd be 84 d3 d4 bd 7b e1 ca 3d
       0.23522063 -0.3708766 -0.10391906 0.09906288
0001d0 ea 55 c4 3e 03 50 d8 bf 8b e1 66 bf 1d 8b 99 bf
       0.38346797 -1.6899418 -0.901879 -1.1995579
0001e0 07 8e b3 3e 8b a3 f1 be 9d 49 ec 3d 98 a2 e9 3b
       0.35069296 -0.47195086 0.11537478 0.0071299784
0001f0 a6 80 ab 3e 0f f5 56 3e fc 26 af 3e 13 0d 40 bf
       0.33496588 0.2099192 0.3420943 -0.7501995
000200 59 ce 56 3f 6c 47 21 3e d7 c0 24 3f d8 cb 8c 3f
       0.8390861 0.15749902 0.6435675 1.0999708
000210 75 75 19 3f 43 28 c9 3d 61 d3 e4 3e c4 99 83 3e
       0.5994485 0.098221324 0.4469252 0.2570325
000220 91 a6 3d bd 52 59 d0 3e 6d ae 7f 3e 75 8d d3 3d
       -0.04630143 0.40693146 0.24968882 0.10329715
000230 9a 74 3e 3f 92 8b 29 3e 09 8b 9f 3e a9 b4 cc be
       0.7439667 0.16557148 0.31160763 -0.39981583
000240 75 3e 12 3e 35 02 81 bf 78 29 99 c0 a8 1b 5f bf
       0.14281638 -1.0078799 -4.786312 -0.87151575
000250 a4 a9 74 be 23 eb 1c 3d c4 8d 2f 3f f2 09 a0 3e
       -0.23892838 0.03831018 0.6857569 0.31257588
000260 be 64 0c 3e 15 2e e9 bc a7 5c b7 3c 0e e1 6a be
       0.13710305 -0.028464356 0.022383047 -0.22937414
000270 44 a6 ec bd 33 03 80 bf a8 b7 04 bf b9 cf 11 3f
       -0.1155515 -1.0000976 -0.5184274 0.56957585
000280 e0 0c da be ad f1 92 3e 96 98 b3 bd d3 7d ad bf
       -0.42587948 0.2870001 -0.08769338 -1.3554024
000290 c8 f2 ab 3d 27 09 21 c0 15 e3 a7 3c 33 57 01 bf
       0.08395916 -2.5161836 0.020494023 -0.5052368
0002a0 ff ed b8 bd 70 2b 0e 3f e3 d3 ac 3e b8 8c 64 3e
       -0.09029769 0.5553503 0.33755407 0.22319305
0002b0 6c b4 2e be 48 b3 fd 3d 40 b9 a5 bd 46 64 f2 bf
       -0.17061013 0.12387711 -0.08091974 -1.8936851
0002c0 cf 30 2a bf 05 d4 aa 3c 5f 5a f1 ba d2 f2 30 be
       -0.66480726 0.020853052 -0.0018413774 -0.17280129
0002d0 82 7b 6b 3f 4a 26 a2 3e 9a b7 19 3c 3f 1f 66 be
       0.9198533 0.31669837 0.009382153 -0.22472857
0002e0 9c e6 80 be dd 3c 8f 3f c3 de dd 3d 42 24 2c bd
       -0.2517594 1.1190449 0.10833504 -0.042026766
0002f0 bf 50 9e 3d e4 9f 5a be 9a 71 a7 3d 30 b8 01 c0
       0.07730245 -0.21350056 0.08175965 -2.026867
000300 b7 94 cd be 14 29 74 3e 7b 05 ab bd 75 9b 06 bd
       -0.40152523 0.23843795 -0.08350655 -0.0328631
000310 93 c9 92 be cd f5 58 c1 bd 82 47 c1 b6 db 8b 3f
       -0.28669414 -13.56001 -12.469419 1.0926425
000320 6f b2 2c c1 a0 35 95 be 1e d2 48 bf 5e 49 13 3e
       -10.793563 -0.29142475 -0.78445613 0.14383456
000330 b1 6d 79 3f d6 1f 5c bf 3d 0c 74 3e 2f 6c 07 bf
       0.97433 -0.8598608 0.23832794 -0.5289945
000340 08 d8 90 c0 3b ba e6 bf 16 e1 80 3f fb 23 b4 3e
       -4.526371 -1.8025583 1.0068691 0.351837
000350 bf a9 12 3d b6 4c d8 bf 4a d8 af 3d a1 9d 7e be
       0.035806414 -1.689841 0.08586176 -0.24864818
000360 71 51 46 3e 77 80 fd 3e 55 39 be bd 2d 5a 20 3e
       0.19367005 0.49512073 -0.09288279 0.156594
000370 d0 44 20 bf ab a3 3d c0 e1 49 c0 3e b1 d4 55 3d
       -0.62605 -2.9631145 0.37556365 0.05220479
000380 92 96 2e bb c0 47 83 bd 5b 88 d6 3e 27 92 25 be
       -0.002664004 -0.064101696 0.41900906 -0.16169034
000390 56 ed 89 bf 04 44 cd bd ba ad 2f be 68 0a 60 3e
       -1.0775554 -0.100227386 -0.17156115 0.2187897
0003a0 6d bc e1 be 2b ce 2f 3f a4 ca 7e 3d 75 f0 a1 3d
       -0.4408907 0.6867396 0.062204972 0.07907192
0003b0 32 96 84 bf f8 26 e0 bd 4b 7b c3 c0 1b 98 11 3e
       -1.0358336 -0.10944933 -6.1088004 0.1421818
0003c0 6a de b4 c0 7a 26 49 3d 10 63 0a be 88 30 79 bd
       -5.65215 0.04910896 -0.13514352 -0.0608373
0003d0 1d 45 f7 3e 89 ce 1a be 1f ca 79 bd 6e 68 24 c1
       0.48294917 -0.1511785 -0.060983773 -10.275496
0003e0 e5 25 01 3f 4a 6d f5 bc 50 39 b5 be e3 da 0f c1
       0.5044845 -0.02995934 -0.35395288 -8.990939
0003f0 75 34 c8 3f 79 c4 84 be e2 1a 84 bf 50 16 f8 3d
       1.5641009 -0.25931147 -1.0320704 0.12113631

fc2.bias f4 [300]
000000 03 05 a3 3e ea 00 4d bc e2 91 1d 3d 3c ae 81 3e
       0.3183976 -0.012512425 0.038469203 0.25328243
000010 3e e4 45 3e 03 95 5a 3e 47 db 62 3f 13 2e 40 bc
       0.19325349 0.21345906 0.8861584 -0.011729735
000020 58 12 4d bd 8a f9 98 bd 7a 2a 41 3e da 41 96 3f
       -0.050066322 -0.07469471 0.1886386 1.1738846
000030 24 56 ea 3e ab d6 00 bd ba 73 ab 3e 5f 53 16 3e
       0.45768845 -0.031454723 0.3348673 0.14680241
000040 cd 80 4e bc da 0d 21 bd 80 9f 67 3d 48 8f a0 3e
       -0.012603951 -0.03931985 0.056548595 0.31359315
000050 00 e4 85 bc b4 57 dc 3c ff 4f 37 bd 2e 0e d3 3d
       -0.01634407 0.026897289 -0.044754025 0.10305439
000060 d7 cf d1 3d 78 3a 20 bd 52 4b 89 3f c7 32 a4 3a
       0.102447204 -0.03911826 1.0726111 0.001252734
000070 0e 53 10 3d db 80 21 3e 68 67 16 bd ea 43 0d bd
       0.035235457 0.1577181 -0.03671971 -0.034488596
000080 32 9d 3f 3f 8a 8b 59 3c 71 b1 21 3d 6c 23 c5 3e
       0.74849236 0.013277898 0.039475862 0.38503587
000090 81 9b 36 3e 39 46 04 3f b5 3a 7d bd 1e 65 19 bd
       0.17832758 0.5166965 -0.061823566 -0.03744995
0000a0 2e 5e c2 bc 06 b6 cc 3c d7 c3 13 3e 40 42 20 3f
       -0.023726549 0.02498914 0.14430176 0.6260109
0000b0 c2 6b 17 3d a4 3f 43 3e c1 4b 6a 3e 10 1b 1e 3f
       0.036968 0.19067246 0.2288046 0.61760044
0000c0 ca 85 3b 3f 21 bb 5a 3e 8f da 14 bd b2 cc 44 3f
       0.7325102 0.21360447 -0.036341246 0.7687484
0000d0 96 eb b2 38 2b 9b 65 bc 71 83 72 3c 12 74 d4 3d
       8.531583e-05 -0.014014046 0.014801846 0.10373701
0000e0 ce 13 40 3f 27 a5 4f bc 54 92 9a 3e a2 5f 64 3e
       0.7503022 -0.012673653 0.30189764 0.22302106
0000f0 9f fd 7e 3f 7a 62 94 bd 53 f6 36 bd 5a fa 99 3e
       0.99605745 -0.072453454 -0.044668507 0.30073816
000100 74 2d 4f bd b2 fc d9 3c 25 a4 01 3f 32 23 8c 3d
       -0.050580457 0.026609752 0.5064109 0.068426505
000110 4a 89 bf bc ff 0f 7d 3f bb 0c 6b 3e 6e 13 2e 3d
       -0.023380894 0.98852533 0.22954075 0.042499
000120 62 8c 84 bc 9e ab 25 3d a1 2f 0d bb 39 09 11 bd
       -0.016180221 0.04044687 -0.0021543282 -0.035409186
000130 14 0d 37 bd fe e6 bb bb b5 17 4a bd ee f0 53 3a
       -0.044690207 -0.0057343235 -0.049339015 0.00080849126
000140 ee 04 2f 3e 7b 3e 1d 3d 17 b0 ad 3f 3e f3 3c 3e
       0.17091724 0.038389664 1.3569363 0.18452165
000150 31 b7 5f 3e 2b a8 2c 3e 5f c5 73 3e 07 a6 8c bd
       0.21847226 0.16861026 0.2380576 -0.06867605
000160 56 e3 7f bc fd 13 f2 bc 0b c0 98 bc ab 1d 9c 3d
       -0.015618166 -0.029550547 -0.01864626 0.07622846
000170 c7 35 a4 bc a5 80 5a bc 57 2f 10 3f 3b 29 f4 bc
       -0.020045174 -0.013336335 0.56322235 -0.029804816
000180 2f 04 b7 bc 60 cc 83 3f ae 82 e0 3e d4 12 5b bd
       -0.022340862 1.0296745 0.438497 -0.053484753
000190 18 47 19 3e 4e 44 56 3b 85 ca d0 bc 45 26 01 3f
       0.14968526 0.0032694521 -0.025487194 0.5044902
0001a0 b0 31 0a bd 3b b8 9f 3c 23 e8 a6 38 c7 eb e6 3d
       -0.033738792 0.019497028 7.958736e-05 0.1127544
0001b0 0e 4f 60 3e 53 53 59 bc df 63 cd 3e 1f de 16 3e
       0.21905157 -0.013264495 0.40115258 0.1473317
0001c0 aa de 9e bd ec 41 c9 3e f0 0b cb 3e c9 61 32 bd
       -0.077573135 0.39308107 0.39657545 -0.043550286
0001d0 06 7c 12 3f 20 de 7e 3f b1 3c b8 3e 96 00 86 3e
       0.57220495 0.99557686 0.35983804 0.26172322
0001e0 df ce ab bc 44 4d 6d 3e ae 21 9e 3e 11 a8 12 3f
       -0.020972667 0.23174006 0.3088507 0.572877
0001f0 49 15 9a bd a8 91 17 bd 20 fe 72 3e c1 33 9d 3a
       -0.07523591 -0.037004143 0.23729753 0.0011993573
000200 00 21 a6 bd c4 3a 89 bc dc 64 92 3d 63 be ac 3d
       -0.08111763 -0.016751654 0.07148144 0.08434751
000210 45 a8 71 3e 94 50 14 3c 21 cc 2e 3e 5a 70 ab 3c
       0.23599346 0.009052414 0.17070056 0.020927597
000220 16 0c b2 3d 21 f0 70 3e ca 49 83 bc 32 f8 ef bb
       0.086937115 0.23529102 -0.016026396 -0.0073232884
000230 db 5b 14 3e a7 4a b5 bc f1 ca c7 3d ae dc d1 3c
       0.14488165 -0.022130324 0.09755505 0.025617924
000240 39 c6 9a 3c 46 d8 b2 3e 9a 25 2c bb e0 28 52 bd
       0.018893348 0.3493063 -0.002626753 -0.051308513
000250 b9 55 41 3d f9 a7 2f bd 81 02 29 3e d8 da ce 3e
       0.047200892 -0.0428848 0.16504861 0.4040134
000260 63 be 49 bd 56 a7 e3 bc 5d ab 37 bd 49 f2 97 bd
       -0.049253833 -0.027789753 -0.04484116 -0.07419259
000270 18 be c6 3c 50 29 f5 3d bc ce 42 3e e6 e8 bd bb
       0.024260566 0.1197077 0.19024175 -0.005795586
000280 2d a3 42 3e 05 ac 03 bd 2c c3 8b ba bd 23 ba 3c
       0.19007559 -0.032146472 -0.0010663024 0.02272212
000290 8c c4 5a bd 91 4b 76 3e 4e 3c 2d bd 0a 13 8a bc
       -0.053410098 0.24052264 -0.04229384 -0.016854782
0002a0 7d e2 26 3f b9 f4 2b 3e 1a fa 55 bd 14 a7 50 bd
       0.65189344 0.16792573 -0.05224047 -0.050940588
0002b0 1c 41 89 3c 74 d3 cf bc 52 73 80 3c 21 8e 36 3e
       0.01675468 -0.025369383 0.015679989 0.17827655
0002c0 b4 96 d7 3c 61 84 ca 3d d1 6c 27 bd 96 a5 51 3f
       0.026316978 0.098885305 -0.04087526 0.8189329
0002d0 7f f7 f4 3d 34 9c f6 3d a1 7c 5f 3e 23 71 ba bc
       0.11961269 0.12041512 0.21824886 -0.022759026
0002e0 08 e5 2f 3e 8a ba c5 3e 20 10 96 bd d6 0e c4 3d
       0.17177212 0.3861888 -0.07327294 0.09573142
0002f0 97 89 94 bd 77 bd de 3d 15 b7 81 bd af 0f d8 bd
       -0.07252806 0.10875981 -0.06333748 -0.105498664
000300 45 d1 18 3f b3 9b f6 3e a4 4e 45 3e 52 7a 03 3f
       0.5969432 0.48165664 0.1926828 0.5135852
000310 03 ea 9c bc 13 fc ff 3e cc a3 6a 3d d8 74 9e 3f
       -0.019154554 0.49997005 0.057285115 1.2379408
000320 50 91 1e 3f 01 ac d3 3d 1b de 62 bb 82 f1 2f bd
       0.6194048 0.103355415 -0.0034617248 -0.04295493
000330 7e 73 b0 3e ac 93 40 3e 2f 00 59 3e c9 48 ac 3e
       0.34463114 0.18806332 0.21191476 0.3364928
000340 74 a6 18 bd d7 87 9e bd b5 06 2c 3e 52 68 63 3d
       -0.037268117 -0.07740753 0.16799434 0.05551941
000350 7f 99 be 3e f5 d8 60 ba 38 7a 00 3f fe 9e 26 bd
       0.37226483 -0.0008577251 0.5018649 -0.04067897
000360 30 5f 29 3c 3d 7b 0a 3c 1c c9 4b bc 94 68 c3 bc
       0.010337636 0.008452234 -0.012438085 -0.023853578
000370 72 76 1c 3e 97 44 9d 3f e7 c8 12 3d 18 7c 20 bd
       0.15279558 1.2286557 0.035836127 -0.039180845
000380 87 28 c5 3d 30 1b b8 bc 66 d7 8f 3e 13 5e 16 3e
       0.096268706 -0.022473902 0.28094023 0.14684324
000390 88 f6 ef 3c 73 22 3a 3e 41 3f 08 3d d5 41 f2 3d
       0.02929236 0.18177204 0.03326345 0.11828963
0003a0 59 98 98 3b e0 91 05 3f 42 3a b1 bc 0f 45 54 3e
       0.004656833 0.5217571 -0.021634225 0.20729469
0003b0 5b 0f 82 3c b2 d0 fe 3c 2c 01 1e 3f 40 5b dd 3e
       0.015876463 0.031105373 0.6172054 0.4323368
0003c0 9b 85 c1 3e 38 e5 a4 3b 71 fc 05 3e 6f 98 dc 3e
       0.37797245 0.005032208 0.1308458 0.43085048
0003d0 84 b6 04 3d b3 71 8d bc 78 d7 4d 3e 81 09 54 bd
       0.032400623 -0.01726613 0.20101726 -0.051766876
0003e0 06 63 07 bc 01 c8 11 bd 1b 78 9c bd 97 99 14 bd
       -0.008263355 -0.03559113 -0.07640096 -0.036279287
0003f0 f8 93 6e 3e 72 2f 97 bd d5 fb 5c 3d 6a c3 33 3e
       0.23298633 -0.07382096 0.053951103 0.17555013

fc3.weight f4 [1, 300]
000000 e9 09 34 40 24 5b 03 3d f9 71 17 3d 41 81 dc 39
       2.8131049 0.03206934 0.036973927 0.00042057972
000010 1e cb f8 ba 9d f6 0e 40 9f d0 3c be 4f 6f 38 3d
       -0.0018981432 2.233802 -0.18438958 0.045028027
000020 2f b0 90 ba 27 26 8b bc d1 c4 b1 3c e4 b7 51 be
       -0.0011038835 -0.016985966 0.021700295 -0.20480305
000030 65 34 d7 bf 91 1c ad 3c 62 5c 22 bf fb 8a a6 3c
       -1.6812865 0.021131786 -0.63422215 0.020329943
000040 2a 21 5f 3b 20 32 68 3d 12 9e 00 3d 1b cf 2d bf
       0.0034046867 0.056688428 0.031400748 -0.6789414
000050 74 59 d8 3c 64 99 e6 3c 4c 6a a6 3c 16 cb f4 3c
       0.026409842 0.028149314 0.020314358 0.029881995
000060 6d 29 f0 bc 20 37 f1 3c 8c d3 9e be fb 96 cd 3c
       -0.029316628 0.029445231 -0.31020772 0.025096407
000070 24 a4 af 3c 52 94 3f 3b a0 fa 30 3d 0d ff 3a 3d
       0.021440573 0.0029232693 0.043207765 0.04565339
000080 b2 0f 26 be d2 0d 91 3b fc 9b 18 3d 24 71 8b bf
       -0.16216925 0.0044266963 0.037258133 -1.0893903
000090 eb 9f f3 bb 00 5b 6a 3b 90 0f a3 3c 79 24 fd 3c
       -0.007434835 0.0035759807 0.019904882 0.03090118
0000a0 1f 27 25 3d 35 e1 d1 3c 8e 07 dc bc f2 d7 0f be
       0.040320512 0.025620082 -0.026859071 -0.1404722
0000b0 8a c8 94 3b 8b 7e 60 bb e7 bb b6 bf da 2d 3b be
       0.0045405077 -0.0034255113 -1.4276093 -0.1827921
0000c0 fb d0 5f be 16 09 b6 3c 52 4c 84 3c 57 6f 60 bc
       -0.21857063 0.02222113 0.016149674 -0.0136984205
0000d0 bb 2c e7 3c af b6 16 3d c3 60 43 3d 55 10 ed bc
       0.028219571 0.036795314 0.0476997 -0.028938452
0000e0 2f 64 88 bf 9e 74 37 3d 94 55 7b c0 58 8d 81 bc
       -1.0655574 0.04478895 -3.9270983 -0.015814468
0000f0 b4 6d c1 bd 97 5a c5 3b fd d0 07 bc 73 05 db 3b
       -0.09444752 0.006022762 -0.008289573 0.006683999
000100 79 ed 8b 3c 3f d6 15 3d db cb da bc 8c ee e5 bd
       0.01708101 0.036581274 -0.026708534 -0.1122714
000110 05 6b 4e 3d 92 98 e1 be 18 93 dc 3c af 9e a9 3b
       0.05039503 -0.44061714 0.026925609 0.0051763873
000120 cd 72 0b 3d fd 9c 87 3c bf a4 4c 3d 5c 5b 8e 3b
       0.03404503 0.01655435 0.0499618 0.004344387
000130 09 9d 07 3d cf c9 17 3d 3c 54 9b 3c 20 eb 80 bb
       0.033108745 0.037057694 0.018961065 -0.003934279
000140 72 33 d8 bc 04 7f 3b 3d eb 3b bc be ab d3 dc bc
       -0.026391719 0.04577543 -0.36764464 -0.0269564
000150 f4 3a fc bc c4 6e c4 3c 5e 9f 99 bc 7d 0a 73 bc
       -0.03078983 0.023978598 -0.01875275 -0.014834044
000160 6d 18 8f 3b f5 a2 d0 3c 26 7e 0b 3d c1 0b ea bb
       0.0043669255 0.025468329 0.03405585 -0.0071425145
000170 2b 82 21 3d da 1a de 3c 98 7e 35 be 61 30 ac 3c
       0.03943078 0.027112413 -0.17724073 0.021019163
000180 35 a1 7d 3c ac 44 d5 be 50 07 06 c0 d6 3f 6b 3c
       0.015480329 -0.41653955 -2.0941963 0.014358481
000190 80 06 99 37 5e 73 08 3d c9 76 1c 3d 43 68 10 bd
       1.8242048e-05 0.033313148 0.03819922 -0.03525568
0001a0 48 df 23 3d 37 e9 21 3d 46 53 a8 bb a4 78 27 c0
       0.04000786 0.03952905 -0.00513688 -2.6167383
0001b0 13 75 a1 3b 7c 41 5e bb 74 05 c1 3f 0e 27 28 bd
       0.0049272864 -0.0033913543 1.5079789 -0.04105287
0001c0 5c 41 c0 3c f8 c5 a7 3f 01 04 8a 40 fc 88 fa 3b
       0.023468666 1.310729 4.3129888 0.0076457243
0001d0 e0 fd c3 be a1 7c 68 be 6e ae 9c 3c 9e f3 ee 3c
       -0.3827963 -0.22703792 0.019126143 0.0291689
0001e0 02 38 27 3d 39 80 e5 3c 3d ad ed bd 23 cc 60 3a
       0.040824898 0.028015243 -0.11605308 0.00085753406
0001f0 36 66 a5 bc ce 8f 01 3d c0 c8 49 bc 1f 2e ef 3c
       -0.02019034 0.031631283 -0.012315929 0.029196797
000200 0a 74 af bc 25 d3 18 3d f8 c4 11 3c ab a1 20 3c
       -0.021417636 0.037310738 0.008897059 0.00980417
000210 b7 5c 9d be 60 db bc bb 29 0a cd 3c a5 bb f3 bc
       -0.30734798 -0.005763456 0.025029259 -0.029752562
000220 b1 a1 09 bd 76 9f db bc e3 ec 00 3d b6 35 af 3c
       -0.033601467 -0.026809435 0.031475913 0.021387916
000230 a8 03 ed 3c c5 cb 4a bc 63 2f f0 bf 7e 9e cc 3c
       0.028932407 -0.012377684 -1.8764461 0.024977919
000240 8b b4 16 3d 99 2e 24 bf cd 78 6e 3c 71 c2 56 3b
       0.036793273 -0.641336 0.014555168 0.0032769705
000250 7a 53 a2 3b 5e 86 f8 3c 77 e1 8f be d4 d8 b9 bf
       0.004953799 0.030337509 -0.28101704 -1.4519296
000260 67 2f 3f 3b fb 32 52 3c dd d7 2c 3d 28 20 9a bc
       0.002917254 0.0128295375 0.04219805 -0.018814161
000270 ae 43 01 3c 39 ca 04 bf 59 f7 c3 3b eb d4 80 3b
       0.007889671 -0.5187107 0.005980414 0.003931632
000280 e7 14 ca 3c 12 c0 0a bd cc 67 1b 3c c4 10 80 3c
       0.02466817 -0.03387458 0.009485196 0.015632994
000290 04 04 b0 3b 2a ed d7 3c 9d 69 34 3d c1 6a 87 3c
       0.0053715724 0.026358206 0.044046033 0.016530396
0002a0 18 1c a8 be af 04 f6 bb e3 23 fc 3c 9a 59 ab 3b
       -0.32833934 -0.0075078825 0.03077883 0.005229187
0002b0 06 fb a4 3c bd 71 a2 3c af 8f c4 3b f9 2b e7 3e
       0.020139229 0.019829625 0.0059985737 0.45150736
0002c0 bb 4f c7 b9 50 dc 34 3d 2e 54 2b 3d 57 70 31 bd
       -0.00038015642 0.04415542 0.041828327 -0.043320026
0002d0 42 3e c4 3c 0f 70 6f bc a9 7d f2 3b 32 62 88 3b
       0.023955468 -0.014614119 0.0074002338 0.0041620964
0002e0 51 15 2a 3c 36 51 f5 bc f4 25 4b 3c 1a 66 d6 bc
       0.010381059 -0.029945951 0.012399185 -0.026171733
0002f0 14 91 b7 be 2d 3a 9c bc d6 17 20 bc 34 99 56 bf
       -0.35852873 -0.01907071 -0.009771308 -0.8382752
000300 c4 02 f5 be 70 5d 32 3b 21 5d bd 3c 55 5b 83 bf
       -0.47853673 0.0027216338 0.023115696 -1.0262247
000310 05 03 2c 3d 1a 2c 87 be 1b f0 de bf 2f d5 57 be
       0.041995067 -0.26400834 -1.7417024 -0.21077417
000320 75 3f 63 bf e5 01 db bc 62 a2 c5 3b 78 b4 da 3a
       -0.887687 -0.026734302 0.0060313204 0.0016685864
000330 f0 78 8b 40 95 68 f3 bb 5d 24 e4 bc dd 98 0f bc
       4.358513 -0.0074282386 -0.02784937 -0.008764473
000340 9a 34 bc 3c 4e d5 a5 3c 4d a0 ec bc d7 2f 9c 3c
       0.022974301 0.020243313 -0.028885031 0.01906578
000350 41 32 91 be 80 90 8e 3c db 39 a1 3b e5 62 33 3d
       -0.28358653 0.017402887 0.004920227 0.043795485
000360 75 ba 8a bb 03 78 0d 3c 95 9d 40 3d 0e 39 1c 3d
       -0.004233653 0.00863457 0.047025282 0.03814035
000370 c0 9c ce bc d0 5a 6b be b2 f0 a3 3c e9 73 a3 3a
       -0.025221229 -0.22983861 0.020012233 0.0012470457
000380 98 a9 01 3c 1f 4e 87 bf 71 3f b6 ba 4f 51 ce 3c
       0.007913969 -1.0570716 -0.0013904405 0.025185255
000390 e0 2e 3a 3d a8 0a a0 3b 8b e0 5b 3c fc 59 be 3b
       0.04545486 0.004884083 0.013420234 0.005809067
0003a0 0b 13 7e 3c ab 76 1c be 48 a1 1b bc fb 79 49 3c
       0.01550747 -0.15279643 -0.009498902 0.012297149
0003b0 41 de 40 3c 98 6e 7e 3a 57 3a 6a be 9e 11 4e bf
       0.011771739 0.0009705811 -0.22873817 -0.8049563
0003c0 32 e3 86 bd 99 26 44 3d db af cc bc f2 08 b0 be
       -0.06586303 0.047888372 -0.024986198 -0.34381825
0003d0 ab 19 cc 3c 07 80 01 3d a3 f9 93 3c 6d 19 5a 3a
       0.024914583 0.031616237 0.018063372 0.0008319829
0003e0 fd de 14 3d 73 51 d0 3c 0b e0 e5 bc 28 3f 18 3d
       0.03634547 0.025429463 -0.028060934 0.037169605
0003f0 05 14 fe 3c 0a dd ce be 61 91 6a bf 66 02 f3 3c
       0.031015405 -0.40403014 -0.9162808 0.02966423
