Char10 TD3/expTD3_BipedalWalker-v2.pyBipedalWalker-v2./actor.pth (torch_old, 527113 bytes, 6 tensors)

fc1.weight f4 [400, 24]
1.3926883 2.092813 -2.8079164 -1.7697886 0.17214382 -0.59920806 -1.2242535 0.33636475
-1.8150464 2.245273 0.44518858 -2.0289197 -0.4012846 2.0820737 -0.67347795 -0.522018
-0.61943847 -0.50643796 -0.5443956 -0.76584095 -0.82529515 -0.6103764 -0.66491115 -0.5578069
-0.19063129 8.526669 1.9859399 -6.0928087 2.2714999 -0.1454418 0.70223486 0.43369997
0.65544826 -3.2192395 0.075283006 -0.24923345 0.29489365 0.883018 -0.49983066 -0.66984445
-0.57767004 -0.6087091 -0.68665683 -0.3741493 -0.31303814 -0.4004721 -0.09270149 0.66542995
-0.044849433 0.5301043 2.1169212 0.86481977 -3.3396158 0.25459582 -2.145684 -0.025091559
-0.38925982 -1.1809773 0.88302076 1.9669348 -1.2608585 0.6418066 -0.68536514 -0.7523278
-0.64791346 -0.91002613 -0.94682825 -0.73959345 -0.6698602 -0.8744289 -0.5587499 -0.8614175
0.083087064 -0.04548429 -0.17543247 -0.18413028 0.11318843 0.036165293 -0.18777128 -0.21475829
-0.22024775 0.12953006 0.13343571 -0.04762208 -0.013252073 0.008634244 -0.3754142 -0.2741935
-0.09762933 -0.17972337 -0.33519194 -0.33977023 -0.3060287 -0.3206203 -0.19027726 -0.29951987
-0.28972998 -0.5210294 -3.626874 2.1139677 -2.912906 0.78590405 -2.0381136 0.054795418
1.5026487 3.1872222 -0.28353348 1.1833341 -1.3171797 2.4018764 -1.2746837 -1.2394296
-1.1997515 -1.3668873 -1.3616978 -1.0939305 -1.0743383 -1.3134643 -0.6684228 0.018279603
0.95267624 2.006376 -2.0849323 -2.2178872 1.3869475 0.6820109 0.13104095 0.39971316
-4.070946 0.35252073 0.9463967 -3.6684995 0.19791292 -1.490995 -0.049580872 -0.37417984
-0.055792253 -0.3289375 -0.42187834 -0.13694993 -0.5235206 -0.55441856 -0.22272691 0.42065078
-0.05386615 0.16719228 -0.2455211 0.22320503 0.007251498 -0.06651941 0.063315205 -0.09205811
0.034596007 -0.056602243 0.03181591 0.09525099 0.0038821406 -0.12496883 -0.2581532 -0.03245054
-0.13044967 -0.037919156 -0.32573885 -0.21701388 -0.049452167 -0.0718399 -0.20487511 -0.040288795
0.040690567 -0.16949406 -0.38932672 0.5428513 0.39487943 0.03418018 0.047610622 0.095881715
0.09475736 -0.116245314 -0.050294977 0.8821355 0.23992443 -0.12666744 -0.34537208 -0.41819748
-0.2943375 -0.3846374 -0.48951614 -0.44191107 -0.27653238 -0.37804535 -0.3153907 -0.3260986
-0.34543183 0.37154675 0.8577398 -1.8436178 -0.7119787 1.0173748 1.3898226 0.31124288
2.3474312 -0.8165942 -0.54385364 0.08572284 0.85796297 -4.0258346 -0.33062083 -0.33089387
-0.33679533 -0.16097935 -0.27627864 -0.3181595 -0.20024346 -0.035830934 -0.26173487 -0.16237746
-0.29092824 -0.6376215 -0.8177761 0.34534198 -0.15686636 1.2951957 -0.35892585 0.42641369
0.16200326 1.4734507 -0.6215365 2.1294916 -0.88326067 0.64542985 -0.003959033 0.28525487
0.024606898 0.02052274 0.015240045 0.03783421 0.12699293 0.2550206 -0.11497109 -0.6238415
0.4141408 -1.7497853 -0.40967706 -0.31439942 -2.039883 0.030500019 -0.2499891 -1.3513675
-0.060788114 1.7722651 0.5054959 -0.5136773 1.0852062 -3.2744598 -0.5087788 -0.55718315
00000000: 9c43 b23f a6f0 0540 e7b4 33c0 6f88 e2bf
00000010: 7846 303e b365 19bf 57b4 9cbf 0038 ac3e
00000020: 7153 e8bf 8eb2 0f40 c2ef e33e d2d9 01c0
00000030: 2d75 cdbe b240 0540 0d69 2cbf f9a2 05bf
00000040: 8593 1ebf eba5 01bf 835d 0bbf 270e 44bf
00000050: 8b46 53bf a141 1cbf 9e37 2abf 6fcc 0ebf
00000060: d934 43be 3c6d 0841 4733 fe3f 4af8 c2c0
00000070: 4160 1140 b2ee 14be aac5 333f ec0d de3e
00000080: 75cb 273f 0508 4ec0 fa2d 9a3d 0e37 7fbe
00000090: 4dfc 963e 780d 623f cee9 ffbe ed7a 2bbf
000000a0: 2fe2 13bf 5cd4 1bbf bec8 2fbf 7f90 bfbe
000000b0: 8946 a0be ae0a cdbe 47da bdbd 9e59 2a3f
000000c0: 0ab4 37bd eab4 073f a37b 0740 d464 5d3f
000000d0: 44bc 55c0 625a 823e e352 09c0 d08c cdbc
000000e0: 104d c7be 442a 97bf a60d 623f 85c4 fb3f
000000f0: d063 a1bf 704d 243f 1774 2fbf 8e98 40bf
00000100: a8dd 25bf 79f7 68bf 5663 72bf ff55 3dbf
00000110: f57b 2bbf 93da 5fbf 3c0a 0fbf db85 5cbf
00000120: 8d29 aa3d bc4d 3abd 92a4 33be a68c 3cbe
00000130: 56cf e73d 0f22 143d 1d47 40be 99e9 5bbe
00000140: a088 61be 87a3 043e 5fa3 083e 5f0f 43bd
00000150: 391f 59bc a576 0d3c 4a36 c0be 1763 8cbe
00000160: e3f1 c7bd 6709 38be 479e abbe 5df6 adbe
00000170: cbaf 9cbe 5828 a4be 0bd8 42be ab5a 99be
00000180: 7d57 94be 2f62 05bf b41e 68c0 3f4b 0740
00000190: 0d6d 3ac0 0231 493f 7470 02c0 2971 603d
000001a0: cb56 c03f 73fb 4b40 4d2b 91be 7e77 973f
000001b0: 5899 a8bf 58b8 1940 d628 a3bf a1a5 9ebf
000001c0: 7591 99bf 2af6 aebf 1d4c aebf ea05 8cbf
000001d0: eb83 89bf 991f a8bf c21d 2bbf 1bbf 953c
000001e0: 97e2 733f 7768 0040 886f 05c0 ddf1 0dc0
000001f0: 7f87 b13f 4498 2e3f 992f 063e 34a7 cc3e
00000200: 3145 82c0 997d b43e 0e47 723f b2c8 6ac0
00000210: afa9 4a3e edd8 bebf 5015 4bbd 8094 bfbe
00000220: 6b86 64bd 7f6a a8be 7000 d8be 9a3c 0cbe
00000230: 7205 06bf 60ee 0dbf 8612 64be 8a5f d73e
00000240: c1a2 5cbd 7434 2b3e e269 7bbe dc8f 643e
00000250: f99d ed3b 543b 88bd 67ab 813d f688 bcbd
00000260: 8bb4 0d3d c1d7 67bd 6651 023d f312 c33d
00000270: 836b 7e3b a8ef ffbd a82c 84be dcea 04bd
00000280: 9994 05be 1e51 1bbd 3ec7 a6be e338 5ebe
00000290: 5b8e 4abd cc20 93bd c8ca 51be dd05 25bd
000002a0: 27ab 263d da8f 2dbe d555 c7be 4ef8 0a3f
000002b0: a32d ca3e 8400 0c3d 5b03 433d a25d c43d
000002c0: 2610 c23d 0612 eebd 1b02 4ebd a2d3 613f
000002d0: c0ae 753e 1cb5 01be 9cd4 b0be fb1d d6be
000002e0: 68b3 96be 31ef c4be dca1 fabe 2b42 e2be
000002f0: a795 8dbe 298f c1be e47a a1be 65f6 a6be
00000300: 71dc b0be 603b be3e d694 5b3f abfb ebbf
00000310: 3c44 36bf 5639 823f b5e5 b13f 3a5b 9f3e
00000320: 503c 1640 510c 51bf fe39 0bbf 758f af3d
00000330: 76a3 5b3f a3d3 80c0 2247 a9be ec6a a9be
00000340: 7070 acbe c5d7 24be 6574 8dbe cde5 a2be
00000350: 9f0c 4dbe 75c3 12bd 1d02 86be 4746 26be
00000360: 8cf4 94be 2a3b 23bf c659 51bf aad0 b03e
00000370: 93a1 20be f9c8 a53f 21c5 b7be e552 da3e
00000380: 2fe4 253e 089a bc3f 041d 1fbf 9749 0840
00000390: 5f1d 62bf e43a 253f c7ba 81bb ed0c 923e
000003a0: 6894 c93c 4e1f a83c 62b1 793c 0bf8 1a3d
000003b0: 6f0a 023e 0f92 823e f675 ebbd 14b4 1fbf
000003c0: 430a d43e f7f8 dfbf 31c1 d1be f6f8 a0be
000003d0: 718d 02c0 2ddb f93c 25fd 7fbe 9cf9 acbf
000003e0: f5fc 78bd 95d9 e23f 2e68 013f 5b80 03bf
000003f0: 09e8 8a3f c090 51c0 543f 02bf 8ea3 0ebf

fc1.bias f4 [400]
-0.38929006 0.6239455 -0.7916937 0.031617615 0.47359157 0.25324395 -0.2078779 -0.34667215
0.034482338 -0.41163948 -0.8182404 0.060409386 0.3144057 -0.2201789 -0.3356755 0.260643
-0.5970172 -0.20546019 -0.6744934 -0.9200217 -0.59564775 -0.42512193 -0.09446493 -0.7552281
0.12778142 -1.0456681 -0.716976 -1.1362866 -0.3318696 -0.11824209 1.4624107 -0.50274235
-0.21031454 0.46845517 -0.33184996 -0.23001592 -0.44726443 0.75186664 -0.3025466 -1.0228863
-0.20071883 0.3231776 -0.8657808 -0.004757777 -0.30331528 -0.29620188 -0.090485066 -0.29350424
0.071084306 -0.55687237 -0.09735912 0.18724053 -0.31037503 0.107655756 -0.89444757 -0.41776562
0.079247564 0.35199606 -0.4535599 0.13367715 -0.873241 -0.5745141 -0.5604965 -0.26573902
-0.37367967 0.52183175 -0.7589598 0.035470318 0.40335798 -0.838549 -0.050319508 -0.23427597
-0.35605478 -0.21244606 0.67943656 -0.1809658 0.48890573 -0.20853893 -0.46151206 -0.45816362
-0.026905635 -0.61451834 -0.3656597 -0.52216464 -0.22396573 -0.4784295 -0.7296255 0.014617776
-0.77438956 -0.16310944 -0.03174537 0.48199072 -0.2499572 -0.23160292 0.6014939 -0.27990246
-0.24418898 0.061777264 -0.19492514 -0.09809952 -0.26749372 -0.39261842 0.14553824 0.025814455
0.06856674 -0.39473337 -0.447255 0.055773165 -0.07260397 0.09818657 0.16714986 0.50631166
-0.9705335 -1.9913648 -0.4236488 0.16261625 -0.5190942 -0.82252854 -0.29197294 0.35996303
-0.38051665 0.024607763 0.80503666 -0.27387136 -0.054164648 -0.13438183 -0.23561974 -0.26678392
-0.77110404 -0.07552801 -0.28250805 -0.36697403 0.8572068 -0.67796165 -1.19977 -0.17833132
-0.053057928 0.06384575 -0.7563717 -0.72289747 0.10645061 -0.24721049 -0.14509821 0.32234573
-0.8799988 -0.015584195 0.37132293 -0.11094036 -0.05385908 -0.26053554 -0.46856186 -0.22876765
-0.20102622 -0.35068762 -0.21074443 -0.97803396 -0.107720144 0.8838558 -1.0619373 -0.302081
-1.0641546 -0.31699863 -0.22199982 0.36492476 -0.13792159 -0.32158205 -0.44853085 -0.31281292
-0.4428894 0.70904094 -0.2631081 0.040718347 1.2163409 -0.46678856 0.34029204 -0.48885435
-0.071316384 0.6522543 0.101606436 -0.17335707 -0.33540457 -0.3383554 0.16341779 0.018271979
-1.1961848 -0.4612219 -0.119962946 -0.080006815 0.56393856 -0.11926258 -0.18641376 -0.24199244
-0.3797464 -0.13312529 -1.1604903 0.05066092 0.055428933 -0.82766604 0.41942683 -1.205771
-0.74480575 -0.7701262 -0.6493672 -0.06768712 -0.48347652 0.12952873 0.29159296 0.3358821
0.4962835 -0.6979218 -0.09612872 -0.06077169 -0.7176126 -0.7515496 -0.33301333 -0.539358
-0.01060079 -0.1380734 0.0067678983 -0.32397142 0.038533784 -0.35491788 -0.6633284 -0.25780162
-0.39000487 -0.32986167 0.45350757 0.2921292 -1.219434 -0.42528892 -0.30810854 0.120248616
-1.0370871 -0.25168797 0.569374 0.66288465 -0.3149261 -0.7151841 0.0024907154 -0.17252183
-0.1579497 0.91322976 -0.549419 -1.0899729 0.008377828 0.037647348 0.21043594 -0.13082428
-0.4397869 -0.20329303 0.231498 -0.19895136 -0.26229772 -0.29843467 -0.28607804 -0.20866367
00000000: 0751 c7be e4ba 1f3f 70ac 4abf 7981 013d
00000010: 987a f23e 31a9 813e f2dd 54be 037f b1be
00000020: 5a3d 0d3d 69c2 d2be 3478 51bf d56f 773d
00000030: c9f9 a03e 9476 61be a9dd abbe 0073 853e
00000040: 1fd6 18bf 2864 52be 99ab 2cbf 8b86 6bbf
00000050: 5f7c 18bf 95a9 d9be d476 c1bd a156 41bf
00000060: 22d9 023e 74d8 85bf bd8b 37bf d771 91bf
00000070: d0ea a9be e928 f2bd 4630 bb3f b9b3 00bf
00000080: b25c 57be 5bd9 ef3e 3de8 a9be 4b89 6bbe
00000090: d8ff e4be 557a 403f 63e7 9abe f0ed 82bf
000000a0: 3d89 4dbe 8977 a53e cfa3 5dbf 20e7 9bbb
000000b0: 244c 9bbe c6a7 97be 3c50 b9bd 3046 96be
000000c0: a694 913d 308f 0ebf 3864 c7bd fbbb 3f3e
000000d0: 7ae9 9ebe 9f7a dc3d 84fa 64bf 60e5 d5be
000000e0: 8c4c a23d d438 b43e 0139 e8be aae2 083e
000000f0: b98c 5fbf 5b13 13bf b37c 0fbf f20e 88be
00000100: f152 bfbe c496 053f 304b 42bf 5349 113d
00000110: f084 ce3e 26ab 56bf d41b 4ebd 0ae6 6fbe
00000120: d04c b6be 768b 59be 8eef 2d3f 194f 39be
00000130: da51 fa3e 3b8b 55be 4f4b ecbe 6c94 eabe
00000140: 3569 dcbc 1351 1dbf c037 bbbe 95ac 05bf
00000150: 4657 65be b6f4 f4be bdc8 3abf 657f 6f3c
00000160: 653e 46bf 2906 27be 6f07 02bd 7dc7 f63e
00000170: c8f4 7fbe 5129 6dbe 81fb 193f 604f 8fbe
00000180: ad0c 7abe 280a 7d3d 759a 47be 67e8 c8bd
00000190: f0f4 88be 4805 c9be fa07 153e d678 d33c
000001a0: b86c 8c3d 7e1a cabe 9bfe e4be 6772 643d
000001b0: 64b1 94bd 0a16 c93d 5529 2b3e a49d 013f
000001c0: e274 78bf 0be5 febf 7fe8 d8be e084 263e
000001d0: 5ce3 04bf 3b91 52bf 7a7d 95be 134d b83e
000001e0: 14d3 c2be 3896 c93c e216 4e3f de38 8cbe
000001f0: c0db 5dbd 649b 09be 4d46 71be e797 88be
00000200: 1367 45bf 6eae 9abd e5a4 90be 05e4 bbbe
00000210: e871 5b3f e58e 2dbf 1092 99bf 7c9c 36be
00000220: 4553 59bd 90c1 823d 93a1 41bf cf0f 39bf
00000230: c702 da3d bf24 7dbe a094 14be 800a a53e
00000240: 9a47 61bf da54 7fbc 0a1e be3e b334 e3bd
00000250: 579b 5cbd ea64 85be 57e7 efbe 1142 6abe
00000260: d1d9 4dbe 548d b3be 63cd 57be 6f60 7abf
00000270: 619c dcbd 6044 623f 90ed 87bf 5caa 9abe
00000280: 3836 88bf a54d a2be ec53 63be 6bd7 ba3e
00000290: 513b 0dbe 67a6 a4be d6a5 e5be 0429 a0be
000002a0: 66c2 e2be b583 353f 1bb6 86be 48c8 263d
000002b0: 0fb1 9b3f e9fe eebe c23a ae3e 1e4b fabe
000002c0: 530e 92bd 23fa 263f 0917 d03d 8484 31be
000002d0: 26ba abbe eb3c adbe fe56 273e 1eaf 953c
000002e0: 951c 99bf 4725 ecbe 22af f5bd 9dda a3bd
000002f0: 475e 103f f13f f4bd 40e3 3ebe decc 77be
00000300: 1f6e c2be ff51 08be f28a 94bf d381 4f3d
00000310: 7309 633d ece1 53bf 1dbf d63e b456 9abf
00000320: 97ab 3ebf fe26 45bf ee3c 26bf 8b9f 8abd
00000330: 3c8a f7be 2ea3 043e ac4b 953e bdf8 ab3e
00000340: df18 fe3e 01ab 32bf 22df c4bd bceb 78bd
00000350: 76b5 37bf 8e65 40bf b980 aabe 5e13 0abf
00000360: f0ae 2dbc 1d63 0dbe 3fc5 dd3b 95df a5be
00000370: 9ad5 1d3d ccb7 b5be e4cf 29bf 93fe 83be
00000380: b8ae c7be a1e3 a8be 2532 e83e f591 953e
00000390: 6a16 9cbf 78bf d9be 67c0 9dbe e844 f63d
000003a0: 45bf 84bf 3fdd 80be 7fc2 113f cfb2 293f
000003b0: fe3d a1be 4e16 37bf 453b 233b 90a9 30be
000003c0: 91bd 21be 6dc9 693f b9a6 0cbf 3b84 8bbf
000003d0: 2843 093c 1b34 1a3d 857c 573e cdf6 05be
000003e0: c02b e1be 0c2c 50be d00d 6d3e e8b9 4bbe
000003f0: e34b 86be 6ecc 98be d278 92be eeab 55be

fc2.weight f4 [300, 400]
1.0770804 -0.20844197 -0.8657125 -0.0830472 -0.9883836 0.0898503 -0.030420234 0.058912124
-0.26913488 0.3124024 -1.4972255 0.6278718 -0.7420971 -0.07252617 -0.4469727 -1.1484025
0.6668759 0.021866359 -0.1869726 -1.960153 -1.1392851 1.2540903 -0.07895656 1.0613378
-0.26532924 -0.138127 1.1970073 -0.039782792 -0.06494472 1.2279546 0.046549883 0.99136907
2.005681 1.3149269 1.6088865 -0.015386086 0.14334458 -0.6911603 0.22263165 0.8447404
0.05811639 -0.88300127 -0.7827114 -0.1737054 0.20967108 0.31607315 -0.302225 -0.63771313
-1.7140498 -1.6234355 -0.29690054 0.63991433 -0.45012683 0.34999058 1.3829477 -1.2753851
0.058705978 -0.4413555 -0.20558019 0.103591904 -1.2064316 -1.2139152 -0.59141624 0.046640746
0.3211614 0.4625947 0.17104554 -2.0300865 -0.5092876 -2.2986548 1.3062749 0.16872606
0.46560067 0.013793026 -0.9307063 0.018096702 -3.3515666 0.028754028 -0.8338135 0.8117155
-0.43706343 -3.6560814 -1.1584477 0.27390206 1.2848606 0.61527276 -2.7044525 0.812657
0.41029096 -1.7090961 -0.4334216 0.73335165 -0.021757862 0.042357747 -2.7471151 0.14638586
-0.025250793 -1.2686664 -0.7945687 -0.44992727 -0.019706959 0.016870199 -0.00805012 0.01274884
-0.48546207 -0.42394152 -0.03277373 0.7095455 0.006139496 0.58362406 1.2822164 -1.7831643
-0.24371637 -1.8210411 0.77345896 0.28149503 -1.67126 -0.32303646 -0.23857501 -0.5691453
0.225751 -0.6239371 0.86666024 -0.08620066 -0.04435558 -0.46255025 0.45025253 -0.03779286
-0.2025213 0.01328344 0.00094681035 0.93569356 0.7272238 -0.6157743 -2.5044718 0.009732175
-0.024173757 0.29006243 0.010506887 -0.7961623 0.16987091 -0.4949837 0.045582097 0.18146323
0.16323712 0.91988003 0.007823179 -0.022517275 -1.1747739 -0.026217151 0.11002439 -0.034920327
-0.2996399 0.031158963 -1.2556399 0.08125359 0.14180656 0.15912776 -0.38726586 0.041614786
-0.47961298 -0.36421737 -0.071486756 0.19104992 -0.059649337 -0.034938317 0.011230283 -0.057214018
-1.5140702 0.7056116 0.0037418806 -1.530537 0.2588206 0.5117086 -0.26172787 -0.08161572
0.17397657 -3.8631315 0.2809249 -0.0512445 0.034428846 -0.9335847 1.2320497 -1.6934403
0.91813433 -0.46903715 0.00017190546 -0.021867214 -4.0136104 0.01545816 0.028154306 -0.009678561
-0.61301273 2.1358943 -0.058823884 -0.3257176 0.3021549 -0.27120957 -0.52840334 -0.3667397
-0.72856915 -1.3541938 -1.4690903 -0.083504446 -0.24876364 0.75226444 -0.76301646 0.033385336
0.5096698 -0.3544583 0.019386718 -0.9325007 0.22540142 -1.4881893 -0.058411777 -1.2462417
2.1185987 -1.2108121 -0.02628046 -0.030856803 0.022751838 -0.5320166 -0.7933948 0.805782
-1.2991786 0.024553807 -0.85115457 0.6477893 -0.6683563 -3.1210454 -0.053496066 -0.1749644
-3.4849977 -0.00049565546 1.3535947 -1.3707937 -0.19765212 -0.14787889 -1.3054345 -0.011598051
0.34125164 -2.9658523 1.1461412 0.17164561 0.60944265 0.13917668 1.2135649 0.09435601
0.5373056 -0.014765705 0.17112929 -0.2095769 0.17009857 -0.3675637 -0.009815747 0.7454504
00000000: c5dd 893f d071 55be 569f 5dbf a714 aabd
00000010: b506 7dbf 6f03 b83d db33 f9bc d74d 713d
00000020: 0ccc 89be 35f3 9f3e 16a5 bfbf 35bc 203f
00000030: 13fa 3dbf 9a88 94bd 9bd9 e4be dafe 92bf
00000040: 61b8 2a3f 1421 b33c bf75 3fbe 4be6 fabf
00000050: 18d4 91bf 0886 a03f fab3 a1bd ebd9 873f
00000060: 3cd9 87be 2a71 0dbe 8937 993f 48f3 22bd
00000070: bd01 85bd 9e2d 9d3f 17ab 3e3d 5dca 7d3f
00000080: 145d 0040 864f a83f feef cd3f ec15 7cbc
00000090: ecc8 123e e2ef 30bf 8df9 633e e840 583f
000000a0: 740b 6e3d 5f0c 62bf c65f 48bf d4df 31be
000000b0: 04b4 563e 57d4 a13e 3cbd 9abe 2b41 23bf
000000c0: fc65 dbbf bccc cfbf 5903 98be 6dd1 233f
000000d0: 0677 e6be f731 b33e 6e04 b13f d23f a3bf
000000e0: ae75 703d 59f9 e1be 9d83 52be fe27 d43d
000000f0: 5a6c 9abf 9361 9bbf 0e67 17bf 5e0a 3f3d
00000100: 446f a43e 36d9 ec3e 9026 2f3e f0ec 01c0
00000110: ac60 02bf 291d 13c0 0434 a73f 86c6 2c3e
00000120: 3663 ee3e 25fc 613c c542 6ebf 893f 943c
00000130: 1180 56c0 918d eb3c cd74 55bf 96cc 4f3f
00000140: c7c6 dfbe 3dfd 69c0 0448 94bf e43c 8c3e
00000150: 5076 a43f 8482 1d3f c015 2dc0 4a0a 503f
00000160: a811 d23e a9c3 dabf 70e9 ddbe efbc 3b3f
00000170: 8b3d b2bc 517f 2d3d bcd0 2fc0 2de6 153e
00000180: c0da cebc a963 a2bf db68 4bbf de5c e6be
00000190: 7d70 a1bc 5f33 8a3c a7e4 03bc 83e0 503c
000001a0: 7c8e f8be dd0e d9be bf3d 06bd c6a4 353f
000001b0: d32d c93b 6368 153f ab1f a43f ba3e e4bf
000001c0: c990 79be e017 e9bf 6801 463f 1e20 903e
000001d0: d9eb d5bf 0965 a5be 024d 74be 82b3 11bf
000001e0: 452b 673e 57ba 1fbf 72dd 5d3f f989 b0bd
000001f0: 32ae 35bd 63d3 ecbe 8087 e63e b0cc 1abd
00000200: be61 4fbe c9a2 593c 5e33 783a 9d89 6f3f
00000210: 572b 3a3f 62a3 1dbf 4449 20c0 b373 1f3c
00000220: 0b08 c6bc 1083 943e 1425 2c3c 4bd1 4bbf
00000230: a4f2 2d3e 816e fdbe 4bb4 3a3d 7fd1 393e
00000240: a227 273e 427d 6b3f ca2c 003c 2676 b8bc
00000250: fe5e 96bf 5ac5 d6bc 7854 e13d 9e08 0fbd
00000260: 676a 99be 1541 ff3c cfb8 a0bf 4868 a63d
00000270: bd35 113e 63f2 223e b647 c6be 4474 2a3d
00000280: d58f f5be b37a babe a667 92bd 97a2 433e
00000290: dd52 74bd 7b1b 0fbd 39ff 373c 3f59 6abd
000002a0: 0dcd c1bf f6a2 343f 573a 753b a3e8 c3bf
000002b0: 2284 843e 56ff 023f 3201 86be 2526 a7bd
000002c0: ea26 323e 8c3d 77c0 63d5 8f3e c1e5 51bd
000002d0: 4305 0d3d 68ff 6ebf ceb3 9d3f a7c2 d8bf
000002e0: da0a 6b3f a325 f0be 8541 3439 df22 b3bc
000002f0: 7f6f 80c0 3944 7d3c dca3 e63c d492 1ebc
00000300: 67ee 1cbf 7eb2 0840 50f1 70bd 75c4 a6be
00000310: 0cb4 9a3e fbdb 8abe 7145 07bf 4ec5 bbbe
00000320: 8283 3abf 3956 adbf 270b bcbf 6104 abbd
00000330: e5bb 7ebe 6794 403f 0c55 43bf 10bf 083d
00000340: b879 023f 8f7b b5be e5d0 9e3c 5eb8 6ebf
00000350: a1cf 663e fd7c bebf 3041 6fbd d984 9fbf
00000360: 1f97 0740 e4fb 9abf 1f4a d7bc 68c7 fcbc
00000370: 1062 ba3c 3d32 08bf ec1b 4bbf bb47 4e3f
00000380: 7c4b a6bf 1125 c93c 44e5 59bf 85d5 253f
00000390: 6619 2bbf 35bf 47c0 b11e 5bbd de29 33be
000003a0: 340a 5fc0 e0ee 01ba 9742 ad3f 2b76 afbf
000003b0: 5165 4abe 906d 17be 7a18 a7bf c005 3ebc
000003c0: 89b8 ae3e 86d0 3dc0 c1b4 923f dec3 2f3e
000003d0: 6f04 1c3f 5584 0e3e 1856 9b3f b93d c13d
000003e0: dc8c 093f dbeb 71bc 843c 2f3e 549b 56be
000003f0: 522e 2e3e 4f31 bcbe 3ad2 20bc d6d5 3e3f

fc2.bias f4 [300]
-0.6938136 -0.09532898 -0.011788257 -0.88532835 0.4042794 0.37705302 0.06872638 -0.17819716
-0.11883416 -0.9147307 -0.08928736 -1.6258413 -0.042892434 -0.7686344 -0.59128934 -0.14430873
-0.23442875 0.23261581 -0.114792116 -0.086828865 -0.16984214 -0.44247824 -0.06986167 -0.22865634
-0.113407016 0.044814326 0.07801158 -0.1975362 -0.04827255 -0.062430482 -0.0013396089 -0.7717731
-0.11843817 -0.7416783 0.20587815 -0.20597062 -0.117847435 -0.13506998 -0.13438383 -0.07562531
-0.1266925 -0.909025 0.11064223 -0.07902949 -0.17873876 -0.06257091 0.2236873 -0.10346709
-0.12428175 -0.8274788 -0.14269258 -1.676864 -0.38237345 -0.64273596 -0.14369309 0.60343605
-0.6722836 -0.15430747 -0.19464374 -0.3049916 -0.6134061 -0.21891853 -0.69269025 -0.26305294
-0.0436339 -0.041130375 2.1595018 -0.012731918 -0.0070705996 -0.004261237 -0.32823107 -0.160556
0.20939286 -0.10292643 0.06047915 -0.21547766 0.19600436 0.5063075 -0.11988844 -0.095189214
-0.009383441 -0.26009876 -0.1700549 -0.4492609 -0.027197974 -0.22046608 -0.60222745 -0.14724489
-0.6942333 -0.2027639 -0.10317129 -0.07658363 -0.005393333 -0.19720009 -0.26853383 -1.4578848
-0.98943686 -0.18173023 -1.0689535 -0.33036792 0.61639863 0.6157991 -0.21950611 -0.09678635
-0.18262751 -0.20008333 -0.8215852 -0.07235408 -0.42747676 0.036986772 -0.32123408 -0.019980548
-0.2556039 -0.18836522 -0.63694906 -0.72870666 0.00778067 -0.065267704 -0.030573552 -0.51622814
-0.885067 -0.32891122 -0.22877361 -0.574512 -0.17153478 -0.22679788 -0.110592835 -0.3344586
-0.153279 0.041335844 -0.042686917 -0.78666204 -0.13156724 -0.04691446 -0.00020099658 0.6981367
-0.07021075 -0.16428985 -0.06851266 -0.39557502 -0.34664574 -0.6434893 -0.10446901 1.5399538
0.98296255 -0.44206762 -0.09777704 -0.21390322 -0.13308467 0.5938914 -0.06651365 -0.1779533
-0.039015956 -0.30632555 -0.14751038 -0.14511687 -0.11471984 -0.88424194 -0.2110043 0.12690316
-0.26996812 -0.026522864 -0.027538005 -0.29516992 -0.6459309 -0.6309285 -0.07013611 -0.06839441
-0.8105824 -0.20893604 -1.2234128 -0.08417662 -1.278584 -0.5218203 -0.31928357 0.7090772
-0.4464014 0.31625903 -0.470698 -0.044392128 -0.9462639 -0.7974824 -0.050616056 -0.39188132
-0.09445507 -0.10462583 -0.17899492 0.013584738 -0.041303582 -0.22276981 -0.71060556 -0.15643395
-0.063875 -0.09528286 -0.11927618 -0.17433622 1.0744861 -0.5082485 -0.07702923 -0.1340963
-0.10948563 0.027199393 -0.08270758 -0.35043895 0.38670865 -0.20830949 -0.17163083 -0.3015569
-0.08116132 -0.2575611 -0.277703 -0.12144491 -0.06905707 -0.06031345 0.58893746 -0.28692353
0.424896 -0.086033605 -0.1792811 -0.052772548 -0.09477379 0.00052275386 -0.16197845 0.13142422
-0.2581605 -0.004035296 -0.11428475 0.43812376 -0.09653495 -0.13037874 -0.08978279 -0.6512628
-0.23008664 -0.13221626 -0.0014617265 -0.41400138 -0.24011168 -0.97416335 -0.02660849 -0.09700659
-0.093150936 -0.040076744 -0.24316679 -0.06621098 -0.60824573 -0.15856683 -0.09813653 -0.86373043
-0.065879196 -0.07256705 -0.094703965 -0.92015594 -0.055127554 -0.7705747 0.6411355 -0.089039326
00000000: c59d 31bf d73b c3bd 8923 41bc e1a4 62bf
00000010: b6fd ce3e 180d c13e 6bc0 8c3d 5179 36be
00000020: 535f f3bd cb2b 6abf 4bdc b6bd 911b d0bf
00000030: faaf 2fbd 39c5 44bf bd5e 17bf abc5 13be
00000040: 170e 70be d732 6e3e 2118 ebbd 55d3 b1bd
00000050: 19eb 2dbe 828c e2be a313 8fbd e324 6abe
00000060: f041 e8bd 3a8f 373d 89c4 9f3d ee46 4abe
00000070: 70b9 45bd 1bb7 7fbd d195 afba ec92 45bf
00000080: b68f f2bd a1de 3dbf b9d1 523e f6e9 52be
00000090: ff59 f1bd c94f 0abe ea9b 09be 71e1 9abd
000000a0: aebb 01be ddb5 68bf 6598 e23d 37da a1bd
000000b0: 4b07 37be 2d25 80bd 490e 653e 8ee6 d3bd
000000c0: 6e87 febd a7d5 53bf 011e 12be 7ba3 d6bf
000000d0: 74c6 c3be 588a 24bf 4824 13be c97a 1a3f
000000e0: c71a 2cbf c702 1ebe b050 47be dc27 9cbe
000000f0: 2f08 1dbf 2e2c 60be 2654 31bf e0ae 86be
00000100: 76b9 32bd 5378 28bd 4735 0a40 8999 50bc
00000110: 7db0 e7bb d9a1 8bbb e70d a8be cb68 24be
00000120: 156b 563e 18cb d2bd fcb8 773d 2da6 5cbe
00000130: 5eb5 483e 5e9d 013f 1288 f5bd 90f2 c2bd
00000140: 01bd 19bc aa2b 85be df22 2ebe 8605 e6be
00000150: 49ce debc dcc1 61be 942b 1abf 5dc7 16be
00000160: 46b9 31bf 57a1 4fbe 784b d3bd e1d7 9cbd
00000170: 8eba b0bb d2ee 49be 447d 89be f89b babf
00000180: bc4b 7dbf 7d17 3abe 78d3 88bf fc25 a9be
00000190: 4dcc 1d3f 03a5 1d3f 36c6 60be ec37 c6bd
000001a0: b502 3bbe a5e2 4cbe 6853 52bf 602e 94bd
000001b0: 3cde dabe 717f 173d cb78 a4be 3fae a3bc
000001c0: 84de 82be d0e2 40be 180f 23bf 858c 3abf
000001d0: fef4 fe3b 13ab 85bd 6375 fabc 8727 04bf
000001e0: c093 62bf 0d67 a8be a143 6abe 3813 13bf
000001f0: d0a6 2fbe b43d 68be 7f7e e2bd 283e abbe
00000200: 2cf5 1cbe c64f 293d 7ad8 2ebd af62 49bf
00000210: 90b9 06be 6029 40bd 9cc2 52b9 16b9 323f
00000220: a7ca 8fbd 993b 28be 5e50 8cbd cf88 cabe
00000230: 8d7b b1be b7bb 24bf d9f3 d5bd 351d c53f
00000240: 6fa3 7b3f b056 e2be 543f c8bd 7209 5bbe
00000250: 5947 08be 4409 183f 4f38 88bd 6439 36be
00000260: 32cf 1fbd b4d6 9cbe f60c 17be 8499 14be
00000270: 3cf2 eabd ae5d 62bf 8311 58be e7f2 013e
00000280: 4339 8abe 7a46 d9bc 6297 e1bc 8320 97be
00000290: ba5b 25bf 8884 21bf 85a3 8fbd 5e12 8cbd
000002a0: 5482 4fbf 54f3 55be ca98 9cbf cb64 acbd
000002b0: a4a8 a3bf 0496 05bf 2379 a3be 1586 353f
000002c0: b98e e4be b4ec a13e 54ff f0be 85d4 35bd
000002d0: 5a3e 72bf ce27 4cbf c852 4fbd aba4 c8be
000002e0: a971 c1bd 1146 d6bd 724a 37be 8592 5e3c
000002f0: f22d 29bd c51d 64be 3fea 35bf 3930 20be
00000300: e5d0 82bd a923 c3bd 1247 f4bd 3285 32be
00000310: c388 893f 931c 02bf 80c1 9dbd 8a50 09be
00000320: 013a e0bd 43d1 de3c 9762 a9bd bc6c b3be
00000330: adfe c53e 154f 55be febf 2fbe aa65 9abe
00000340: e837 a6bd 0cdf 83be 162f 8ebe 1cb8 f8bd
00000350: cb6d 8dbd 3c0b 77bd 9bc4 163f a4e7 92be
00000360: f88b d93e 6332 b0bd 7795 37be 0728 58bd
00000370: c318 c2bd 6b09 093a aedd 25be 1294 063e
00000380: 9d2d 84be 843a 84bb 1f0e eabd c251 e03e
00000390: 1eb4 c5bd 0182 05be 0ae0 b7bd 29b9 26bf
000003a0: d59b 6bbe b363 07be 6797 bfba fdf7 d3be
000003b0: d6df 75be c562 79bf 0cfa d9bc 64ab c6bd
000003c0: ebc5 bebd 8327 24bd b700 79be 9f99 87bd
000003d0: feb5 1bbf 585f 22be cefb c8bd 701d 5dbf
000003e0: aceb 86bd 099e 94bd 27f4 c1bd 578f 6bbf
000003f0: 6ecd 61bd 6244 45bf 7521 243f 405a b6bd

fc3.weight f4 [4, 300]
-0.029150259 0.07616064 -0.009791887 0.091337614 1.9541433 -0.74936545 -1.1742597 -0.07723175
-0.013527094 -0.7480468 9.040486e-06 -0.24397317 0.022084674 0.67619723 -0.16701934 0.0022853585
0.92032874 -0.7750646 -0.11196485 -0.0015903133 -0.08490452 0.54922634 0.015171781 -0.0850957
-0.044344347 -0.22001015 -0.07789614 0.00819153 0.0034960182 0.021289054 0.018633176 -0.711946
0.045815405 0.21739472 2.232306 0.16808549 0.019192562 0.06311914 -0.84942853 -0.033297483
-0.1664621 -0.8950308 2.4619875 -0.49847865 0.062775336 0.011298127 -1.2009401 -0.029575791
0.04073818 0.9605953 0.02396346 0.6156869 2.0613337 -0.19301723 0.061415624 0.76603043
-0.7394339 -0.03131471 0.02519858 -1.5890782 1.5732156 -0.009631259 1.2272166 -0.15451537
-0.03957221 0.023602344 0.18409242 0.01827116 0.008530814 0.8407131 1.5296671 0.96960974
-0.116728306 0.0071613053 -0.0685423 -0.32439718 0.60197884 1.3776127 0.011461934 0.00033415068
-0.032259602 -0.1332492 -0.4226896 1.2442824 0.0032096223 0.8262753 -2.116686 0.048521243
-0.14081351 0.0041834214 -0.06001634 -0.013549792 -0.034488995 0.11797957 0.53317434 -1.0085807
0.5931372 -0.61906755 -0.5437249 0.64879066 0.025669351 1.2375828 0.0567182 -0.13199368
-0.084381394 0.0047458783 -0.49378008 -0.04576242 0.7802279 0.7297896 -0.22786944 0.04180586
1.6672075 0.0556404 -0.07975602 0.26816112 0.02330367 0.013385298 0.2750961 0.26147035
0.37420422 0.176751 -0.048953865 0.71969926 -0.0024807795 0.5067549 0.012318002 1.2993808
-0.2731713 -1.0172138 -0.008999474 0.86896384 0.05217559 0.015761793 1.1625904 0.01415423
-0.019710025 0.03388342 -0.006154821 0.29382733 0.19457589 0.522065 0.26758033 0.012679416
1.4548811 1.4922807 0.0053704404 -0.12458696 0.019923003 1.3059512 -0.011195435 -0.045308422
-0.42493343 1.370057 0.21550484 -2.9219983 0.04868182 -0.7952506 0.16117649 0.2956625
-0.07005386 -0.045167558 0.2058406 1.7179967 0.40432924 0.56531006 0.04033213 0.025707789
-0.12833561 0.021045813 0.6477878 0.026941903 0.29472893 -0.67215544 0.44262752 0.94621325
0.7932625 -2.1362205 2.243953 0.026216941 -0.23024763 1.5131924 -0.025197523 -0.9465564
0.039871346 0.03390916 0.043405257 0.11692767 -0.040777713 -0.030179907 1.0562167 0.02494721
0.0049599954 -1.3366495 0.13592236 -0.06699059 0.18698041 -0.30903652 0.027161526 0.052696314
0.010290698 0.45552808 -0.029424245 0.61678916 1.0024494 0.0031152146 -0.07324703 -0.17450881
0.016029885 -0.1397012 -0.46128157 0.012190348 -0.0007310841 -0.105977535 0.7031736 -0.04084312
-0.18124613 -0.010537161 0.036940925 0.008141546 0.027217193 -0.00026154536 -5.1078907e-05 1.0472336
0.08009965 -0.019782458 0.0036529507 1.4938629 0.003584585 -2.043084 -0.026161296 -1.1545452
-0.07591142 0.011382118 -0.6785631 -1.9304322 0.7561561 2.1036782 0.03187182 0.017623922
-0.002809537 -1.4823469 0.20123935 -0.015047286 0.47135597 -0.05436038 -0.0053117773 -0.19341965
-0.042608455 -0.033823974 0.008972295 0.34598857 0.056846417 -1.2949339 1.8830621 -0.017497761
00000000: 86cc eebc 1cfa 9b3d 276e 20bc 370f bb3d
00000010: 5e21 fa3f 6ad6 3fbf 244e 96bf ae2b 9ebd
00000020: bfa0 5dbc ff7f 3fbf 97ac 1737 1ad4 79be
00000030: ebea b43c 431b 2d3f 1e07 2bbe f4c5 153b
00000040: aa9a 6b3f a26a 46bf d44d e5bd 0f72 d0ba
00000050: 6ce2 adbd 199a 0c3f 1093 783c a846 aebd
00000060: 6ba2 35bd 574a 61be 0388 9fbd c435 063c
00000070: 741d 653b 6266 ae3c 9aa4 983c 1842 36bf
00000080: efa8 3b3d b99c 5e3e 1ade 0e40 9a1e 2c3e
00000090: b839 9d3c 9c44 813d 2674 59bf f162 08bd
000000a0: 0a75 2abe bd20 65bf 3491 1d40 9838 ffbe
000000b0: 5b90 803d c71b 393c 68b8 99bf ee48 f2bc
000000c0: 14dd 263d 93e9 753f 054f c43c a89d 1d3f
000000d0: e4ec 0340 4fa6 45be f38e 7b3d 921a 443f
000000e0: 8a4b 3dbf da43 00bd 416d ce3c ea66 cbbf
000000f0: 215f c93f 6ecc 1dbc 6f15 9d3f 4739 1ebe
00000100: 7816 22bd b459 c13c b982 3c3e 66ad 953c
00000110: d4c4 0b3c f938 573f 22cc c33f 5838 783f
00000120: 400f efbd 62a9 ea3b e85f 8cbd 6317 a6be
00000130: 491b 1a3f 9d55 b03f d6ca 3b3c f230 af39
00000140: a522 04bd 7a72 08be c56a d8be a544 9f3f
00000150: 8758 523b c786 533f c977 07c0 36be 463d
00000160: 6b31 10be 1515 893b b2d3 75bd f2ff 5dbc
00000170: 5544 0dbd 469f f13d 1d7e 083f 2c19 81bf
00000180: d7d7 173f 367b 1ebf 8e31 0bbf 2517 263f
00000190: 8848 d23c 1d69 9e3f 5851 683d 5a29 07be
000001a0: 27d0 acbd 5083 9b3b bed0 fcbe 6071 3bbd
000001b0: 04bd 473f 7ed3 3a3f 9b56 69be 9f3c 2b3d
000001c0: 0e67 d53f 30e7 633d 2057 a3bd 6a4c 893e
000001d0: 57e7 be3c 024e 5b3c 65d9 8c3e 71df 853e
000001e0: b297 bf3e 37fe 343e d983 48bd 363e 383f
000001f0: 9394 22bb b0ba 013f 72d1 493c 1c52 a63f
00000200: 1cdd 8bbe 1034 82bf 8872 13bc 6a74 5e3f
00000210: 12b6 553d e01e 813c c3cf 943f 25e7 673c
00000220: eb76 a1bc 57c9 0a3d 61ae c9bb 8970 963e
00000230: e73e 473e 0da6 053f 4a00 893e 53bd 4f3c
00000240: 8b39 ba3f 0e03 bf3f 85fa af3b 7327 ffbd
00000250: 9135 a33c 6929 a73f 0f6d 37bc 5395 39bd
00000260: e090 d9be 075e af3f 4dad 5c3e 0502 3bc0
00000270: 9766 473d 8b95 4bbf 730b 253e 1361 973e
00000280: 6678 8fbd 9e01 39bd e1c7 523e 51e7 db3f
00000290: 3e04 cf3e 29b8 103f 4e33 253d 2499 d23c
000002a0: 696a 03be 4568 ac3c 6cd5 253f 44b5 dc3c
000002b0: b6e6 963e 6112 2cbf 13a0 e23e 083b 723f
000002c0: 4013 4b3f d6b7 08c0 ed9c 0f40 e9c4 d63c
000002d0: 09c6 6bbe 4ab0 c13f 096b cebc 8551 72bf
000002e0: 2350 233d 55e4 0a3d b6c9 313d c677 ef3d
000002f0: 8806 27bd da3b f7bc 1c32 873f 175e cc3c
00000300: 7587 a23b 5517 abbf 3b2f 0b3e 5d32 89bd
00000310: cb77 3f3e 093a 9ebe d981 de3c 17d8 573d
00000320: 519a 283c fa3a e93e 1d0b f1bc e5e5 1d3f
00000330: 4350 803f a128 4c3b 8a02 96bd 70b2 32be
00000340: 1b51 833c d50d 0fbe 192d ecbe 06ba 473c
00000350: 39a6 3fba c00a d9bd 2f03 343f 1e4b 27bd
00000360: 9698 39be 0ea4 2cbc 5e4f 173d 1e64 053c
00000370: 97f6 de3c 0620 89b9 8f3d 56b8 c00b 863f
00000380: 490b a43d d20e a2bc 5866 6f3b e636 bf3f
00000390: 5beb 6a3b e3c1 02c0 3750 d6bc 23c8 93bf
000003a0: 7277 9bbd 107c 3a3c 50b6 2dbf 6718 f7bf
000003b0: 7293 413f aaa2 0640 078c 023d 0b60 903c
000003c0: 3620 38bb 8bbd bdbf b011 4e3e e488 76bc
000003d0: 9255 f13e fda8 5ebd 6b0e aebb cd0f 46be
000003e0: 3486 2ebd 028b 0abd 8800 133c 6a25 b13e
000003f0: cad7 683d 65c0 a5bf 2e08 f13f 7757 8fbc

fc3.bias f4 [4]
0.39258316 0.9354065 1.9150324 -0.5261361
00000000: a900 c93e cd76 6f3f c81f f53f dbb0 06bf
