Char10 TD3/expTD3_BipedalWalker-v2.pyBipedalWalker-v2./actor_target.pth (torch_old, 527113 bytes, 6 tensors)

fc1.weight f4 [400, 24]
00000000: 6d3e b23f 96d9 0540 d2b6 33c0 fc83 e2bf
00000010: 4bd0 303e b67c 19bf e12c 9dbf 52a9 ab3e
00000020: c354 e8bf 76fe 0f40 fa6d e53e 3d08 02c0
00000030: b4cf cebe 648a 0540 d937 2bbf 4671 04bf
00000040: 2663 1dbf 3778 00bf 0934 0abf 7ae7 42bf
00000050: 5526 52bf e628 1bbf 1817 29bf 80e9 0dbf
00000060: dc4d 51be 6e51 0841 c79f fd3f 7755 c3c0
00000070: f2f6 1040 a508 14be dfaf 323f 3b43 d93e
00000080: fdb7 273f d919 4ec0 ea4b 8c3d 92d4 73be
00000090: bb10 943e 4433 603f d210 01bf 7d93 2cbf
000000a0: a1f9 14bf f3ea 1cbf 77e0 30bf 9cb8 c1be
000000b0: a762 a2be e306 cfbe 2fd9 c6bd 665f 293f
000000c0: a4c8 64bc f51c 0d3f 58d9 0540 1583 653f
000000d0: 49e5 54c0 4b4f 873e 4396 07c0 8e12 97bc
000000e0: 5c48 c7be c798 99bf bec0 653f 1ed3 f83f
000000f0: c5ff 9dbf f4dc 243f 9550 33bf fa78 44bf
00000100: d1bf 29bf 6cd9 6cbf 2747 76bf eb3a 41bf
00000110: 7062 2fbf dcca 63bf 4539 13bf a06a 61bf
00000120: 262a aa3d 684d 3abd f0a3 33be 2f8d 3cbe
00000130: a3ce e73d 4d22 143d 1947 40be 19ea 5bbe
00000140: 6388 61be 1da3 043e 1ca4 083e 980f 43bd
00000150: 421f 59bc 4477 0d3c e935 c0be b562 8cbe
00000160: 99f1 c7bd f008 38be 079e abbe 07f6 adbe
00000170: 5eaf 9cbe df27 a4be 59d7 42be 3e5a 99be
00000180: b12b 99be 68ee 07bf cd91 66c0 a4c8 0640
00000190: 4c4e 3bc0 6cf7 473f 6780 03c0 c8cf 513d
000001a0: a1e6 c13f 0090 4c40 181b 91be b453 973f
000001b0: 1b91 abbf ed49 1a40 236b a1bf f7e7 9cbf
000001c0: c2d4 97bf 5138 adbf 4a8c acbf 8548 8abf
000001d0: 54c8 87bf 436a a6bf 54a5 27bf a574 003d
000001e0: fc3c 743f c837 0040 6ade 04c0 6efa 0dc0
000001f0: 25a9 b23f 50b7 303f d696 073e 459e c63e
00000200: 9ddf 82c0 e586 b53e e441 743f bbf6 6ac0
00000210: be92 493e 11f1 bdbf a126 32bd 5876 bcbe
00000220: c285 4bbd 984f a5be ceef d4be c543 06be
00000230: 059a 04bf c597 0cbf 267a 5ebe b23f da3e
00000240: 41a3 5cbd c733 2b3e 6469 7bbe 638f 643e
00000250: 5b9d ed3b a53a 88bd bcab 813d 4789 bcbd
00000260: fcb4 0d3d 3bd7 67bd 5d51 023d 8013 c33d
00000270: ec6a 7e3b 34ef ffbd 5d2c 84be 35ea 04bd
00000280: 8594 05be 9650 1bbd f7c6 a6be ba38 5ebe
00000290: 598e 4abd 7e20 93bd b2ca 51be bf05 25bd
000002a0: 9eab 263d af8f 2dbe 2056 c7be 35f8 0a3f
000002b0: 792d ca3e 4500 0c3d e003 433d f85d c43d
000002c0: e810 c23d 8a12 eebd b802 4ebd 2ad4 613f
000002d0: fbae 753e 1db5 01be 68d4 b0be ba1d d6be
000002e0: 56b3 96be 81ee c4be 64a1 fabe 8b41 e2be
000002f0: f594 8dbe 718e c1be b77a a1be d7f5 a6be
00000300: 33dd adbe 308c c03e b0b3 593f 4602 ebbf
00000310: 70e2 36bf 6a4f 823f 550c b23f bc4a 983e
00000320: 2002 1740 4757 53bf c3c5 06bf 8141 993d
00000330: ebf5 573f 006e 80c0 faf0 adbe 361d aebe
00000340: 5527 b1be e848 2ebe e431 92be b2ad a7be
00000350: b3b2 56be 0f1e 39bd 9e5e 8abe 81a1 2dbe
00000360: 0f84 91be 1f33 24bf 98e0 4fbf de25 b63e
00000370: 631c 1abe e0a8 a73f c3ae b2be d177 d43e
00000380: 50c9 303e 1e86 bc3f 04a7 1cbf 7327 0840
00000390: b277 61bf c27e 273f 014e db3a 4ef2 943e
000003a0: a3f2 f73c af67 d63c b7a0 aa3c 9899 313d
000003b0: efa7 073e 3462 853e e0b2 debd dc07 1ebf
000003c0: b10b d43e 488d dfbf 6a6f d4be 8aa4 a0be
000003d0: 63ab 02c0 ced9 f43c 5115 7abe 943b acbf
000003e0: 84b8 7bbd d091 e23f d454 013f 574c 03bf
000003f0: 3510 8b3f 1a90 51c0 56f9 02bf de5a 0fbf
1.3925301 2.0914054 -2.8080335 -1.7696528 0.17266957 -0.5995592 -1.2279321 0.3352762
-1.8150867 2.249906 0.44810468 -2.0317528 -0.4039284 2.0865717 -0.6688209 -0.5173534
-0.61479414 -0.50183433 -0.5398565 -0.76134455 -0.8208974 -0.6060928 -0.66050863 -0.5543442
-0.20439857 8.51988 1.9814385 -6.1041827 2.2650723 -0.14456423 0.6979961 0.42434105
0.6551512 -3.2203276 0.06850417 -0.23811558 0.28919014 0.87578225 -0.5041629 -0.6741255
-0.58193403 -0.61296004 -0.69092506 -0.37836158 -0.3171589 -0.40434942 -0.09709393 0.6616119
-0.013963852 0.5512231 2.0913906 0.8965314 -3.3264945 0.26427683 -2.1185462 -0.018441465
-0.38922393 -1.1999749 0.89747226 1.9439428 -1.234368 0.6439965 -0.70044833 -0.76747096
-0.66308314 -0.9251926 -0.9620232 -0.75480527 -0.6850958 -0.88981414 -0.5750926 -0.8805332
0.083088204 -0.045483977 -0.17543006 -0.18413232 0.1131871 0.036165524 -0.18777122 -0.2147602
-0.22024684 0.12952848 0.13343853 -0.047622293 -0.013252081 0.008634392 -0.3754113 -0.27419057
-0.09762878 -0.1797216 -0.33519003 -0.33976766 -0.30602545 -0.3206167 -0.19027461 -0.29951662
-0.29916146 -0.53098154 -3.602649 2.1059961 -2.9266539 0.7811191 -2.054712 0.051223546
1.5148507 3.196289 -0.28340983 1.1822419 -1.3403658 2.410762 -1.261082 -1.225829
-1.1861804 -1.3532811 -1.3480313 -1.0803381 -1.060801 -1.3001179 -0.65486646 0.03136124
0.95405555 2.0034046 -2.076075 -2.21841 1.3957869 0.6902971 0.13241133 0.38792625
-4.0897965 0.3545448 0.9541304 -3.6713092 0.19684884 -1.4839193 -0.04349387 -0.3680904
-0.04968811 -0.32287288 -0.41589206 -0.1311179 -0.51797515 -0.5491908 -0.21726283 0.4262672
-0.05386663 0.1671897 -0.24551922 0.22320323 0.0072514242 -0.066518106 0.06331584 -0.09205871
0.03459643 -0.056601744 0.031815875 0.09525204 0.0038821055 -0.12496796 -0.25815096 -0.03244992
-0.13044937 -0.03791865 -0.32573673 -0.21701327 -0.04945216 -0.07183932 -0.20487478 -0.040288683
0.04069101 -0.16949342 -0.38932896 0.54284984 0.39487818 0.034179945 0.047611117 0.095882356
0.09475881 -0.1162463 -0.05029556 0.8821436 0.23992531 -0.12666745 -0.34537053 -0.41819555
-0.29433697 -0.38463214 -0.48951256 -0.4419063 -0.27652708 -0.37803987 -0.31538936 -0.32609436
-0.33957824 0.37606955 0.85039806 -1.8360069 -0.71439266 1.0180485 1.3910013 0.29744518
2.3595047 -0.8255505 -0.5264551 0.07483197 0.84359616 -4.0134277 -0.33972913 -0.3400666
-0.3460032 -0.17019999 -0.2855369 -0.32749707 -0.20966606 -0.04519468 -0.27025312 -0.1695614
-0.28421065 -0.64140505 -0.8120208 0.35575765 -0.15049891 1.3098412 -0.34898958 0.41497663
0.17264295 1.4728429 -0.61192346 2.1274078 -0.88073266 0.6542779 0.0016731621 0.29091114
0.030267065 0.026172487 0.020828588 0.04335937 0.13247655 0.26051486 -0.108739614 -0.6173074
0.4141517 -1.7464991 -0.41491252 -0.31375533 -2.0417106 0.029889014 -0.24422194 -1.3455682
-0.061455265 1.7700748 0.5052006 -0.5128836 1.0864321 -3.2744203 -0.51161706 -0.5599803

fc1.bias f4 [400]
00000000: e1ca c5be d145 1f3f c08a 51bf 8c81 013d
00000010: bdbd fa3e 7d82 843e 6add 54be b87e b1be
00000020: d017 df3c 6083 d1be 01fe 51bf 814f 873d
00000030: b58c a53e 6b76 61be 58bf a7be efa5 873e
00000040: 6ed5 18bf d263 52be 0ff5 29bf 4dd0 69bf
00000050: c353 19bf d3af d6be 3976 c1bd c327 3fbf
00000060: 0227 093e 2c4d 84bf 130d 3abf 3e71 91bf
00000070: db1e a5be 2c18 f9bd a8d4 bb3f 0d4c 03bf
00000080: 3779 5bbe 9ed2 ef3e b5cb adbe 5389 6bbe
00000090: e3ff e4be 7328 3e3f 1ee7 9abe 7a26 82bf
000000a0: d988 4dbe 0209 a93e a89c 5abf f35d 0ebc
000000b0: f4f9 9ebe 49af 99be 9c76 cabd e2e4 94be
000000c0: 5f0a 993d f58e 0ebf c05f c7bd 41f2 3a3e
000000d0: e71e 9abe 18f6 d83d 6bfa 64bf 472a dbbe
000000e0: 7879 9a3d 7bde b83e e338 e8be 3e74 093e
000000f0: 79f6 5ebf b875 12bf 757c 0fbf e50e 88be
00000100: 4dcb b9be 81a3 093f 8995 43bf 2f47 3f3d
00000110: 2f54 ce3e 7ce9 52bf abb5 77bd 0099 78be
00000120: 684c b6be 128b 59be 6507 2e3f b84e 39be
00000130: 8da6 003f da8a 55be 5755 e9be 0394 eabe
00000140: e0bb a7bc 445a 1fbf 83ee b6be 9211 06bf
00000150: 7689 5bbe 63a0 f2be 17f0 3bbf 2193 203c
00000160: bb63 48bf 5798 1fbe d38c 19bd 42b0 f73e
00000170: acf4 7fbe f328 6dbe 1d24 193f bae7 92be
00000180: 2c0c 7abe b586 483d 1a29 44be 5ed1 d9bd
00000190: 95f4 88be 9904 c9be f760 153e 2979 d33c
000001a0: 37fd 883d bebd d2be cd7e e9be 8fed 523d
000001b0: 46b1 94bd b72e a23d 9bc2 2a3e d4e7 023f
000001c0: 6b50 77bf cce4 febf 66df d4be 08e3 303e
000001d0: 5d2a 06bf 7cca 53bf 8d7b 95be 47bb bd3e
000001e0: 3695 c4be 5a13 ff3c 947a 4d3f 6699 8bbe
000001f0: c2db 5dbd 7507 13be c2ff 77be 9d97 88be
00000200: 9f22 46bf 16ae 9abd 8ea4 90be cdaf bfbe
00000210: 3088 5d3f 2665 2bbf e051 98bf 189c 36be
00000220: 8aca 38bd 1be1 803d fe42 3fbf 85ad 38bf
00000230: 65b3 e03d 62f7 80be 5e94 14be 1024 a13e
00000240: c193 5fbf 16c1 40bc 11cf bb3e 8334 e3bd
00000250: cee6 38bd dd64 85be 2544 efbe fb41 6abe
00000260: cb1a 4ebe 488d b3be 9ca9 59be c45f 7abf
00000270: 1fb5 d8bd 4332 613f 96e1 87bf 2eaa 9abe
00000280: 60e1 88bf a74d a2be c353 63be 2f43 b03e
00000290: 8ca7 0cbe 6fa6 a4be c21f e8be e49e 9ebe
000002a0: 1be6 e3be 7a9f 333f 95b5 86be d0af ff3c
000002b0: 9612 9b3f 6dfe eebe 669f a73e ac4a fabe
000002c0: dcbd 8fbd c674 273f 4361 ab3d 3084 31be
000002d0: 27ba abbe 98f2 a7be fcdf 293e a9de 8e3c
000002e0: 7866 98bf 9073 e8be fcae f5bd 87da a3bd
000002f0: 863b 123f cc3f f4bd d8e2 3ebe 64cc 77be
00000300: 6193 c2be 6b78 0abe 368a 94bf c8ea 5b3d
00000310: c283 1f3d a1e2 53bf 111e d83e d3f8 99bf
00000320: 4cbc 3abf 1608 45bf af3c 26bf 259f 8abd
00000330: fc89 f7be 25b4 0b3e 9fd6 943e 96ba b03e
00000340: 89cf fc3e 11e2 2fbf e1de c4bd 4e60 87bd
00000350: 58b5 37bf 74f8 44bf 1780 aabe 7312 0bbf
00000360: 1f1e 31bc a581 00be e1c5 dd3b efde a5be
00000370: e5d5 1d3d 45bc b9be c207 29bf 442e 8abe
00000380: 10be c7be 97e3 a8be 268b e63e 8228 953e
00000390: 2b9f 9bbf 300d d7be 06c0 9dbe 1744 ef3d
000003a0: 6dbe 84bf b5dc 80be e7cf 0f3f 2061 273f
000003b0: c73d a1be 4ba5 36bf 3073 e4ba 70a9 30be
000003c0: 2487 1dbe ebde 6a3f ada6 0cbf bafc 88bf
000003d0: e519 cd39 e5ee b33c f4b1 5d3e 2df6 05be
000003e0: dc3f debe da2b 50be f737 6b3e 9982 47be
000003f0: 554b 86be 8af8 98be 8678 92be 9bc8 54be
-0.38631347 0.62215906 -0.8185234 0.031617686 0.48972884 0.25880805 -0.20787588 -0.3466699
0.027233034 -0.40920544 -0.82028204 0.06606961 0.32333913 -0.22017829 -0.3276317 0.26493785
-0.5970067 -0.20545891 -0.66389555 -0.91333467 -0.59893435 -0.41931018 -0.09446377 -0.74670047
0.13393787 -1.0336051 -0.726762 -1.1362684 -0.32250103 -0.121628135 1.4674273 -0.5128792
-0.21432959 0.46840376 -0.3394448 -0.23001604 -0.44726476 0.7428047 -0.30254453 -1.0167992
-0.20071734 0.33014685 -0.8539529 -0.008689391 -0.31050074 -0.30016544 -0.09885904 -0.29080874
0.07472681 -0.55686885 -0.0973506 0.18256475 -0.30101702 0.10593814 -0.8944461 -0.42805693
0.075426996 0.3610724 -0.453559 0.13423249 -0.8709484 -0.57210875 -0.5604928 -0.26573864
-0.3628792 0.5376511 -0.7640005 0.046698745 0.40298602 -0.8238752 -0.060475986 -0.24277115
-0.35605168 -0.21244457 0.67980033 -0.18096435 0.50254136 -0.20853749 -0.45572922 -0.4581605
-0.020475328 -0.6224711 -0.35728845 -0.5237056 -0.21439156 -0.4738799 -0.73413223 0.009800703
-0.78277177 -0.15585457 -0.037487816 0.48376662 -0.24995679 -0.23160152 0.5982073 -0.28692418
-0.24418706 0.04895659 -0.19156304 -0.10635637 -0.267491 -0.3926132 0.1458777 0.02581461
0.06688922 -0.41160387 -0.45604554 0.051496085 -0.07260375 0.079190664 0.16675799 0.5113499
-0.96607083 -1.9913573 -0.4157669 0.17274106 -0.5240839 -0.8273084 -0.29195824 0.37056944
-0.3839509 0.031137157 0.80265164 -0.2726547 -0.054164656 -0.14358313 -0.24218658 -0.26678172
-0.7739658 -0.075527355 -0.28250545 -0.37438813 0.8653593 -0.66951215 -1.1899986 -0.17832983
-0.04511503 0.062929355 -0.74711597 -0.7213977 0.10971717 -0.25188738 -0.14509723 0.31472826
-0.8733483 -0.011764785 0.36681417 -0.11094 -0.045141988 -0.26053515 -0.46731678 -0.22876732
-0.20127408 -0.35068727 -0.21256107 -0.97802377 -0.10581421 0.8796732 -1.0615718 -0.30207962
-1.0693779 -0.3169987 -0.22199921 0.34426257 -0.13735789 -0.3215823 -0.4533673 -0.309806
-0.44511494 0.70165217 -0.2631041 0.031211764 1.2115047 -0.46678486 0.327388 -0.48885095
-0.07018635 0.6541256 0.083681606 -0.17335582 -0.3354046 -0.32802272 0.1658935 0.017440157
-1.1906271 -0.45400667 -0.11996266 -0.08000665 0.57122076 -0.11926231 -0.18641222 -0.24199063
-0.38003066 -0.13522498 -1.1604679 0.0536907 0.038944013 -0.82767683 0.4221044 -1.202906
-0.7294357 -0.76965463 -0.64936346 -0.06768636 -0.4834746 0.13642938 0.29069993 0.34517354
0.49377087 -0.68704325 -0.09612823 -0.066101655 -0.71761084 -0.7694161 -0.3330085 -0.54325026
-0.010810404 -0.12549455 0.006767974 -0.32396647 0.038534064 -0.3627645 -0.6602746 -0.26988423
-0.39012194 -0.32986137 0.45028037 0.29132468 -1.2157949 -0.4200225 -0.30810565 0.11682909
-1.0370613 -0.25168386 0.5617661 0.65382576 -0.31492445 -0.7134597 -0.0017429348 -0.17252135
-0.15383583 0.91746396 -0.5494183 -1.0702126 0.0003911994 0.0219645 0.21649915 -0.1308219
-0.43408096 -0.20329228 0.22970568 -0.19483413 -0.2622935 -0.2987712 -0.28607577 -0.2077965

fc2.weight f4 [300, 400]
00000000: dccf 893f f8cc 54be 68b9 5dbf 4714 aabd
00000010: ac06 7dbf dcd5 b63d c433 f9bc ab4e 713d
00000020: 4f06 89be 4df3 9f3e f5a3 bfbf 06b8 203f
00000030: 08fa 3dbf a588 94bd f008 e5be 92fd 92bf
00000040: 1eb9 2a3f 7721 b33c 7f76 3fbe 8ebb fabf
00000050: aed3 91bf 6785 a03f bfb3 a1bd 8cda 873f
00000060: bcee 87be cc71 0dbe 1637 993f 47f3 22bd
00000070: 44df 84bd ed2d 9d3f 98aa 3e3d c3ca 7d3f
00000080: f35e 0040 274f a83f f9ef cd3f ec15 7cbc
00000090: fdc8 123e c0ef 30bf 63f9 633e 9a40 583f
000000a0: bc0a 6e3d ebad 61bf 585e 48bf 29c1 31be
000000b0: 0ca2 573e 2ab7 a13e 3261 9abe 9f40 23bf
000000c0: 4a65 dbbf 89cc cfbf 0d04 98be eed1 233f
000000d0: 28bd e6be 7033 b33e 1004 b13f df44 a3bf
000000e0: 396a 713d aaf9 e1be 1283 52be 21de d33d
000000f0: 0c2c 9abf c561 9bbf 0667 17bf e809 3f3d
00000100: f939 a43e e25b ed3e b626 2f3e b1d9 01c0
00000110: 1134 02bf 961c 13c0 3256 a73f 1fc6 2c3e
00000120: ca63 ee3e 03fc 613c 3342 6ebf fd3f 943c
00000130: 2980 56c0 028e eb3c f974 55bf 50cd 4f3f
00000140: 29c7 dfbe a4f9 69c0 9548 94bf 343d 8c3e
00000150: 0279 a43f c28c 1d3f bc14 2dc0 e54d 503f
00000160: c911 d23e 92c3 dabf ca30 debe 5fbd 3b3f
00000170: 583d b2bc 517f 2d3d 3fd0 2fc0 e7e9 153e
00000180: 20db cebc 4e64 a2bf 5168 4bbf 8f58 e6be
00000190: 7d70 a1bc 1c34 8a3c 04fe f2bb 19e1 503c
000001a0: 248e f8be a2c8 d7be 5dfb 05bd d090 353f
000001b0: 002e c93b 4150 153f 6210 a43f 233e e4bf
000001c0: 8391 79be 5218 e9bf ff39 463f f93a 903e
000001d0: 10ea d5bf d665 a5be 5352 74be a5b3 11bf
000001e0: 5a2b 673e 5ade 1fbf cfcc 5d3f 2f8a b0bd
000001f0: d0ad 35bd e518 edbe e435 e73e 8ecc 1abd
00000200: 9a7d 4fbe 49a3 593c 8333 783a 528a 6f3f
00000210: 7663 3a3f 1ea3 1dbf 3f49 20c0 f573 1f3c
00000220: 23ad c6bc d785 943e 4ecc 3e3c 85d0 4bbf
00000230: 1ff2 2d3e 676d fdbe 87b4 3a3d e972 3b3e
00000240: 8397 263e 0f7a 6b3f 8ae2 0c3c 8875 b8bc
00000250: f65e 96bf 5ac5 d6bc 3f04 e43d 0d08 0fbd
00000260: ea29 99be fc40 ff3c 5d79 a0bf 6e68 a63d
00000270: a636 113e acd2 223e 0947 c6be 5e74 2a3d
00000280: 23c1 f3be 7f7b babe 1d68 92bd 79a2 433e
00000290: 8c52 74bd cd1a 0fbd c8fe 373c 6a59 6abd
000002a0: f1cc c1bf 67a3 343f 933a 753b 01e8 c3bf
000002b0: dd83 843e 94ff 023f 3a26 86be 7f25 a7bd
000002c0: a314 323e af3a 77c0 14b1 913e 42e5 51bd
000002d0: fc05 0d3d 43ff 6ebf 2daf 9d3f 438a d8bf
000002e0: cd3f 6b3f 0224 f0be f840 3439 4022 b3bc
000002f0: 866f 80c0 6344 7d3c 32a4 e63c d492 1ebc
00000300: a5ee 1cbf 1dcc 0840 ecf0 70bd 267f a6be
00000310: 7f94 9a3e 4ddb 8abe 9f42 07bf bcb9 bbbe
00000320: 1784 3abf 3669 adbf 7f0b bcbf 1f04 abbd
00000330: 64bb 7ebe a390 403f 2055 43bf adbe 083d
00000340: 3579 023f cf7b b5be 75d1 9e3c 2bb8 6ebf
00000350: 2bcf 663e 807c bebf e340 6fbd 5e84 9fbf
00000360: 5c97 0740 16f8 9abf ba49 d7bc 64c7 fcbc
00000370: 7f62 ba3c 3c27 08bf 3441 4bbf b256 4e3f
00000380: 5255 a6bf 6825 c93c 98e2 59bf 9307 263f
00000390: 3719 2bbf d1be 47c0 f91e 5bbd 0f2a 33be
000003a0: 0e0a 5fc0 25ee 01ba 2862 ad3f 6676 afbf
000003b0: b865 4abe c8de 15be fe18 a7bf c005 3ebc
000003c0: 5c67 b03e 35ba 3dc0 75b5 923f 86c4 2f3e
000003d0: 0d05 1c3f aa0f 0f3e ef73 9b3f 313d c13d
000003e0: c081 093f b4eb 71bc e038 2f3e ba9a 56be
000003f0: 0e2f 2e3e 9a22 bcbe f7d1 20bc 3b52 3f3f
1.0766559 -0.20781314 -0.8661103 -0.08304649 -0.98838305 0.08927509 -0.030420192 0.058912914
-0.26762626 0.3124031 -1.4971911 0.627808 -0.7420964 -0.072526254 -0.4473338 -1.1483634
0.66688716 0.021866543 -0.18697546 -1.9588487 -1.1392725 1.2540711 -0.07895612 1.061357
-0.26549327 -0.13812941 1.1969936 -0.03978279 -0.06487897 1.227964 0.04654941 0.99137515
2.0057952 1.3149155 1.6088859 -0.015386086 0.14334483 -0.6911583 0.22263102 0.84473574
0.058115706 -0.88156 -0.7826896 -0.17358841 0.2105791 0.31585056 -0.3015228 -0.6377048
-1.7140286 -1.6234294 -0.2969059 0.639922 -0.4506619 0.3500018 1.3829365 -1.2755393
0.058939192 -0.4413579 -0.20557812 0.10345102 -1.2044692 -1.2139212 -0.59141576 0.046640307
0.3207548 0.46359164 0.17104611 -2.0289118 -0.508607 -2.2986197 1.307318 0.16872452
0.46560508 0.013792994 -0.9306976 0.018096918 -3.3515723 0.028754238 -0.8338161 0.81172657
-0.43706635 -3.6558619 -1.158465 0.27390444 1.2849429 0.61542904 -2.7043905 0.8136886
0.41029194 -1.7090933 -0.43396598 0.7333583 -0.021757767 0.042357747 -2.7470853 0.14640008
-0.025250971 -1.268686 -0.7945605 -0.4498944 -0.019706959 0.01687055 -0.007415535 0.01274898
-0.48545945 -0.42145258 -0.03271042 0.7092409 0.006139517 0.5832558 1.28175 -1.7831463
-0.24371915 -1.8210547 0.77432245 0.28169993 -1.6712055 -0.32304257 -0.23859529 -0.5691474
0.22575131 -0.62448657 0.8664064 -0.086201064 -0.044355214 -0.46308056 0.45158303 -0.037792735
-0.20262757 0.013283559 0.0009468125 0.93570435 0.72808015 -0.6157702 -2.5044706 0.009732236
-0.02425248 0.29008362 0.01164539 -0.7961505 0.16986893 -0.4949753 0.04558232 0.18305553
0.16268735 0.9198312 0.008598933 -0.02251698 -1.174773 -0.026217151 0.111336224 -0.034919787
-0.2991479 0.031158917 -1.2537037 0.08125387 0.14181003 0.15900677 -0.3872607 0.041614883
-0.4760829 -0.36422345 -0.07148764 0.19104947 -0.059649035 -0.03493767 0.011230178 -0.05721418
-1.5140668 0.7056183 0.0037418946 -1.5305177 0.25881854 0.5117123 -0.2620104 -0.08161449
0.17390685 -3.8629568 0.28455412 -0.051244028 0.034429535 -0.9335825 1.2319084 -1.6917194
0.9189423 -0.46902472 0.0001719034 -0.021866918 -4.0136137 0.015458199 0.028154466 -0.009678561
-0.6130164 2.137458 -0.05882351 -0.32518882 0.3019142 -0.27120438 -0.5283603 -0.36665142
-0.72857803 -1.3547733 -1.4691008 -0.083503954 -0.24876171 0.752207 -0.76301765 0.033384968
0.509662 -0.3544602 0.019386986 -0.9324977 0.22539966 -1.4881744 -0.05841149 -1.246227
2.1186132 -1.210696 -0.026280273 -0.030856796 0.022752045 -0.53184867 -0.7939637 0.80601037
-1.2994788 0.02455397 -0.8511138 0.6485531 -0.6683535 -3.1210215 -0.053496335 -0.17496513
-3.4849887 -0.0004956446 1.354558 -1.3708007 -0.19765365 -0.14635766 -1.3054502 -0.011598051
0.34453857 -2.9644902 1.1461626 0.17164811 0.60945207 0.13970819 1.2144755 0.094354995
0.5371361 -0.014765669 0.1711154 -0.20957461 0.17010137 -0.3674515 -0.0098156845 0.7473485

fc2.bias f4 [300]
00000000: 0e50 31bf 593b c3bd 6923 41bc 59bf 62bf
00000010: 48fe ce3e 81d3 c33e f9e3 773d f078 36be
00000020: cc5e f3bd af85 6abf 28dc b6bd 721b d0bf
00000030: 6faf 2fbd 19c5 44bf 355f 17bf 56c5 13be
00000040: 940d 70be 5a33 6e3e 0b18 ebbd 18d3 b1bd
00000050: 17eb 2dbe 528d e2be fd12 8fbd 4b24 6abe
00000060: 7b41 e8bd d78f 373d 35c5 9f3d 7946 4abe
00000070: d9b8 45bd f4b6 7fbd a795 afba 8f47 45bf
00000080: c48f f2bd d809 3ebf 4542 553e 6ae9 52be
00000090: 9c59 f1bd 754f 0abe c59b 09be dee0 9abd
000000a0: 5dbb 01be e3b5 68bf ecf9 e53d 64f4 afbd
000000b0: 2007 37be eb24 80bd c898 723e 8ae6 d3bd
000000c0: 0c87 febd 5ad5 53bf e61d 12be 1e01 d6bf
000000d0: 4519 c2be 4f8a 24bf 9e23 13be d68c 1a3f
000000e0: 3f1a 2cbf 6e02 1ebe a950 47be 8a32 9cbe
000000f0: a607 1dbf f32b 60be c053 31bf 8dae 86be
00000100: c8b8 32bd c777 28bd 7885 0a40 3a99 50bc
00000110: 2bb0 e7bb f777 1cbc 6734 a8be b768 24be
00000120: c43c 5c3e f2ca d2bd a3b9 773d 9aa5 5cbe
00000130: ed2d 4b3e 811d fe3e ec87 f5bd e9f1 c2bd
00000140: aebc 19bc 0d2b 85be 8f22 2ebe d304 e6be
00000150: f2cd debc 7f5b 5fbe 14c6 1abf dec6 16be
00000160: 17ba 31bf c9a0 4fbe 124b d3bd 36d7 9cbd
00000170: d8b9 b0bb 31ee 49be 867c 89be 4f9c babf
00000180: 4cc8 7bbf 4718 3abe fdd2 88bf ff25 a9be
00000190: 0bcc 1d3f fb12 1b3f dbc5 60be 6937 c6bd
000001a0: a802 3bbe 71e2 4cbe 9f86 50bf 062e 94bd
000001b0: 22de dabe 0580 173d 5778 a4be ffad a3bc
000001c0: fddd 82be 91e2 40be adcd 23bf e88b 3abf
000001d0: 33f5 fe3b 65aa 85bd dc74 fabc e526 04bf
000001e0: bd75 63bf 5742 b0be 8b43 6abe 14a6 13bf
000001f0: d7a6 2fbe 933d 68be 7b7e e2bd ef3d abbe
00000200: e6f4 1cbe 0d3a 343d cfd7 2ebd 5962 49bf
00000210: 7db9 06be 6929 40bd 5ac2 52b9 672c 313f
00000220: 95ca 8fbd 9f3b 28be f54f 8cbd 1988 cabe
00000230: 987b b1be c0cc 26bf 8af3 d5bd 1f3f c63f
00000240: 881a 7b3f a356 e2be f13e c8bd 1a09 5bbe
00000250: 2547 08be 6ae4 143f 4d38 88bd e038 36be
00000260: 96ce 1fbd 5a03 a1be 660c 17be 0e99 14be
00000270: c3f1 eabd 725e 62bf f210 58be 9cf3 013e
00000280: cd38 8abe 5246 d9bc 3b97 e1bc ee1f 97be
00000290: af5b 25bf 1784 21bf 85a3 8fbd 3d12 8cbd
000002a0: 1883 4fbf c2f2 55be b698 9cbf 7764 acbd
000002b0: 6efd a2bf 4d95 05bf df78 a3be 075e 373f
000002c0: 9b8e e4be c6ec a13e fcfe f0be 18d4 35bd
000002d0: 4ce5 71bf b927 4cbf a952 4fbd 81a4 c8be
000002e0: 8971 c1bd 9245 d6bd 504a 37be 5893 5e3c
000002f0: cf2d 29bd 531d 64be 555a 35bf 3f30 20be
00000300: b5d0 82bd be4a c3bd d446 f4bd 3885 32be
00000310: e0ed 893f 3d1c 02bf cec0 9dbd fd4f 09be
00000320: 033a e0bd d9d1 de3c 2762 a9bd 786c b3be
00000330: 28ff c53e b24e 55be d7bf 2fbe 3566 9abe
00000340: 3737 a6bd 05df 83be 8780 8ebe 8cb7 f8bd
00000350: 1d6d 8dbd a40a 77bd 9f2a 173f 76e7 92be
00000360: 4d4b d73e e831 b0bd 5095 37be 9a27 58bd
00000370: b918 c2bd ac09 093a 5fdd 25be c494 063e
00000380: 252d 84be 6d3a 84bb a30d eabd 8ad6 e03e
00000390: 29b4 c5bd 4e01 0cbe 88df b7bd 573d 25bf
000003a0: 4b9b 6bbe 0563 07be 5097 bfba baf7 d3be
000003b0: 8c09 70be a462 79bf 02fa d9bc 09ab c6bd
000003c0: f0c5 bebd de27 24bd 3400 79be ed98 87bd
000003d0: b246 19bf d75e 22be 39fb c8bd c455 5ebf
000003e0: 7deb 86bd be9d 94bd 01f4 c1bd 8045 6ebf
000003f0: 23cd 61bd 6ba5 45bf 5ec9 223f b059 b6bd
-0.6926278 -0.09532804 -0.011788228 -0.88573223 0.40428376 0.38247302 0.060520146 -0.17819571
-0.118833154 -0.91610235 -0.0892871 -1.6258376 -0.042891916 -0.7686325 -0.5912965 -0.14430746
-0.2344268 0.23261777 -0.11479195 -0.08682841 -0.16984211 -0.44248444 -0.069860436 -0.22865407
-0.113406144 0.04481491 0.07801286 -0.19753446 -0.048271988 -0.062430337 -0.001339604 -0.77062315
-0.11843827 -0.7423377 0.20826061 -0.20596853 -0.1178467 -0.13506873 -0.13438328 -0.07562421
-0.1266913 -0.9090254 0.112293094 -0.08591536 -0.17873812 -0.062570415 0.23691094 -0.10346706
-0.12428102 -0.82747424 -0.14269218 -1.6719091 -0.37909904 -0.6427354 -0.14369056 0.6037115
-0.6722755 -0.15430614 -0.19464363 -0.30507308 -0.61339796 -0.21891765 -0.6926842 -0.26305047
-0.043633252 -0.041129854 2.1643963 -0.012731845 -0.0070705614 -0.009550086 -0.3285248 -0.1605557
0.21507555 -0.10292615 0.06047977 -0.21547547 0.19841738 0.49631885 -0.11988816 -0.09518797
-0.009383364 -0.26009408 -0.1700537 -0.44925556 -0.027197812 -0.21812247 -0.60458493 -0.147243
-0.69424576 -0.20276178 -0.10317053 -0.07658236 -0.005393248 -0.19719769 -0.26852816 -1.4578952
-0.98352504 -0.18173324 -1.0689389 -0.330368 0.6163947 0.60575837 -0.21950476 -0.096785374
-0.18262732 -0.20008256 -0.81455415 -0.07235341 -0.427476 0.036987323 -0.32123062 -0.019980429
-0.2555999 -0.18836428 -0.6398571 -0.7286973 0.007780695 -0.06526641 -0.030573301 -0.5162185
-0.8885153 -0.34425613 -0.22877328 -0.5767529 -0.17153488 -0.22679739 -0.110592805 -0.3344569
-0.15327796 0.044000674 -0.04268628 -0.7866569 -0.13156696 -0.04691449 -0.00020099562 0.6920838
-0.07021061 -0.16428994 -0.06851188 -0.3955696 -0.34664607 -0.65156174 -0.10446842 1.5488013
0.9808736 -0.44206724 -0.0977763 -0.2139019 -0.1330839 0.5816103 -0.066513635 -0.17795134
-0.039015375 -0.3144787 -0.14750823 -0.1451151 -0.11471894 -0.8842536 -0.21100214 0.12690586
-0.2699646 -0.02652279 -0.027537933 -0.29516548 -0.64593023 -0.6309218 -0.07013611 -0.06839416
-0.8105941 -0.20893386 -1.2234104 -0.084176 -1.2733591 -0.5218094 -0.31928155 0.7162785
-0.4464005 0.31625956 -0.47069538 -0.04439172 -0.94490504 -0.7974811 -0.05061594 -0.39188007
-0.09445483 -0.10462488 -0.17899442 0.013584934 -0.041303452 -0.22276811 -0.7084096 -0.15643404
-0.06387464 -0.0953574 -0.11927572 -0.17433631 1.0775719 -0.5082434 -0.0770279 -0.1340942
-0.10948565 0.027199673 -0.08270674 -0.35043693 0.3867123 -0.20830801 -0.17163025 -0.30156103
-0.08116 -0.25756088 -0.27832434 -0.12144384 -0.06905577 -0.060312882 0.5904941 -0.28692216
0.42049637 -0.08603269 -0.17928052 -0.052772142 -0.09477372 0.00052275765 -0.16197728 0.13142687
-0.25815693 -0.004035285 -0.11428382 0.4391368 -0.096535034 -0.13672373 -0.08978182 -0.6454672
-0.23008458 -0.13221367 -0.0014617238 -0.41399938 -0.23441142 -0.9741614 -0.02660847 -0.09700591
-0.09315097 -0.040077083 -0.24316484 -0.06620965 -0.598735 -0.15856491 -0.09813542 -0.8684962
-0.065878846 -0.072566494 -0.09470368 -0.930748 -0.055127274 -0.7720553 0.6358851 -0.08903825

fc3.weight f4 [4, 300]
00000000: cd29 efbc 1efa 9b3d be6e 20bc 3abc b53d
00000010: 0b22 fa3f f8d8 3ebf 8d4e 96bf 0e2b 9ebd
00000020: 29a1 5dbc 7d6b 3fbf 8eac 1737 b3d4 79be
00000030: 80ea b43c 0e1c 2d3f 7706 2bbe 9dc6 153b
00000040: 4a9b 6b3f 316a 46bf 3b4d e5bd 2972 d0ba
00000050: 7ee2 adbd 2c9a 0c3f d492 783c 4647 aebd
00000060: 18a2 35bd aa4a 61be 4588 9fbd 7535 063c
00000070: cb1c 653b bf65 ae3c 36a4 983c 5545 36bf
00000080: 48a8 3b3d 9e91 5e3e 3f8f 0f40 ee1e 2c3e
00000090: a639 9d3c 9d44 813d 6974 59bf 7d62 08bd
000000a0: 2675 2abe b320 65bf 2691 1d40 efc6 fdbe
000000b0: ba90 803d ef1b 393c 08e2 99bf ac48 f2bc
000000c0: d7dc 263d 5bea 753f 204f c43c 90c5 1c3f
000000d0: e0e2 0340 e0a6 45be ab8f 7b3d b650 443f
000000e0: cf4b 3dbf 6343 00bd f96c ce3c 2061 cbbf
000000f0: 385f c93f becb 1dbc ee14 9d3f e539 1ebe
00000100: 2f16 22bd 5159 c13c 0024 483e 9dad 953c
00000110: e4c4 0b3c 52d5 573f e1cb c33f 3438 783f
00000120: 6f6a ecbd e2a9 ea3b 5c60 8cbd 2f17 a6be
00000130: cad5 193f 1761 b03f a8ca 3b3c df30 af39
00000140: 3522 04bd e472 08be 916b d8be 1545 9f3f
00000150: e158 523b 1615 533f 638d 07c0 c9bd 463d
00000160: b531 10be 6415 893b b4d3 75bd b2ff 5dbc
00000170: 7c44 0dbd eb9f f13d 9c7e 083f a419 81bf
00000180: ebd4 173f be7a 1ebf 0432 0bbf f617 263f
00000190: ac5a d23c 58dd 9d3f e251 683d fc29 07be
000001a0: 7fcf acbd 9682 9b3b 24ba fabe 9771 3bbd
000001b0: 40bd 473f c7d3 3a3f d256 69be 263d 2b3d
000001c0: b167 d53f a3e6 633d 656e 8dbd 154c 893e
000001d0: 87e7 be3c da4d 5b3c 74d9 8c3e 84df 853e
000001e0: 9592 bf3e 8ff8 2a3e b183 48bd ac0e 393f
000001f0: f793 22bb 5cbb 013f 49d1 493c 8e52 a63f
00000200: e4dd 8bbe a92f 82bf 8672 13bc 1a74 5e3f
00000210: d2b5 553d 551e 813c becf 943f 8d3e 683c
00000220: cf76 a1bc 55c9 0a3d e8ae c9bb 2670 963e
00000230: 783f 473e 1d9d 053f 1401 893e 353c 3d3c
00000240: 69ae ba3f a703 bf3f 6ffa af3b fb27 ffbd
00000250: e734 a33c 1e5c a73f 776d 37bc cf95 39bd
00000260: 5191 d9be 9be9 ad3f a2ac 5c3e a702 3bc0
00000270: 8966 473d a095 4bbf 370b 253e 8d61 973e
00000280: c577 8fbd 2702 39bd d2c7 523e fae6 db3f
00000290: 8804 cf3e 16b8 103f 0f33 253d b999 d23c
000002a0: d569 03be 5e68 ac3c 8ed5 253f 01b6 dc3c
000002b0: ff5a 973e 6e12 2cbf daa0 e23e 83e1 703f
000002c0: 2913 4b3f 6cb8 08c0 449d 0f40 eac4 d63c
000002d0: 7842 50be d0b0 c13f a16a cebc 0b52 72bf
000002e0: 3e50 233d e5e3 0a3d b8c9 313d 9377 ef3d
000002f0: 0607 27bd dc3b f7bc eb30 873f a15d cc3c
00000300: 3e88 a23b 6c18 abbf e52e 0b3e 4d32 89bd
00000310: a3df 483e e639 9ebe 6281 de3c ead7 573d
00000320: ee9a 283c b33a e93e 7b0b f1bc 4de6 1d3f
00000330: 3950 803f 4829 4c3b fe01 96bd c0b1 32be
00000340: d550 833c 850d 0fbe 6e0d eabe 20ba 473c
00000350: 28a6 3fba f10a d9bd 409a 353f c64b 27bd
00000360: ac9c 30be bfa3 2cbc ce4e 173d dc64 053c
00000370: 59f7 de3c 8d1f 89b9 fa3c 56b8 450b 863f
00000380: be0b a43d 5f0e a2bc 2a67 6f3b 4ab3 be3f
00000390: 82eb 6a3b aeb5 02c0 ba4f d6bc 5a96 93bf
000003a0: a577 9bbd 477c 3a3c beb6 2dbf b318 f7bf
000003b0: b090 403f d4a2 0640 f58b 023d 9560 903c
000003c0: 5f20 38bb dfbd bdbf 5812 4e3e 2c88 76bc
000003d0: 700a ee3e 39a9 5ebd 3f0e aebb 3639 3abe
000003e0: 8e86 2ebd 9c8b 0abd 3d01 133c e053 a83e
000003f0: 42d8 683d f4c3 a5bf 9407 f13f f556 8fbc
-0.029194737 0.076160654 -0.009792028 0.08873792 1.9541639 -0.7454982 -1.1742722 -0.07723056
-0.013527193 -0.7477339 9.040477e-06 -0.24397545 0.022084475 0.67620933 -0.16701685 0.0022853978
0.9203383 -0.77505785 -0.11196371 -0.0015903163 -0.084904656 0.5492275 0.015171725 -0.08509688
-0.044344038 -0.22001138 -0.07789663 0.008191456 0.003495979 0.02128875 0.01863299 -0.7119954
0.045814782 0.21735236 2.243118 0.16808674 0.019192528 0.06311915 -0.8494325 -0.03329705
-0.16646251 -0.8950302 2.4619842 -0.49565837 0.062776044 0.011298164 -1.2022104 -0.029575668
0.040737953 0.96060723 0.023963511 0.61238956 2.0607224 -0.19301939 0.06141631 0.76685655
-0.739438 -0.031314265 0.025198447 -1.5889015 1.5732183 -0.009631095 1.2272012 -0.15451773
-0.039571937 0.02360216 0.19544983 0.018271262 0.008530829 0.84309876 1.5296594 0.9696076
-0.11543738 0.007161365 -0.068543166 -0.32439563 0.6009184 1.377963 0.011461891 0.00033415013
-0.032259185 -0.13325077 -0.42269567 1.2442957 0.0032096433 0.8245405 -2.1180046 0.048520837
-0.14081462 0.004183458 -0.06001635 -0.013549732 -0.03448914 0.1179808 0.5331819 -1.008595
0.5930926 -0.6190604 -0.5437319 0.6488031 0.025678001 1.2333174 0.056718715 -0.1319961
-0.08438014 0.0047457917 -0.4897014 -0.045762625 0.7802315 0.72979397 -0.22787026 0.041806363
1.6672269 0.055639874 -0.06905822 0.26815858 0.02330376 0.0133852605 0.27509654 0.2614709
0.3741652 0.1669638 -0.048953716 0.7228801 -0.0024807432 0.5067651 0.012317964 1.2993944
-0.27317727 -1.0170795 -0.0089994725 0.86895907 0.05217535 0.015761534 1.1625898 0.0141750695
-0.019709973 0.03388341 -0.0061548837 0.29382437 0.19457805 0.5219286 0.26758635 0.011549999
1.4584476 1.492299 0.00537043 -0.124587975 0.019922687 1.3074987 -0.011195532 -0.045308884
-0.4249368 1.3586916 0.21550229 -2.922037 0.04868177 -0.79525185 0.1611756 0.29566613
-0.07005266 -0.04516807 0.20584038 1.7179863 0.40433145 0.5653089 0.040331896 0.025708066
-0.1283334 0.02104586 0.64778984 0.026942255 0.29561612 -0.6721562 0.44263345 0.94094104
0.7932611 -2.1362562 2.2439737 0.026216943 -0.20337856 1.5132084 -0.025197329 -0.9465644
0.039871447 0.033908743 0.043405265 0.11692729 -0.040778182 -0.03017991 1.0561804 0.02494699
0.004960089 -1.3366828 0.13592108 -0.06699047 0.1961656 -0.30903548 0.027161304 0.052696146
0.010290844 0.45552596 -0.02942442 0.61679536 1.0024482 0.0031152535 -0.07324599 -0.17450619
0.016029755 -0.13970001 -0.4571337 0.012190372 -0.0007310831 -0.1059779 0.7093849 -0.040843748
-0.17247266 -0.010537087 0.03694039 0.0081417225 0.027217554 -0.00026154183 -5.1078365e-05 1.0472189
0.08010052 -0.019782243 0.0036529996 1.4898465 0.003584594 -2.0423388 -0.026161063 -1.1530259
-0.0759118 0.011382169 -0.6785697 -1.9304413 0.75220776 2.1036882 0.031871755 0.017624179
-0.0028095467 -1.4823569 0.20124185 -0.015047114 0.46492338 -0.054360602 -0.005311757 -0.18185887
-0.04260879 -0.033824548 0.008972463 0.32876492 0.056846865 -1.2950425 1.8830438 -0.017497519

fc3.bias f4 [4]
00000000: e15e c83e 0612 6f3f 1651 f53f 068f 06bf
0.39134887 0.93386877 1.916537 -0.52561986
