Char10 TD3/expTD3_BipedalWalker-v2.pyBipedalWalker-v2./critic_2.pth (torch_old, 529901 bytes, 5 tensors)

fc1.weight f4 [400, 28]
0	0x3c4a7fb5	0.012359549
1	0xbda13504	-0.0787144
2	0x3cd80aa6	0.026372265
3	0x3e0ec477	0.13942133
4	0xbd7a6737	-0.06113359
5	0x3d6235ed	0.05522721
6	0x3e522bbc	0.20524496
7	0x3d3d3c3e	0.04620003
8	0xbbc87c68	-0.006118346
9	0xbdc5e60a	-0.09663017
10	0x3d3f4ec2	0.04670597
11	0x3e7a2bed	0.24430819
12	0xbde0989b	-0.10966607
13	0xbdc9dc4b	-0.09856471
14	0xbe8db0c2	-0.27673918
15	0xbea58f84	-0.32336056
16	0xbee3f388	-0.44521737
17	0xbdedbe00	-0.11608505
18	0xbe3aa286	-0.1822606
19	0xbea380fe	-0.3193435
20	0xbecb958d	-0.39762536
21	0xbe65827f	-0.22413062
22	0xbe80c57b	-0.25150666
23	0xbe203afd	-0.15647502
24	0x3e4a0ae5	0.19730718
25	0xbe6f9183	-0.23395352
26	0xbcc33ffb	-0.02383422
27	0xbe378034	-0.1792
28	0xbda76681	-0.08173848
29	0xbe2f9ea4	-0.1715036
30	0xc078954a	-3.884112
31	0x402cc82b	2.6997173
32	0xbf93730c	-1.1519485
33	0x3d8eb821	0.069687136
34	0x3fefc379	1.8731529
35	0x3e7a224b	0.24427144
36	0x3d894ae8	0.0670374
37	0x3e2149e9	0.1575085
38	0xbd9e3fd7	-0.0772702
39	0xbe2a2dc0	-0.16619015
40	0x3e8214e3	0.2540656
41	0xbdc5d635	-0.096599974
42	0x3dd9074a	0.105970934
43	0x3e9e52a8	0.30922437
44	0x3e2934a9	0.16523995
45	0x3d578984	0.05262138
46	0x3ec962d2	0.39333206
47	0x3e644cc0	0.22294903
48	0x3efb763f	0.49113652
49	0x3f33e0b2	0.7026473
50	0x3f04ab6a	0.5182406
51	0xbdaca407	-0.08429723
52	0x3eda16c5	0.42595497
53	0x3ececfa6	0.40392798
54	0x3e83d71a	0.25750047
55	0x3eaccf66	0.33751982
56	0x3f9f46e7	1.2443513
57	0x412d8afb	10.846431
58	0xbfabcd05	-1.3421942
59	0x40b85d33	5.761377
60	0x3f60bde1	0.8778973
61	0x3ef50485	0.4785501
62	0xbe044657	-0.12917458
63	0x3e138117	0.14404713
64	0x3ecb5e25	0.39720264
65	0x3e911d5e	0.28342718
66	0x3f0a3c0e	0.53997886
67	0x3e931917	0.2873008
68	0x3e7e6d3b	0.24846356
69	0x3d3647a2	0.044501908
70	0x3f42ebb9	0.76140934
71	0x3f04bcf7	0.5185084
72	0x3f191ad2	0.5980655
73	0x3f5a5b73	0.8529579
74	0x3f33cc87	0.7023396
75	0x3f4f362e	0.80942047
76	0x3ef300d8	0.4746158
77	0x3f31a162	0.69386876
78	0xbe2f4f90	-0.17120194
79	0xbf2942d8	-0.6611762
80	0xbd7c79b5	-0.061639506
81	0xbc92cbd1	-0.017919453
82	0xbe9b70c1	-0.30359462
83	0xbe00f281	-0.12592508
84	0xbf2fe7e9	-0.6871324
85	0x3f2fd631	0.68686205
86	0x3faaabc1	1.3333665
87	0x3f9ef562	1.2418635
88	0x3eba6104	0.36402142
89	0xbf18464e	-0.59482276
90	0xbf71c8e1	-0.9444714
91	0x3fcc80ee	1.5976846
92	0xc05e50e5	-3.4736874
93	0xbfe2cf44	-1.7719502
94	0x3dd804e8	0.10547811
95	0xc0311398	-2.766821
96	0xbfefa960	-1.8723564
97	0xbe1717a2	-0.14755109
98	0xbff47eaf	-1.9101161
99	0xbff3cdda	-1.9047196
100	0xc004309d	-2.0654671
101	0xc0023b9f	-2.034889
102	0xbff25c97	-1.8934506
103	0xbfb92907	-1.4465646
104	0xbfc336d1	-1.5251104
105	0xbf806f13	-1.0033897
106	0xbf9f10ae	-1.2426965
107	0xbfe0f661	-1.7575189
108	0x3e958e94	0.2921034
109	0x3efd946e	0.49527305
110	0x3f7e9750	0.99449635
111	0x3fadd950	1.3581944
112	0xc04eb479	-3.2297652
113	0xbf18dced	-0.59712106
114	0x3f2bbe94	0.67087674
115	0x3f847467	1.0348023
116	0xbec40fc9	-0.38293293
117	0x3f2a1782	0.6644212
118	0xbf3f3ebf	-0.7470512
119	0x3f0b1122	0.5432302
120	0xbfa061d5	-1.2529856
121	0xc0096692	-2.1468854
122	0xbd8b1fd7	-0.06793182
123	0xbec16a6d	-0.3777651
124	0xbc2f1015	-0.010684987
125	0x3f9255f2	1.1432478
126	0xbf00b5d7	-0.50277466
127	0xbe40809c	-0.1879906
128	0xbe370f75	-0.1787699
129	0xbe91cf91	-0.28478673
130	0xbd4fa515	-0.050694544
131	0x3ae3cdab	0.0017380019
132	0x3d1116f0	0.035422266
133	0x3dcbda81	0.09953786
134	0x3d7d9f3a	0.06191943
135	0xbf6329c4	-0.88735604
136	0x3f6f757a	0.9353863
137	0x3f19b21c	0.600374
138	0x3f15e277	0.5854868
139	0x3f6172fd	0.88066083
140	0x3d183f32	0.037169643
141	0xbd09cc00	-0.033641815
142	0xbe8934d1	-0.26798108
143	0xbbd1751f	-0.0063921358
144	0xbd180ab4	-0.037119582
145	0xbda512c4	-0.0806022
146	0xbe199766	-0.1499916
147	0x3e1135e8	0.1418072
148	0xbe2982f6	-0.16553864
149	0xbe01a120	-0.1265912
150	0x3e19502d	0.14971991
151	0x3b8b0cdc	0.0042434763
152	0x3c15388d	0.009107721
153	0xbddc89e6	-0.107684895
154	0xbe8df374	-0.27724802
155	0xbe690359	-0.22755183
156	0xbe5275c8	-0.20552742
157	0xbe878e4d	-0.26475754
158	0xbee6adbb	-0.4505442
159	0xbeef9b76	-0.46798295
160	0xbe410501	-0.18849565
161	0xbe74c78e	-0.23904249
162	0xbebdca44	-0.3706838
163	0xbe3ae938	-0.18253028
164	0x3e1592fb	0.1460685
165	0x3bf1295e	0.0073596677
166	0x3e8dc8a9	0.27692154
167	0xbd52d907	-0.051476505
168	0xbdb3b047	-0.087738566
169	0xbe4b4b75	-0.19853003
170	0xbd2b2aaa	-0.041788734
171	0x3d86d379	0.06583304
172	0x3d0ccd2a	0.034375347
173	0x3e137226	0.14399013
174	0x3bb265d2	0.005444267
175	0xbb81c013	-0.0039596646
176	0xbda7304e	-0.0816351
177	0x3dc370b1	0.095429786
178	0x3e405aef	0.18784688
179	0x3d932395	0.07184521
180	0x3d144f71	0.036208574
181	0xbd42886c	-0.047493383
182	0xbeb7fe8b	-0.35936388
183	0xbed17c3a	-0.4091509
184	0xbe41c07f	-0.18921088
185	0xbea87011	-0.32898
186	0xbe63cce8	-0.22246134
187	0xbec2a10a	-0.38013488
188	0xbe8bb69f	-0.27287766
189	0xbd6cd82d	-0.05782335
190	0xbeb0a05d	-0.34497347
191	0xbe9bf95c	-0.30463684
192	0xbd8e1f17	-0.06939524
193	0x3de91559	0.11381025
194	0xbcbf13fe	-0.023324963
195	0x3c8efc80	0.017454386
196	0xbf0bb5c8	-0.5457425
197	0xbfb9e617	-1.4523343
198	0xbf8a88f9	-1.0823051
199	0xbf99f384	-1.202744
200	0x400cbfc2	2.199204
201	0xbf12b797	-0.57311386
202	0xc0612ff7	-3.5185525
203	0xbe80b87c	-0.2514075
204	0xbc022e99	-0.00794568
205	0x3f5dc573	0.8662941
206	0xbdb2f8a2	-0.08738829
207	0x3e5586be	0.20852181
208	0xbdc88c39	-0.0979237
209	0x3e7fcb3f	0.24979876
210	0xbf06e886	-0.5269855
211	0xbec6a3cb	-0.3879684
212	0xbe8cd223	-0.27504072
213	0xbe03d73f	-0.12875079
214	0xbdd4190a	-0.10356338
215	0xbdddf9bd	-0.108386494
216	0xbe91b19a	-0.28455812
217	0xbe66472a	-0.22488084
218	0xbe0ac55f	-0.13551854
219	0xbe3f84df	-0.1870303
220	0xbce7470f	-0.028232126
221	0xbf237082	-0.6384355
222	0x3d39ef5b	0.045394283
223	0xbc895f35	-0.016769031
224	0xbe65cae2	-0.22440675
225	0x3ec3d8c2	0.3825131
226	0xbf105d5f	-0.56392473
227	0x3e327d8c	0.17430705
228	0x3b70289b	0.0036645296
229	0x3eac065d	0.33598605
230	0x3f1c6f53	0.6110737
231	0x3f3451e9	0.70437485
232	0xbd94c677	-0.07264417
233	0xbdce5d1e	-0.100763544
234	0xbf11600a	-0.5678717
235	0xbe07eaee	-0.13273212
236	0xbf06d9b6	-0.5267595
237	0xbf7c7b79	-0.98625904
238	0xbf458455	-0.7715505
239	0xbf8596c8	-1.043664
240	0xbf81fdc8	-1.0155573
241	0xbf45623a	-0.77103007
242	0xbf40f382	-0.75371563
243	0xbf8dfbeb	-1.1092504
244	0xbf88418b	-1.0645002
245	0xbf7e6a6e	-0.9938115
246	0xbf4a6f60	-0.79076195
247	0xbf48e509	-0.7847448
248	0xbd97a91e	-0.074053034
249	0xbec8af4a	-0.39196235
250	0x3f13cf0f	0.5773782
251	0xbeff7c21	-0.4989939
252	0xc0178fc7	-2.3681505
253	0x400ffa47	2.2496507
254	0x40b7b2f7	5.7405963
255	0xc03dabc8	-2.9636097

fc1.bias f4 [400]
0	0xbe5027c1	-0.20327665
1	0xbf3edb3b	-0.7455327
2	0xbfa4a2c5	-1.2862173
3	0xbfdd4f74	-1.7289872
4	0xbf9c11df	-1.2192954
5	0xbe03a829	-0.12857117
6	0xbeb2e89b	-0.3494309
7	0x3de0a3d2	0.10968746
8	0xbef89cbe	-0.48557085
9	0x3d6641f9	0.05621526
10	0xbf1e4b0b	-0.61833256
11	0xbfce0187	-1.6094216
12	0xbf588d57	-0.8459067
13	0xbdd6d250	-0.10489333
14	0x3e3ca811	0.18423487
15	0xbf005348	-0.5012708
16	0xbfa7fc84	-1.3123937
17	0xbe8e74ad	-0.27823392
18	0xbfa41eac	-1.282186
19	0x3eb5d16c	0.3551134
20	0xbf3870a3	-0.7204687
21	0xbfb71aae	-1.4305017
22	0xbe881c67	-0.2658417
23	0xbf705708	-0.938828
24	0x3e118fac	0.14214963
25	0xbfab4538	-1.3380499
26	0xbe3d7de9	-0.18505062
27	0xbe7289c7	-0.2368537
28	0xbf9d6630	-1.229681
29	0xbf5408ca	-0.8282591
30	0xbfb1f1fb	-1.3901972
31	0xbe63065d	-0.22170396
32	0xbf9826c8	-1.1886835
33	0xbf8a8084	-1.082047
34	0xbec5ec8e	-0.3865704
35	0x3eeecc5d	0.46640292
36	0xbf40d3a2	-0.75322926
37	0xbd3cf763	-0.046134364
38	0xbf61ccc3	-0.88203067
39	0xbfb8a649	-1.4425746
40	0xbe6fdd7a	-0.2342433
41	0xbefc424f	-0.4926934
42	0x3dfcf218	0.12350863
43	0xbdb94014	-0.09045425
44	0x3e8a0652	0.26957947
45	0xbb24e378	-0.0025159996
46	0xbf15d91f	-0.58534425
47	0x3dbe6918	0.09297389
48	0xbe48b6e4	-0.19601017
49	0xbfc1c9d8	-1.5139723
50	0xbfb99ed4	-1.4501595
51	0xbf21c1f9	-0.63186604
52	0xbf2ec8db	-0.6827523
53	0xbeaa5a46	-0.33271998
54	0x3e8f25ec	0.2795862
55	0xbf54f71b	-0.83189553
56	0x3f118702	0.5684663
57	0xbe82ccf6	-0.25546998
58	0xbe56fb52	-0.20994309
59	0xbe7b695d	-0.24551912
60	0xbf7531a9	-0.957789
61	0xbfb5f3d8	-1.421504
62	0xbe70ec1b	-0.23527567
63	0xbf94a9a6	-1.1614273
64	0xbf55651c	-0.83357406
65	0xbf925e40	-1.1435013
66	0x3f6e4136	0.93068254
67	0x3db0de3d	0.086361386
68	0xbf804317	-1.0020474
69	0xbe86e1e0	-0.26344204
70	0xbf98ef3f	-1.1948012
71	0xbe93299d	-0.28742686
72	0xbfaa4177	-1.3301228
73	0xbff70f6b	-1.930158
74	0xbf31de09	-0.69479424
75	0xbf9100a8	-1.1328325
76	0xbf2ed067	-0.68286747
77	0xbf148959	-0.58022076
78	0xbfaf39fb	-1.3689569
79	0xbed39fb5	-0.41332784
80	0xbea2708d	-0.31726494
81	0xbf1583e9	-0.58404404
82	0xbe884028	-0.26611447
83	0xbf948422	-1.1602824
84	0x3d5c4886	0.0537801
85	0xbf2de5dd	-0.6792887
86	0xbe76d4b8	-0.24104583
87	0xbe003af0	-0.12522483
88	0xbfb2fbfa	-1.3983147
89	0x3f03e263	0.51517314
90	0xbf5a99e6	-0.8539108
91	0xbf8f1d91	-1.1180898
92	0xbf1984f4	-0.59968495
93	0x3c7a9920	0.015295297
94	0xbf300b76	-0.6876749
95	0x3caafd59	0.020872759
96	0xbf02e7ae	-0.51134765
97	0xbe50a2b4	-0.20374566
98	0xbe6bdb5e	-0.230329
99	0xbf14fc4c	-0.58197474
100	0xbf0d7a50	-0.5526476
101	0x3e3d428b	0.18482415
102	0xbfb88ff4	-1.4418931
103	0xbe72e002	-0.23718265
104	0xbf62fcb2	-0.8866683
105	0xbeb34077	-0.3501012
106	0xbf483a01	-0.78213507
107	0xbf7ec810	-0.9952402
108	0xbf790608	-0.9727483
109	0xbf0f61b7	-0.56008476
110	0x3fb41f92	1.4072134
111	0xbfbfd808	-1.4987803
112	0x3b8f1ad4	0.004367212
113	0x3e2a2161	0.16614296
114	0xbe811a74	-0.25215495
115	0xbe9fc512	-0.3120504
116	0xbfbe8b58	-1.4886274
117	0xbe31343a	-0.17305079
118	0xbedcf8d7	-0.431586
119	0xbef59551	-0.47965482
120	0xbf3bd6eb	-0.73374814
121	0xbdbe5fa9	-0.092955895
122	0xbf4b2bb0	-0.79363537
123	0x3f29f687	0.66391796
124	0xbfaddf3e	-1.3583753
125	0xbf54e33a	-0.8315922
126	0xbfbb0175	-1.460982
127	0xbe210b65	-0.15727003
128	0xbcd76655	-0.026293913
129	0x3cc4a562	0.024004642
130	0xbdca67fe	-0.09883116
131	0xbe464dbd	-0.19365592
132	0xbf712cf1	-0.942092
133	0xbf422361	-0.75835234
134	0x3ea2f36f	0.3182635
135	0xbf6c8826	-0.92395246
136	0xbf8e4b00	-1.1116638
137	0xbea1b830	-0.31585836
138	0xbf9398e4	-1.1531034
139	0xba50b2e8	-0.00079612294
140	0xbe37b9ec	-0.17942017
141	0xbf08120c	-0.5315254
142	0xbe2a5ed1	-0.16637732
143	0xbfbf3a57	-1.4939679
144	0xbf987f14	-1.1913781
145	0x3f17f926	0.59364545
146	0xbec5fe3b	-0.38670525
147	0xbd05bfed	-0.032653738
148	0xbf32fd2b	-0.69917554
149	0xbf843702	-1.0329287
150	0xbf8b5337	-1.088477
151	0xbe53b85c	-0.20675796
152	0xbebb77d1	-0.3661485
153	0xbe7139b6	-0.23557171
154	0xbf93e02d	-1.1552788
155	0x3e548c27	0.20756589
156	0xbf125af8	-0.5717006
157	0xc001b5e9	-2.026728
158	0xbf4c4c8f	-0.7980432
159	0xbf99840d	-1.1993424
160	0xbf0b07f9	-0.5430904
161	0xbf99eb6d	-1.2024971
162	0xbf734a4f	-0.9503526
163	0xbf4a3edf	-0.79002184
164	0xbe890179	-0.26758936
165	0xbf8a7ffa	-1.0820305
166	0xbea48fd7	-0.3214099
167	0xbfb49e9d	-1.4110905
168	0xbf69f8b5	-0.9139512
169	0xbe5e27f9	-0.21694936
170	0xbf89ec95	-1.0775324
171	0xbef7ba97	-0.48384544
172	0xbed77502	-0.42081457
173	0x3f3869d9	0.7203651
174	0xbf8d8b87	-1.1058205
175	0x3f384a66	0.71988523
176	0xbfeeb7ae	-1.8649805
177	0xbfc9bd34	-1.5760865
178	0xbf1cdc46	-0.6127361
179	0xbe42f444	-0.19038492
180	0xbf7894a1	-0.9710179
181	0xbec16d18	-0.37778544
182	0xbdef87a6	-0.11695795
183	0xbe5a2cc6	-0.21306142
184	0xbd8e17c4	-0.06938127
185	0xbea4b4bd	-0.32169142
186	0x3dc9e65a	0.09858389
187	0xbe8aa623	-0.27079877
188	0xbbe291b9	-0.006914344
189	0x3f1966d8	0.5992255
190	0xbf6c6da6	-0.9235481
191	0xbf445ad8	-0.76701117
192	0xbf59f30e	-0.851365
193	0xbf982603	-1.18866
194	0xbf29ff63	-0.66405314
195	0x3e739f21	0.23791172
196	0xbd200902	-0.03907109
197	0x3bd33b63	0.0064462884
198	0xbeae87c6	-0.34087962
199	0xbf51605e	-0.8178767
200	0xbe07be79	-0.13256253
201	0xbea0ff9a	-0.3144501
202	0x3f830dfd	1.0238644
203	0x3f033d7a	0.5126568
204	0x3ca54257	0.020173235
205	0xbe759db2	-0.23985937
206	0xbec881e2	-0.39161593
207	0xbf94917e	-1.1606901
208	0x3ef9f2e1	0.48818114
209	0xbfbbe934	-1.4680543
210	0xbf22a362	-0.6353055
211	0xbf4833ac	-0.78203845
212	0xbf7d2fa8	-0.9890084
213	0xbf8cb65a	-1.0993149
214	0x3e5dcb8f	0.21659683
215	0xbd1f6d98	-0.038922876
216	0xbf5fcc05	-0.87420684
217	0xbf3a48b6	-0.727672
218	0xbf3b1cd7	-0.7309088
219	0xbec6932f	-0.38784167
220	0xbfb3ace3	-1.4037136
221	0xbf93e2c7	-1.1553582
222	0xbe23ac94	-0.15983802
223	0xbe960e21	-0.29307655
224	0xbed51a51	-0.4162164
225	0x3cc6d6ad	0.024272287
226	0xbfa11761	-1.258526
227	0x3ed13f9c	0.40868843
228	0xbf88c06c	-1.0683722
229	0xbf30585a	-0.68884814
230	0xbe31c5e2	-0.17360643
231	0xbe7385e9	-0.23781551
232	0xbfb34fae	-1.4008691
233	0xbf1ceb6a	-0.61296713
234	0xbf01a181	-0.5063706
235	0xbfd768f7	-1.6828908
236	0xbf427a5b	-0.7596795
237	0xbf57ab89	-0.84246117
238	0xbf32ceb5	-0.6984666
239	0x3eaa94aa	0.33316547
240	0xbed5f295	-0.41786638
241	0xbe8ecac1	-0.27889064
242	0xbfb7df89	-1.4365093
243	0xbec52fe5	-0.38513103
244	0xbfa120f8	-1.2588186
245	0xbf26a3c9	-0.65093666
246	0xbfabe629	-1.3429614
247	0xbf97daaf	-1.1863612
248	0xbf82c73f	-1.0217055
249	0xbfbd554e	-1.4791658
250	0xbddbef25	-0.107389726
251	0xbf90dd38	-1.1317511
252	0xbe88a41c	-0.26687706
253	0x3ec7e55c	0.39042175
254	0xbf1def23	-0.6169302
255	0xbec6be3e	-0.38817018

fc2.weight f4 [300, 400]
0	0xbc800085	-0.015625248
1	0xbdd34686	-0.10316186
2	0xbee4c16f	-0.44678828
3	0xbd5091e3	-0.05092038
4	0xbec48483	-0.38382348
5	0x3d0fdb6d	0.03512137
6	0xbd2eda8d	-0.042688895
7	0x3e058f3c	0.13042921
8	0xbe23ecfe	-0.16008374
9	0xbea95d70	-0.330791
10	0xbe14ee9e	-0.1454415
11	0xbe8828a5	-0.2659351
12	0xbeb96a26	-0.36213797
13	0xbe37d46c	-0.17952126
14	0xbd686d8c	-0.056745097
15	0x3e7fe32c	0.24989003
16	0x3dc692cf	0.0969597
17	0x3e47c7d9	0.1950983
18	0xbe2dba87	-0.16965686
19	0x3dcfc16a	0.10144313
20	0xbf0c7bf7	-0.54876655
21	0xbe9f5ae8	-0.31124043
22	0x3da982e7	0.08276921
23	0x3e4e821b	0.20166819
24	0xbdc08cf3	-0.09401884
25	0xbc72c887	-0.014818317
26	0xbd0055b5	-0.031331737
27	0x3e8b832a	0.27248508
28	0x3d1ffa2c	0.039056942
29	0x3dc3d861	0.095627554
30	0xbe9754c8	-0.2955687
31	0x3e03953d	0.12849899
32	0xbf10f20d	-0.5661934
33	0x3d6bf64f	0.057607945
34	0x3edd676c	0.43242967
35	0x3d791062	0.06080664
36	0xbe198077	-0.14990412
37	0x3edd7e08	0.43260217
38	0xbe411afc	-0.1885795
39	0xbe679ac3	-0.2261763
40	0x3e3ecac3	0.18632035
41	0xbde84863	-0.11341932
42	0xbda02b45	-0.07820753
43	0xbea79ba8	-0.32735944
44	0x3de4773d	0.111555554
45	0xbe3f0e46	-0.18657789
46	0xbd6d04dd	-0.057865966
47	0xbc6bb8da	-0.014387334
48	0x3e365548	0.1780597
49	0xbe08e450	-0.13368344
50	0xbe185e04	-0.14879614
51	0x3e1aa35b	0.15101378
52	0xbe2401f3	-0.16016369
53	0xbe301863	-0.17196803
54	0x3de996b3	0.11405697
55	0xbe4266e4	-0.18984562
56	0xbe29ea07	-0.1659318
57	0xbd95fac6	-0.07323222
58	0xbd9b35c4	-0.07578614
59	0x3efa2a77	0.48860523
60	0x3d71407a	0.05889938
61	0xbf36ce53	-0.71408576
62	0xbe15bc41	-0.14622594
63	0xbce3a127	-0.027786804
64	0xbbc30964	-0.005952047
65	0x3d23ed22	0.04002107
66	0xbd66d4bd	-0.056355227
67	0x3d3a33ac	0.045459434
68	0xbdd3e9f7	-0.1034736
69	0x3dcec7ba	0.100966886
70	0xbe2a788c	-0.16647547
71	0xbe7e8152	-0.2485402
72	0xbda20ee7	-0.07912999
73	0xbeaca2f1	-0.33718064
74	0xbe9fb3bd	-0.31191817
75	0xbe42fc99	-0.19041671
76	0x3d012e49	0.03153828
77	0xbe5f89d4	-0.21829921
78	0x3ee44dbf	0.44590566
79	0xbe8e4ffd	-0.277954
80	0xba21f88b	-0.00061786984
81	0xbe908f8d	-0.2823452
82	0x3a76e96a	0.00094189367
83	0x3e708a83	0.23490338
84	0x3e800ea8	0.25011182
85	0xbdd304f9	-0.10303683
86	0xbc254cb5	-0.010089089
87	0xbdfc0215	-0.123050846
88	0xbed16998	-0.40900874
89	0x3df75ed1	0.12078632
90	0xbe6376ee	-0.22213337
91	0xbbf9e91d	-0.007626666
92	0xbebf79d7	-0.37397644
93	0x3e70e2aa	0.23523965
94	0xbe8406d8	-0.2578647
95	0xbd72effb	-0.059310894
96	0x3e525a82	0.20542338
97	0x3dc97e69	0.09838564
98	0x3de79840	0.11308336
99	0xbe0fc443	-0.14039712
100	0x3d7d80c7	0.06189039
101	0x3e29115d	0.1651053
102	0xbdaf20c4	-0.085511714
103	0xbd3e9c08	-0.04653552
104	0xbeefb56f	-0.4681811
105	0xbd604a91	-0.054758612
106	0x3d9b088d	0.0756999
107	0xbe9d510b	-0.30725893
108	0xbd44e53f	-0.04807019
109	0x3e1d7ec4	0.15380388
110	0x3cde4ece	0.027137186
111	0xbe72d824	-0.23715264
112	0xbe8f7035	-0.28015295
113	0x3c5b5239	0.013386303
114	0xbe688b4e	-0.2270939
115	0xbd119486	-0.035542034
116	0xbe1ebd03	-0.1550179
117	0xbc9fea65	-0.019520948
118	0x3d2fc966	0.042916678
119	0x3e1dc8c6	0.1540862
120	0xbe9e1345	-0.30874076
121	0xbe472616	-0.19448122
122	0x3d941f96	0.07232587
123	0xbddb1d40	-0.10698938
124	0xbdc88c60	-0.097923994
125	0xbda9267a	-0.08259292
126	0xbc867ffb	-0.016418448
127	0xbe920789	-0.28521374
128	0xbcbaf00d	-0.022819543
129	0xbc8a5b06	-0.016889106
130	0x3ddbabea	0.107261494
131	0x3ce73fb1	0.028228613
132	0xbf07fb5c	-0.5311792
133	0x3d1ff4bb	0.039051753
134	0xbe27d13d	-0.16388412
135	0xbedb0125	-0.4277431
136	0xbe3eb1f3	-0.1862257
137	0x3d4d13e6	0.050067805
138	0xbe3c3a5d	-0.18381639
139	0x3d395118	0.045243353
140	0xbe5c7d72	-0.21532229
141	0x3da49f00	0.08038139
142	0x3e14669e	0.1449227
143	0xbe165fb1	-0.14684941
144	0x3e258059	0.16162242
145	0xbdddcf13	-0.10830512
146	0xbe0e0ac8	-0.138713
147	0x3e6a232d	0.22864981
148	0xbe8ae765	-0.27129665
149	0xbe4e1306	-0.20124444
150	0xbe1fa315	-0.15589555
151	0x3ea0599a	0.3131836
152	0x3ce38f02	0.027778152
153	0xbe191507	-0.14949428
154	0x3dbf7440	0.09348345
155	0xbd3d808f	-0.04626518
156	0x3e294286	0.16529283
157	0xbd8eaefe	-0.06966971
158	0xbe3a5ba5	-0.18199022
159	0x3ecdb64d	0.40178147
160	0x3de919a5	0.113818444
161	0xbea0fda6	-0.31443518
162	0xbc487bed	-0.012236577
163	0xbb7ca437	-0.0038550028
164	0x3d958ba4	0.07302025
165	0xbdeaad20	-0.11458802
166	0xbdc8f437	-0.09812205
167	0x3d907d93	0.070552014
168	0xbd3c851c	-0.04602538
169	0xbe25b460	-0.16182089
170	0x3dfa4b76	0.12221424
171	0xbe1ae467	-0.15126191
172	0x3e48bb4b	0.19602697
173	0x3c2481ac	0.010040682
174	0x3cb10359	0.021608042
175	0xbf54e47a	-0.8316113
176	0xbcdbea95	-0.026845256
177	0xbe63c0b7	-0.22241484
178	0x3dd7cdf9	0.10537333
179	0xbea64b7b	-0.32479462
180	0x3e4e3332	0.20136717
181	0xbdf20ca2	-0.11818816
182	0xbd64c5a4	-0.055852547
183	0x3e7e2704	0.24819571
184	0x3e00bb6d	0.12571497
185	0x3d4f706f	0.050644334
186	0xbdc953ad	-0.09830413
187	0xbd29f779	-0.041495774
188	0x3ea59020	0.3233652
189	0xbddb4e48	-0.1070829
190	0xbe535ddd	-0.20641275
191	0x3e24e488	0.16102803
192	0xbd890253	-0.066898964
193	0xbeace99e	-0.33771986
194	0xbe0dbba7	-0.13841115
195	0xbdbad48a	-0.0912257
196	0x3e3529f3	0.17691784
197	0x3e4b2591	0.19838549
198	0xbd8847e0	-0.06654334
199	0xbefb053c	-0.4902743
200	0xbe06525a	-0.13117352
201	0x3dabae35	0.08382837
202	0xbb25c591	-0.002529476
203	0xbe72e184	-0.2371884
204	0xbe916e84	-0.2840463
205	0xbe089000	-0.13336182
206	0x3e3c78dd	0.1840548
207	0x3e5a8519	0.21339835
208	0xbe0ab349	-0.13544954
209	0x3d86d811	0.0658418
210	0xbe899637	-0.26872417
211	0x3b910bd2	0.004426458
212	0xbccafeee	-0.024779763
213	0xbd77c7b6	-0.060493194
214	0x3df83499	0.12119407
215	0x3e22d793	0.15902548
216	0xbd1feb82	-0.039042957
217	0xbeb97a99	-0.36226347
218	0xbdd0b940	-0.10191584
219	0xbeeca7cc	-0.4622177
220	0xbdb0b50c	-0.08628282
221	0x3cd2eb7d	0.025747055
222	0xbdcbc878	-0.09950346
223	0xbf01f26c	-0.5076053
224	0x3cd6e780	0.026233435
225	0xbbc4873c	-0.0059975665
226	0xbe376c86	-0.17912492
227	0x3d0a816a	0.033814825
228	0xbe20ae34	-0.15691453
229	0x3d02f84b	0.031975072
230	0x3d4ef7a5	0.05052914
231	0xbdd6c9fc	-0.10487744
232	0xbd52eb11	-0.051493708
233	0xbd895707	-0.06706052
234	0x3e0cc475	0.13746817
235	0xbec641bf	-0.38722035
236	0xbd0fa83b	-0.035072546
237	0x3e01b9f4	0.12668592
238	0x3e899318	0.26870036
239	0xbdc6881c	-0.096939296
240	0xbdd9d415	-0.106361546
241	0xbe0c828f	-0.13721679
242	0xbd3c09ac	-0.04590766
243	0xbded73c6	-0.11594348
244	0xbd133411	-0.035938326
245	0x3e5d8c43	0.21635537
246	0xbe192d1b	-0.14958613
247	0x3df2798c	0.118395895
248	0xbd489863	-0.048973452
249	0xbe057739	-0.13033761
250	0xbe2650ba	-0.16241732
251	0x3e2a25fb	0.16616051
252	0xbe3ae0bf	-0.18249796
253	0xbe1f22df	-0.15540646
254	0x3e648e81	0.22319986
255	0x3dd5fdad	0.104487754

fc2.bias f4 [300]
0	0xbcd3d00e	-0.025856044
1	0xbec8d340	-0.3922367
2	0xbe1596cd	-0.14608307
3	0xbded7d5d	-0.11596177
4	0x3a8b77c7	0.0010640555
5	0x3e7684af	0.24074052
6	0xbf00bd0d	-0.5028847
7	0xbd95b290	-0.07309449
8	0xbf7176f8	-0.94322157
9	0xbd5f715d	-0.05455147
10	0xbdd0dd44	-0.10198453
11	0xbe069265	-0.13141783
12	0xbe6e06d9	-0.232448
13	0xbde7700e	-0.113006696
14	0xbd7e6844	-0.062111154
15	0xbdeba91b	-0.11506864
16	0xbdac0485	-0.083992995
17	0xbda80cb1	-0.08205546
18	0x3fecb066	1.8491333
19	0x3f338311	0.70121866
20	0x3f0998e0	0.53748894
21	0xbd2fdde3	-0.042936217
22	0x3e127e2d	0.14305945
23	0x3d5f9e63	0.05459441
24	0x3f28b806	0.659058
25	0xbd997cf3	-0.07494535
26	0xbd7883cc	-0.060672566
27	0xbdfdf7a3	-0.124007486
28	0xbf19028e	-0.59769523
29	0xbcf32e1d	-0.029685074
30	0x401475d5	2.319692
31	0xbde33a57	-0.11095112
32	0xbd768836	-0.060188495
33	0xbe5e9fee	-0.21740696
34	0xbdeb6ba5	-0.11495141
35	0xbdb676b6	-0.08909361
36	0x3f222545	0.6333812
37	0x3ec1a0a6	0.37817878
38	0xbd7eba88	-0.06218961
39	0xbd9f2fee	-0.07772814
40	0xbe11c486	-0.14235124
41	0x3ff361f7	1.9014271
42	0xbd441080	-0.047867298
43	0xbe94d80c	-0.2907108
44	0x3f82ccc0	1.0218735
45	0xbe481075	-0.19537528
46	0xbe9a4446	-0.30130213
47	0xbdb97368	-0.09055215
48	0xbf5a0e94	-0.85178494
49	0x3dac4b5b	0.084128104
50	0xbea9d994	-0.3317381
51	0xbfd8b128	-1.6929064
52	0x3b336ae5	0.0027376947
53	0x3face5c6	1.3507621
54	0xbe1f3fe7	-0.1555172
55	0xbc9b4550	-0.01895395
56	0xbf93e165	-1.155316
57	0x3f6b7808	0.9198003
58	0xbc5fddc8	-0.013663717
59	0xbe0cbc52	-0.13743713
60	0xbc530b17	-0.012881062
61	0x3bea5703	0.007151486
62	0xbdec0aae	-0.115254745
63	0x3e2596a6	0.16170749
64	0xbd9369d7	-0.07197922
65	0xbf1d8540	-0.6153145
66	0x3e55d7aa	0.2088305
67	0xbdf5998a	-0.11992176
68	0x3eb321f8	0.34986854
69	0xbeed3905	-0.46332565
70	0x3f95436f	1.1661204
71	0x40008131	2.0078852
72	0xbce83b25	-0.028348515
73	0x3d52b0a3	0.051437985
74	0xbe1120cd	-0.14172669
75	0xbe4e1166	-0.20123824
76	0xbd86b0b5	-0.06576673
77	0xbbc7f461	-0.0061021303
78	0xbe1f814c	-0.15576667
79	0xbd6164af	-0.05502766
80	0xbe403003	-0.18768315
81	0x3f5bd4a6	0.8587135
82	0x3abfe093	0.0014639072
83	0xbc1e7319	-0.009670996
84	0xbddc6586	-0.107615516
85	0xbd8b494c	-0.0680109
86	0xbd8a2358	-0.067450225
87	0xbe5e2505	-0.2169381
88	0xbdf3eb2c	-0.1191009
89	0xbe9ccaaf	-0.30623385
90	0xbe83a525	-0.25711933
91	0xbd5ab379	-0.053393815
92	0xbe35107d	-0.17682071
93	0xbdd6d951	-0.104906686
94	0xbd9b1dc4	-0.07574037
95	0xbdc0c63b	-0.094128095
96	0xbde4373f	-0.1114335
97	0xbe0daf2b	-0.13836353
98	0xbc884e22	-0.01663882
99	0xbdf6509d	-0.120270945
100	0xbdec6a3f	-0.11543702
101	0x3ea7d74a	0.3278144
102	0xbe49cea2	-0.1970773
103	0xbdd2576b	-0.1027058
104	0xbd778676	-0.060430966
105	0xbe1b6923	-0.15176825
106	0x3eaf4831	0.34234765
107	0xbda99466	-0.08280258
108	0xbd6da56f	-0.058019098
109	0x3f18179c	0.59411025
110	0xbc5133af	-0.01276867
111	0x3e8f9122	0.28040415
112	0xbd3c9696	-0.046042047
113	0xbd6c7487	-0.057728317
114	0x3f410d6c	0.75411105
115	0xbdb987a6	-0.09059076
116	0xbdda1625	-0.10648755
117	0xbe433b3c	-0.19065565
118	0x3f99d363	1.2017635
119	0xbd3aca7f	-0.04560327
120	0xbd9763c0	-0.07392073
121	0x3f8d7675	1.1051775
122	0xbd6c8bc4	-0.05775048
123	0xbb996256	-0.004680912
124	0xbc7d69fd	-0.015467164
125	0xc0283833	-2.6284301
126	0xbdf2f81b	-0.118637286
127	0x3e05a15d	0.13049836
128	0xbd40e783	-0.047095787
129	0xbda9884c	-0.0827795
130	0x3d812033	0.0630497
131	0xbd4ad54b	-0.04951982
132	0xbd152630	-0.03641337
133	0xbd7c9478	-0.06166503
134	0x3e94038a	0.2890895
135	0xbdd9cf96	-0.10635297
136	0x3d63f963	0.055657756
137	0xbe54b0ad	-0.20770521
138	0xbe3850fc	-0.17999643
139	0xbe5af722	-0.21383336
140	0xbe031135	-0.12799533
141	0xbd9c9fce	-0.07647668
142	0xbdc5a0c4	-0.09649804
143	0xbca75f8d	-0.020431304
144	0xbddb3755	-0.10703913
145	0xbe92ec87	-0.2869608
146	0xbca19eb4	-0.019728996
147	0xbe67793c	-0.22604841
148	0xbde7af05	-0.11312679
149	0xbd1151a3	-0.035478245
150	0x3fc03cf2	1.5018599
151	0x400d49ec	2.2076368
152	0xbdbb2e41	-0.091396816
153	0xbce6d9d7	-0.028180046
154	0x3ebe5b9b	0.37179264
155	0xbdff825a	-0.124760345
156	0x3f6072bd	0.87675077
157	0x3f33159c	0.6995485
158	0xbe0fad16	-0.14030871
159	0xbe2a4bc1	-0.1663046
160	0xbdb6f335	-0.08933107
161	0x3cbd17a3	0.02308256
162	0xbe0b246a	-0.1358811
163	0xbe6447b7	-0.22292982
164	0xbd8412ca	-0.06448896
165	0xbe335e64	-0.17516476
166	0xbdadc058	-0.08483952
167	0xbdc0ccbd	-0.09414051
168	0xbda22c2e	-0.07918583
169	0xbd73fdb3	-0.05956812
170	0xbc8af250	-0.016961247
171	0xbdb34794	-0.08753887
172	0xbde7ece5	-0.11324481
173	0xbe4095a4	-0.18807083
174	0xbbe13dfb	-0.0068738437
175	0xbe0d796a	-0.13815847
176	0x3f0f75b7	0.56038994
177	0x3e808d29	0.25107697
178	0xbf86e793	-1.0539421
179	0xbd8bb8da	-0.06822367
180	0xbd211e4f	-0.039335545
181	0xbdd311e0	-0.10306144
182	0x3f3eb4fc	0.7449491
183	0xbd1f736b	-0.03892843
184	0xbddd4cf3	-0.108056925
185	0xbeb9f257	-0.36317703
186	0x3fab6e60	1.3393059
187	0xbe026d23	-0.12736945
188	0x3ce83ba5	0.028348753
189	0xbe04c9b5	-0.1296757
190	0x3bfc8ef3	0.0077074706
191	0x3cc373b8	0.02385889
192	0x3f1967cc	0.59924006
193	0xbca0609d	-0.019577319
194	0xbd899ba0	-0.06719136
195	0xbd3c86f9	-0.046027157
196	0xbda393de	-0.07987188
197	0xbd97b436	-0.074074194
198	0xbdd120d8	-0.102113426
199	0xbe00513d	-0.1253099
200	0xbe50b757	-0.20382439
201	0x3f78afe9	0.9714342
202	0xbd07cc85	-0.03315403
203	0x3f85c08e	1.0449388
204	0xbdc94a10	-0.098285794
205	0xbd0ecb0d	-0.034861613
206	0xbdc4324b	-0.09579905
207	0xbdee46c8	-0.11634594
208	0xbdc1e2d1	-0.0946709
209	0x3ddd98af	0.10820138
210	0xbd96dbf9	-0.07366175
211	0x3eb35720	0.3502741
212	0xbd9eddfd	-0.07757185
213	0xbcbffbf7	-0.023435576
214	0xbd946450	-0.072456956
215	0xbdb1e024	-0.086853296
216	0x3f56d97e	0.83925617
217	0xbcba7966	-0.022762965
218	0x3fd86f91	1.6909047
219	0xbd17fbff	-0.037105557
220	0xbd33da94	-0.043909624
221	0xbe5abdee	-0.21361515
222	0xbdcc50de	-0.09976362
223	0xbe8c95da	-0.27458078
224	0x3a159eec	0.000570758
225	0x3fd919f8	1.696105
226	0xbdaddc7c	-0.0848932
227	0xbde3afb0	-0.11117494
228	0xbfa84674	-1.31465
229	0x3e97a03a	0.2961443
230	0xbd0209b0	-0.03174752
231	0x3f9f00c4	1.2422109
232	0x3e4f49a4	0.20242935
233	0x3dd81a99	0.10551948
234	0xbdf54ab9	-0.11977143
235	0x3e3c2c5f	0.18376301
236	0xbda71eb7	-0.08160155
237	0xbdf76ae6	-0.12080936
238	0x3e8e81b2	0.27833325
239	0xbd2f488c	-0.042793795
240	0x3d705bef	0.058681425
241	0x3e1fd6fc	0.15609354
242	0xbcf5c4a6	-0.030000996
243	0xbdc101ac	-0.09424147
244	0x3e1118e5	0.14169653
245	0xbe10bed9	-0.14135303
246	0xbe00bc43	-0.12571816
247	0xbd27460f	-0.040838297
248	0xbdadcfb4	-0.08486882
249	0xbf4be9f8	-0.79653883
250	0xbd8716a9	-0.06596119
251	0xbc8eece9	-0.017446952
252	0xbdc022e3	-0.09381654
253	0xbdbfd15c	-0.09366104
254	0x3fcbbf00	1.5917664
255	0xbdbc289c	-0.09187433

fc3.weight f4 [1, 300]
0	0xbe0e440a	-0.13893142
1	0x3f1d3137	0.6140322
2	0xbecb0144	-0.39649403
3	0xbde995fc	-0.114055604
4	0x3b8e3b11	0.0043405374
5	0xc00889cb	-2.1334102
6	0x3f4a7eb4	0.79099584
7	0xbc025764	-0.007955406
8	0xbf0056be	-0.5013236
9	0x3c1c8da8	0.009555258
10	0xbc930692	-0.017947469
11	0x3c02db18	0.007986806
12	0xbbd2e5cd	-0.006436086
13	0xbec170b1	-0.3778129
14	0x3cc8cbde	0.024511274
15	0xbcb18f07	-0.021674646
16	0xbe595a4f	-0.21225856
17	0xbee65257	-0.44984695
18	0xbef5e67a	-0.48027402
19	0xbf82d471	-1.0221082
20	0xbeb1021f	-0.3457193
21	0xbe8e980c	-0.27850378
22	0xbf2f35c6	-0.68441427
23	0xbecd9ea7	-0.40160105
24	0x3ea51f38	0.3225038
25	0xbc89bfd2	-0.0168151
26	0x3ce3ceed	0.02780863
27	0xbc896ddf	-0.016776023
28	0x3f222071	0.6333075
29	0x3cff58ef	0.031170337
30	0xbe3e1157	-0.18561302
31	0xbbf8a20b	-0.0075876764
32	0x3b84681f	0.0040407325
33	0x3ed317ad	0.41229
34	0xbc0408e6	-0.008058762
35	0xbcd189a2	-0.025578324
36	0xbedb0a6d	-0.42781392
37	0xbef6765c	-0.48137176
38	0xbcf35ea7	-0.02970822
39	0xbcc3b19f	-0.023888407
40	0xc0047ed4	-2.070241
41	0x3e6c5753	0.23080187
42	0x3ccb20b6	0.024795871
43	0x3ee04bfa	0.43807966
44	0xbee6eb7a	-0.4510153
45	0xbe4635e8	-0.19356501
46	0x3e459a27	0.19297086
47	0x3ca3cd9a	0.0199955
48	0x3e413e4a	0.18871418
49	0x401135bb	2.2689044
50	0xbf1b0307	-0.60551494
51	0x3da19651	0.07889999
52	0x3c4c2eaf	0.012462302
53	0x3e99eb90	0.30062532
54	0xbcaef45b	-0.021356752
55	0xbec0654f	-0.37577292
56	0x3eb4f609	0.3534396
57	0xbf13d0d7	-0.5774054
58	0xbc81061b	-0.015749982
59	0x3c20066e	0.009767158
60	0xbbcc2faf	-0.0062312703
61	0xba7fa94f	-0.0009752707
62	0xbdd641f6	-0.104618
63	0x3e4f0c12	0.20219448
64	0xbb83d8dd	-0.004023655
65	0x3f3611f4	0.71121144
66	0xbf389ab1	-0.7211104
67	0x3c3a185e	0.011358349
68	0x3f9eb24e	1.2398164
69	0x3f0b008e	0.5429772
70	0x3e0accb6	0.13554654
71	0xbff61ab5	-1.92269
72	0x3cf7fba8	0.030271366
73	0xbec3502b	-0.381471
74	0xb7ce48c9	-2.4591007e-05
75	0xbf27908a	-0.65454924
76	0x3ca045af	0.019564478
77	0xbb52cd02	-0.0032165651
78	0xbcdf4d83	-0.02725864
79	0xbee259a2	-0.4420901
80	0xbd458071	-0.048218194
81	0xbe28927c	-0.1646213
82	0xbcd8c9eb	-0.02646347
83	0xbbd04ac0	-0.006356567
84	0x3b0ae8f4	0.002119598
85	0x3c9c1964	0.019055076
86	0xbcff4002	-0.031158451
87	0x3e1019dd	0.14072366
88	0x3baaed75	0.0052162954
89	0x3cfc408a	0.030792493
90	0xbf220774	-0.6329262
91	0xbe650228	-0.22364104
92	0xbd42e935	-0.047585685
93	0x3c7e3cc8	0.015517421
94	0xbcba1df3	-0.022719359
95	0xbc256d1b	-0.010096814
96	0xbc882fa7	-0.016624285
97	0xbd4ed40e	-0.0504952
98	0x3b33609f	0.0027370823
99	0x3c36643f	0.011132299
100	0xbd31aa4f	-0.04337531
101	0xbf0a33c9	-0.5398527
102	0xbdcb9719	-0.09940929
103	0x3cc0758c	0.02349355
104	0xbc51b956	-0.012800535
105	0x3b0d7de1	0.0021589922
106	0xbfb08e09	-1.3793346
107	0xbc53233a	-0.012886817
108	0x3ba9383f	0.0051641758
109	0xbf84ba5e	-1.0369375
110	0xbae5225d	-0.0017481555
111	0x3ea7f6f0	0.32805586
112	0x3c9b79c5	0.018978963
113	0x3b5e8730	0.003395509
114	0xbed921de	-0.4240865
115	0xb9043f5f	-0.00012612109
116	0xbc59c578	-0.013291709
117	0x3b4630a5	0.0030241397
118	0xc0450750	-3.0785713
119	0xbbdb8e1e	-0.0067002913
120	0xbc548648	-0.012971468
121	0xbf34e886	-0.706673
122	0x3c0a8faf	0.008457108
123	0xbc42cec2	-0.011890115
124	0x3c6cf0b1	0.014461682
125	0x3f17539f	0.5911197
126	0xbc16a2f2	-0.009194123
127	0xbf4d298b	-0.80141515
128	0xbb5c38fd	-0.0033603304
129	0xbc2a5e4d	-0.01039846
130	0xbc928c13	-0.017889058
131	0xbbeaff79	-0.007171568
132	0x3ede44ce	0.4341187
133	0x3f7a6aff	0.97819513
134	0xbf1e1d9a	-0.6176392
135	0x3c510a9d	0.012758878
136	0xbf4c4db4	-0.79806066
137	0xbd357d7e	-0.04430913
138	0xbacb718a	-0.0015521508
139	0xbf159eec	-0.5844562
140	0xbcfc13c1	-0.030771138
141	0xbced8a62	-0.02899665
142	0xbc907841	-0.017635467
143	0xbcebef1c	-0.02880054
144	0xbb917212	-0.004438647
145	0xbf0d8b3f	-0.552906
146	0x3c9f0e8f	0.019416122
147	0x3e9bf972	0.3046375
148	0xbb402b96	-0.0029322854
149	0xbcf7947c	-0.03022217
150	0x3e575a36	0.21030506
151	0xbf0cd80e	-0.55017173
152	0x3cd3e676	0.025866728
153	0xbc0c80aa	-0.008575598
154	0xbd9bfdbe	-0.07616757
155	0x3b0e5a9e	0.0021721493
156	0xbec9c1e9	-0.39405754
157	0xbe69b8a2	-0.22824338
158	0x3f22c847	0.6358685
159	0xbcf51a3c	-0.029919736
160	0xbdcdf638	-0.10056728
161	0xbe9828db	-0.2971867
162	0xbeaaccd3	-0.33359393
163	0xbeb4c31c	-0.35305107
164	0x3cf8d701	0.03037596
165	0x3b477ca1	0.0030439275
166	0x3ca4e6b0	0.020129532
167	0x3cbfe25a	0.023423363
168	0x3c5558e3	0.0130216805
169	0xbda50636	-0.08057825
170	0x3bd0e9b4	0.006375516
171	0xbcc7dd1f	-0.024397431
172	0xbcc4fa38	-0.024045095
173	0xbe81c862	-0.25348192
174	0x3ce27ad8	0.027646467
175	0xbbadd4af	-0.005304895
176	0xbe8af30d	-0.27138558
177	0xbeab48a2	-0.33453852
178	0x3ea7bd74	0.3276173
179	0x3c4dc498	0.012559079
180	0xbd449358	-0.04799208
181	0x3c789b57	0.015173755
182	0xbf0a089c	-0.53919387
183	0xbbbfe096	-0.00585563
184	0xbcff41ec	-0.031159364
185	0xbf28aa17	-0.65884537
186	0xbf0d741e	-0.55255306
187	0xbe74f9a8	-0.23923361
188	0x3b09016b	0.0020905386
189	0x3bd34462	0.006447361
190	0xbae1d19a	-0.0017228604
191	0xbeaac9b4	-0.33357012
192	0xbf7ead85	-0.9948352
193	0x3cc85067	0.024452401
194	0xbf209950	-0.62733936
195	0x3b103af1	0.0022007788
196	0x3be1da2d	0.0068924637
197	0xbcb427fc	-0.021991722
198	0xbc09647a	-0.008385772
199	0xbda0d9de	-0.07854055
200	0x3d43c713	0.047797274
201	0xbeb6d1ae	-0.35706848
202	0xbb7ddbfc	-0.0038735857
203	0xbfdb176b	-1.7116522
204	0xbe5c9f46	-0.21545133
205	0xbbbf689c	-0.005841328
206	0xbbb7ebb9	-0.005612817
207	0x3ccb5895	0.024822513
208	0xbf4d1abb	-0.8011891
209	0xbf8b3be8	-1.0877657
210	0x3b267496	0.002539908
211	0xc036ba4d	-2.855121
212	0x3c297f35	0.01034527
213	0xbc9a0118	-0.01879935
214	0xbca59901	-0.02021456
215	0x3cd77c1b	0.026304295
216	0xbed64a9d	-0.418538
217	0xbe9b6aa4	-0.30354798
218	0x3e25798f	0.16159652
219	0xba7e417c	-0.0009699089
220	0xbca94263	-0.020661538
221	0x3cf8ae36	0.030356508
222	0xbee5939d	-0.44839182
223	0x3edfa3ca	0.4367965
224	0xbbe5a0a8	-0.007007677
225	0xbf71e16f	-0.9448461
226	0x3cd5f643	0.026118403
227	0xbc7107e4	-0.014711354
228	0xbf37a0c6	-0.71729696
229	0xbef17737	-0.47161266
230	0x3c46ba15	0.012129326
231	0x3e24d982	0.16098598
232	0x3f0e23e8	0.5552354
233	0x3e3f8b65	0.18705519
234	0xbc87be0b	-0.016570112
235	0x3f0421ba	0.5161396
236	0x3aa8e3f7	0.0012885322
237	0x3b872149	0.004123841
238	0xbec921ff	-0.3928375
239	0xbca731ad	-0.02040943
240	0xbe871bca	-0.2638839
241	0x3e526502	0.20546344
242	0x3b058619	0.0020374118
243	0xbc21e857	-0.009882054
244	0xbf44305e	-0.766363
245	0xbda98b95	-0.08278576
246	0xbb475e0f	-0.0030421054
247	0x3cf4f826	0.029903483
248	0xbcdccf70	-0.026954383
249	0x3efa47ef	0.48883006
250	0x3cf50e6a	0.0299141
251	0x3c986d01	0.018606665
252	0x39d53dd3	0.00040672589
253	0xbe5da227	-0.21643887
254	0x3ea09ea5	0.31371036
255	0x3cd84398	0.026399419
