Char10 TD3/expTD3_BipedalWalker-v2.pyBipedalWalker-v2./critic_1_target.pth (torch_old, 529901 bytes, 5 tensors)

fc1.weight f4 [400, 28]
-0.83840567 -1.2745512 -1.0510098 0.6876178 0.15638934 -0.47840226 1.0458121 -1.1294733
-0.59687555 0.64511955 -0.40783027 -1.2095821 -0.48310503 1.9211429 -1.6848462 -2.0075939
-1.8422264 -1.9380231 -1.9105573 -1.876678 -1.8691677 -1.8917222 -1.7945427 -1.2343299
0.08433544 0.3568444 0.92329466 -0.38820842 0.67413336 0.45445105 0.58214104 -4.6552935
0.36818922 0.61594146 -0.78047746 0.105356336 1.5489438 -1.8966014 0.74443877 2.4851959
1.0380114 0.54098487 -0.97516483 -1.1405332 -1.1234407 -1.0275681 -1.0424434 -1.1024423
-0.85654706 -1.1403567 -0.28476253 -0.22363646 0.04130459 -0.2140324 -0.9141805 0.6194073
-0.061402902 0.0589375 0.016143002 0.035246126 0.013796905 0.040074106 -0.1630591 -0.008128871
-0.13474408 0.10520602 0.10690177 -0.019293109 0.032022256 0.17098054 -0.21802059 0.016305424
-0.11673357 -0.05308879 -0.13626976 -0.19895901 -0.06540201 -0.26421276 -0.29556483 -0.19560625
-0.058698338 0.06491622 -0.043107238 -0.10354454 2.3919613 3.5362072 -0.9815177 -0.92490643
1.2227925 0.52695596 0.35982263 0.49729759 0.26087734 0.684035 0.8443452 0.24975401
-0.21458127 -1.6795056 -1.3798864 -1.2025731 -1.3454161 -1.3649088 -1.1843841 -1.1232988
-1.2657317 -1.39419 -1.1875014 -0.97631097 -0.18690996 -0.270909 0.4077165 0.08612027
-0.44673124 -9.464729 1.0697758 7.007771 -0.35112557 -0.488527 -1.3691089 -0.50719833
-0.35983467 -0.883649 -0.26605338 -0.5701474 -0.122772716 -0.15584245 0.27824375 0.43202987
0.4524324 0.5151589 0.4311664 0.26537213 0.5379546 0.3536536 0.3246174 -0.5727147
0.5392381 -0.3481087 -0.29304168 -0.24153486 -1.1176009 -1.8079517 -1.8632199 -2.620389
0.42232868 -0.5631222 -3.8900678 0.81001717 -0.11826375 -2.6369777 0.36687434 1.1007785
-0.36485904 -0.116953775 -1.0925883 -1.3210961 -1.1780422 -1.314063 -1.2807732 -1.0487323
-1.1056321 -1.3948295 -0.5635415 -0.7641364 -1.1841648 -0.693057 -0.9516401 -0.9024143
-1.0851444 -1.9967009 -2.68339 -1.0680306 -1.6267643 -0.5247947 2.8190894 -0.3258273
-1.9305747 1.2930402 -0.78680336 -0.7634101 -1.8400632 -2.982468 -0.14923957 -0.15967897
0.0010341939 -0.0076265866 -0.08329017 -0.20661652 0.08073849 -0.0071676755 -0.4910278 -1.2341353
0.6912748 0.09245504 -0.9167782 0.6192596 0.55779886 4.5233617 -1.0859071 0.503647
-0.98887265 0.14459518 0.6394996 -0.2875562 0.24348123 0.17523076 0.80080676 -0.930011
-1.2022258 -0.6235036 -0.16060123 -0.19582163 -0.12497562 -0.18173309 -0.14734384 -0.3088062
-0.34011057 -0.16815872 -0.38924974 -0.66466147 1.545491 -0.21175435 1.3133367 1.0911025
-2.4135563 -4.361179 2.5985157 -1.7988782 -0.36345124 0.17624354 0.029909803 0.00440789
-0.8219421 -3.2516444 -0.22677578 0.017625224 0.07358216 0.043938637 0.01711297 0.036972567
0.105543114 -0.03715036 0.008710436 -0.16094157 -0.19142582 -0.42965406 -0.42306873 0.78384113
-0.02996914 0.08665726 0.13832061 0.09512124 -0.007543301 0.58221275 -1.4635934 -0.34258693
00000000: c1a1 56bf 7e24 a3bf 7d87 86bf b807 303f
00000010: 8724 203e 24f1 f4be 2cdd 853f 9592 90bf
00000020: d6cc 18bf 8e26 253f 21cf d0be 96d3 9abf
00000030: 8b59 f7be 03e8 f53f 0aa9 d7bf 6b7c 00c0
00000040: 13ce ebbf 2411 f8bf 248d f4bf fc36 f0bf
00000050: e340 efbf f423 f2bf 93b3 e5bf 86fe 9dbf
00000060: 0fb8 ac3d 4fb4 b63e 0a5d 6c3f 41c3 c6be
00000070: 0194 2c3f cfad e83e 3207 153f 2af8 94c0
00000080: 4c83 bc3e 57ae 1d3f 5fcd 47bf 10c5 d73d
00000090: ca43 c63f d6c3 f2bf 8a93 3e3f 730d 1f40
000000a0: 8fdd 843f fc7d 0a3f 67a4 79bf fefc 91bf
000000b0: e8cc 8fbf 5a87 83bf c96e 85bf d41c 8dbf
000000c0: ab46 5bbf 35f7 91bf 65cc 91be f500 65be
000000d0: 002f 293d 4f2b 5bbe bc07 6abf 7a91 1e3f
000000e0: 9c81 7bbd 7368 713d 543e 843c 3e5e 103d
000000f0: 6a0c 623c bf24 243d f7f8 26be f52e 05bc
00000100: 5afa 09be 4176 d73d 51ef da3d 950c 9ebc
00000110: c529 033d 8615 2f3e ca40 5fbe f492 853c
00000120: 0312 efbd a273 59bd 4d8a 0bbe e9bb 4bbe
00000130: 7df1 85bd e546 87be 4654 97be 014d 48be
00000140: ab6d 70bd ccf2 843d 3791 30bd 290f d4bd
00000150: e515 1940 3851 6240 be44 7bbf abc6 6cbf
00000160: 7784 9c3f 96e6 063f ac3a b83e ca9d fe3e
00000170: b791 853e eb1c 2f3f 0227 583f 84bf 7f3e
00000180: 31bb 5bbe 0afa d6bf 1ea0 b0bf eaed 99bf
00000190: 9836 acbf 55b5 aebf e699 97bf 41c8 8fbf
000001a0: 7f03 a2bf d174 b2bf 0c00 98bf 84ef 79bf
000001b0: 5365 3fbe 96b4 8abe 38c0 d03e d35f b03d
000001c0: f5b9 e4be 886f 17c1 6aee 883f a93f e040
000001d0: bbc6 b3be 3620 fabe f63e afbf c0d7 01bf
000001e0: 403c b8be d236 62bf 2638 88be 2ef5 11bf
000001f0: 4370 fbbd 2a95 1fbe f775 8e3e 0533 dd3e
00000200: 38a5 e73e 74e1 033f d8c1 dc3e dbde 873e
00000210: 65b7 093f 1612 b53e 4034 a63e 6e9d 12bf
00000220: 820b 0a3f 4e3b b2be 8f09 96be ea54 77be
00000230: 8c0d 8fbf f66a e7bf fd7d eebf 74b4 27c0
00000240: 773b d83e c728 10bf dff6 78c0 495d 4f3f
00000250: 4434 f2bd 3ec4 28c0 f4d6 bb3e 4fe6 8c3f
00000260: cece babe 7685 efbd efd9 8bbf ad19 a9bf
00000270: 16ca 96bf 3733 a8bf 60f0 a3bf dc3c 86bf
00000280: 5a85 8dbf c689 b2bf 4144 10bf 719e 43bf
00000290: b692 97bf 2f6c 31bf b09e 73bf a004 67bf
000002a0: 03e6 8abf e593 ffbf a9bc 2bc0 3ab5 88bf
000002b0: d039 d0bf f258 06bf f66b 3440 d6d2 a6be
000002c0: 121d f7bf 5782 a53f f26b 49bf d86e 43bf
000002d0: 3187 ebbf c1e0 3ec0 42d2 18be e282 23be
000002e0: ca8d 873a 72e8 f9bb 0994 aabd 4893 53be
000002f0: 395a a53d d2de eabb ff67 fbbe 25f8 9dbf
00000300: 63f7 303f 1159 bd3d fab1 6abf cc87 1e3f
00000310: e8cb 0e3f 61bf 9040 01ff 8abf 03ef 003f
00000320: c226 7dbf c210 143e 3fb6 233f 913a 93be
00000330: 2553 793e b16f 333e ac01 4d3f 3315 6ebf
00000340: 89e2 99bf ef9d 1fbf a674 24be 7785 48be
00000350: 38f3 ffbd 3d18 3abe 4ee1 16be d91b 9ebe
00000360: f922 aebe cd31 2cbe be4b c7be 4127 2abf
00000370: a6d2 c53f 22d6 58be 6b1b a83f 3fa9 8b3f
00000380: b577 1ac0 c78e 8bc0 154e 2640 a441 e6bf
00000390: 4816 babe 3079 343e 6705 f53c 1070 903b
000003a0: cc6a 52bf f11a 50c0 e937 68be c662 903c
000003b0: 3eb2 963d 00f9 333d 8030 8c3c 8c70 173d
000003c0: fd26 d83d fa2a 18bd 37b6 0e3c decd 24be
000003d0: 2105 44be 9efb dbbe 779c d8be d0a9 483f
000003e0: d881 f5bc 5d79 b13d eba3 0d3e edce c23d
000003f0: cc2d f7bb e50b 153f 0757 bbbf 8e67 afbe

fc1.bias f4 [400]
-0.9884069 0.7468653 -0.1785444 0.5558736 -0.89899504 -0.63236624 -1.3652562 -1.1633457
1.1074904 -1.0133635 -0.99522954 -0.07216118 -0.34210056 -0.22943787 -0.9991395 -0.15059349
0.029908335 -0.57749826 -0.8275835 -0.30886173 -0.81633484 -0.7909077 -1.21312 -1.0739889
-0.9297906 -0.691252 -0.52343065 0.033820823 0.2108857 0.12315098 -1.1033485 -1.318178
-0.92250293 -0.90958935 -0.28393596 -1.3278416 0.08062428 0.20025827 -1.4222126 0.87513685
-0.26749852 0.1739494 -0.5010335 -0.6318874 -0.4279544 -0.5901098 -0.0027363955 -0.38202637
0.58968025 -0.09426623 -0.23624176 0.2692286 -0.047998432 -0.44235638 -0.7934301 0.25968453
-0.47305265 -1.1016922 -1.0143994 -0.99890924 -1.175542 -0.48485214 -0.36987934 -0.53673387
0.08716254 -0.4940005 0.08609825 -0.923691 0.14273916 -0.08604163 -0.16624127 -0.70752
0.30761614 -0.28837055 -0.16271067 0.56067955 -0.611819 -0.9343637 -1.230405 -0.24593943
-1.3726809 -1.2528309 -0.67647606 0.032210983 -0.12584193 -0.11003476 0.2447938 -1.1796844
-0.5229927 -0.14343311 -0.61474186 0.023451895 -0.4249637 -0.2535924 -0.9620855 0.18423852
-0.09829039 -0.99412125 -1.2461991 0.07913106 -0.5328195 -0.8535857 -0.031394556 -0.6615606
0.66099703 0.50530064 -1.149473 -0.3998818 -0.5653366 -0.4009083 -0.21654537 -0.5894594
-0.22227299 0.33584306 -0.5726935 -1.2232385 -0.6098592 -1.0224711 -0.9383412 -0.51510984
-0.6500123 0.3177592 -0.37073183 0.07422609 -0.9189132 -0.23545809 -0.9393046 0.27584848
-0.111752115 -0.47647107 -0.40512422 0.32876897 0.3639933 -0.1968341 0.45370466 0.059129726
-0.0031937305 -0.6866597 -0.9792576 -1.3593987 -1.8096565 0.7655147 0.010889499 -1.4143821
-0.3495325 -0.19575347 -0.26864147 -1.3580527 -0.33196786 0.07294498 0.41875747 -0.6938524
-0.50759566 -0.2270908 -0.95814496 -0.08488719 0.5903463 -0.040708333 0.25454736 -0.8572535
-0.81723356 -0.8249321 0.04729329 -0.059339836 -0.5434674 -0.19575824 -0.16986893 -0.42067003
-0.26370612 -0.30184394 -0.67397654 0.13596919 -0.9103277 -0.18433112 1.3444954 -0.21135381
-0.3597609 -0.16190235 -1.1169087 -0.07662675 -0.9677133 -0.70592356 -0.7779785 -1.4481318
-0.44456828 -0.113734655 -1.0284367 -0.35314122 -0.26927677 -0.51194537 -0.57727754 -0.23667333
-0.9901354 -0.22982232 -1.5023421 -0.6792519 -0.23406617 0.50820047 0.022088623 -1.3551513
-0.38838056 0.30426997 -0.15152857 -0.5219139 -1.0584406 -0.25032383 0.09645792 0.1561986
-1.0521277 -0.2136929 -0.6915252 -0.3519055 -0.8168957 -0.43526408 -0.29298395 -0.78975976
-0.1965331 0.07571882 -0.29299006 -0.4450235 -0.74105835 -0.11599691 -0.43765333 -1.4085243
-0.30117863 -0.10532971 -0.7027564 0.36025724 0.34818122 -1.0770427 -0.3534087 0.8629423
-1.1978592 -0.03003526 -0.58015656 -1.0066975 -0.62651765 -0.91312724 0.30827343 -0.03867376
-0.05609858 -0.52579 -0.016349165 0.66781527 -0.052766055 -1.4434539 -1.0240843 0.96597135
-0.081586875 -1.2003155 -0.597774 0.002714369 -1.2479653 -1.3514402 -1.1701641 -0.7938299
00000000: 3c08 7dbf 9032 3f3f 58d4 36be bb4d 0e3f
00000010: 8a24 66bf c1e2 21bf b7c0 aebf 83e8 94bf
00000020: 3fc2 8d3f e5b5 81bf 5dc7 7ebf 3ec9 93bd
00000030: ce27 afbe c3f1 6abe 9bc7 7fbf 2e35 1abe
00000040: 5302 f53c edd6 13bf 83dc 53bf 2023 9ebe
00000050: 52fb 50bf ed78 4abf 8447 9bbf 7878 89bf
00000060: c206 6ebf e4f5 30bf 8dff 05bf b487 0a3d
00000070: 6cf2 573e 9536 fc3d 863a 8dbf 0fba a8bf
00000080: 2729 6cbf d9da 68bf 0e60 91be b7f6 a9bf
00000090: 581e a53d 8110 4d3e 100b b6bf f808 603f
000000a0: 91f5 88be cb1f 323e bb43 00bf 5fc3 21bf
000000b0: d71c dbbe 7011 17bf 1955 33bb f698 c3be
000000c0: 49f5 163f a70e c1bd 5ce9 71be 55d8 893e
000000d0: 019a 44bd 897c e2be 3c1e 4bbf 5ff5 843e
000000e0: f533 f2be 4004 8dbf d7d7 81bf 84b8 7fbf
000000f0: 2978 96bf 8a3e f8be d360 bdbe 6467 09bf
00000100: 4682 b23d a2ed fcbe 4754 b03d 0377 6cbf
00000110: 372a 123e 9836 b0bd 273b 2abe 0820 35bf
00000120: dd7f 9d3e 4ea5 93be a09d 26be b288 0f3f
00000130: 2ca0 1cbf 7632 6fbf e97d 9dbf 8cd7 7bbe
00000140: 02b4 afbf c35c a0bf 892d 2dbf aaef 033d
00000150: b5dc 00be e759 e1bd 3aab 7a3e e6ff 96bf
00000160: d9e2 05bf 21e0 12be b95f 1dbf 301e c03c
00000170: d894 d9be ddd6 81be 3c4b 76bf 06a9 3c3e
00000180: 794c c9bd bb7e 7ebf 7483 9fbf 770f a23d
00000190: dc66 08bf 9884 5abf 9497 00bd 095c 29bf
000001a0: 1a37 293f 625b 013f ee21 93bf 4fbd ccbe
000001b0: e6b9 10bf da43 cdbe 12be 5dbe d0e6 16bf
000001c0: 889b 63be 9ff3 ab3e 0b9c 12bf 1493 9cbf
000001d0: bc1f 1cbf 55e0 82bf 2137 70bf 3dde 03bf
000001e0: 3567 26bf 55b1 a23e 90d0 bdbe d903 983d
000001f0: e53d 6bbf ed1b 71be 4476 70bf 033c 8d3e
00000200: 4bde e4bd 04f4 f3be 716c cfbe 6854 a83e
00000210: 545d ba3e e18e 49be fa4b e83e 0332 723d
00000220: e84d 51bb eec8 2fbf a0b0 7abf c700 aebf
00000230: d3a2 e7bf c5f8 433f df69 323c 790a b5bf
00000240: edf5 b2be 9973 48be 608b 89be acd4 adbf
00000250: b1f7 a9be 2d64 953d 6167 d63e 50a0 31bf
00000260: caf1 01bf 7e8a 68be fd48 75bf 56d9 adbd
00000270: ef20 173f c8bd 26bd 0854 823e f774 5bbf
00000280: 3836 51bf c02e 53bf 9cb6 413d 540e 73bd
00000290: ae20 0bbf d974 48be 1ff2 2dbe 1062 d7be
000002a0: 7d04 87be 4a8b 9abe ba89 2cbf 823b 0b3e
000002b0: 3c0b 69bf 4cc1 3cbe 6d18 ac3f 226d 58be
000002c0: 9532 b8be bbc9 25be ddf6 8ebf 7cee 9cbd
000002d0: 0fbc 77bf 68b7 34bf 9929 47bf 625c b9bf
000002e0: 749e e3be b7ed e8bd d0a3 83bf edce b4be
000002f0: a5de 89be da0e 03bf 76c8 13bf 7e5a 72be
00000300: 8379 7dbf 8b56 6bbe bf4c c0bf 74e3 2dbf
00000310: 0baf 6fbe 6d19 023f 33f3 b43c 9975 adbf
00000320: d1d9 c6be 46c9 9b3e 4e2a 1bbe 269c 05bf
00000330: fb7a 87bf 722a 80be bb8b c53d 87f2 1f3e
00000340: 1fac 86bf 50d2 5abe cc07 31bf f52c b4be
00000350: 1420 51bf efda debe fe01 96be b22d 4abf
00000360: f93f 49be 7812 9b3d cb02 96be 1fda e3be
00000370: 00b6 3dbf ca8f edbd 1914 e0be 864a b4bf
00000380: 1634 9abe 1ab7 d7bd d8e7 33bf a373 b83e
00000390: cf44 b23e 89dc 89bf fcf1 b4be c9e9 5c3f
000003a0: 7353 99bf 810c f6bc 2485 14bf 77db 80bf
000003b0: 7663 20bf b5c2 69bf 04d6 9d3e 6068 1ebd
000003c0: a0c7 65bd 2c9a 06bf afee 85bc f1f5 2a3f
000003d0: 3821 58bd 19c3 b8bf 3215 83bf e649 773f
000003e0: 0517 a7bd f0a3 99bf b807 19bf 8ee3 313b
000003f0: 54bd 9fbf fefb acbf f0c7 95bf 7038 4bbf

fc2.weight f4 [300, 400]
0.032999024 -0.026113752 -0.015149482 -0.0018323907 0.021105837 0.044850674 -0.0051178555 0.029401325
0.019380653 0.052301265 0.026846515 -0.041809347 -0.023323506 -0.007869963 -0.026388306 -0.046198487
-0.06308041 -0.051530875 -0.046862334 0.026225137 -0.04682508 0.008988483 0.017548181 -0.037181787
-0.026000876 0.008951229 -0.008799238 -0.04759324 -0.014068293 0.020353328 -0.045255244 -0.05154503
-0.06700686 0.020549279 -0.019449646 -0.081061654 0.014424058 -0.0036057353 0.031689957 0.009756637
-0.043514043 0.020161849 -0.020704253 -0.019014087 -0.00054806634 -0.06439618 -0.054779332 0.013543212
-0.0063887397 -0.008598258 -0.04563895 -0.013209054 -0.0054250993 0.00046249814 -0.009783833 -0.023153631
-0.0020033002 -0.04662168 0.031535733 0.011159956 -0.03259148 -0.050186787 -0.025218936 -0.029058224
-0.012039498 -0.061905816 0.01197207 0.027041782 0.006549206 -0.038861893 -0.011620402 -0.03594648
-0.06414584 0.035299335 -0.021530896 -0.044715077 0.012187764 -0.053510495 -0.072641 0.016601214
-0.06621561 -0.04114997 0.0033769088 -0.05559666 -0.021670593 -0.036417358 -0.07428311 -0.029028421
-0.027512973 -0.015928797 -0.013897303 0.02298972 -0.03631603 -0.019692836 -0.0095733525 -0.038952045
-0.008959426 0.058775827 0.036602877 0.02156256 0.033098117 0.0010864004 -0.061550424 -0.040090498
0.013884636 0.023870006 -0.031216914 0.0069995015 -0.05822299 -0.019907039 -0.009123152 0.03272708
-0.060395584 0.08939737 -0.053690054 -0.02254343 -0.015947053 -0.046644777 -0.06402663 -0.066011466
-0.038415603 -0.018844958 -0.021968246 -0.0073016225 -0.021298436 0.044053465 0.0009279067 0.01921376
0.019806828 0.0015308745 -0.033955682 -0.054133363 -0.064335085 0.049021546 -0.005364097 -0.042869564
0.00801022 0.0057797953 -0.007223671 -0.025331438 -6.432317e-05 0.023184178 -0.02260527 -0.0107438415
-0.04614857 -0.037686937 -0.01212816 -0.02003221 0.039165877 -0.06849847 0.03580566 -0.028117213
0.022454396 0.016433574 0.002400649 -0.011615001 -0.053932197 0.005822401 -0.032069195 -0.050789542
-0.003182868 -0.04221615 -0.042658713 -0.0009647871 0.028911445 0.022137877 -0.06269633 0.039121922
-0.02503118 -0.03471117 -0.06569556 0.03288429 -0.05041552 -0.030411622 0.016683169 -0.021349205
-0.056280624 -0.033191994 -0.038092993 -0.020911379 0.014631556 -0.018096175 -0.05216045 -0.021865053
-0.00037179308 0.0069102803 0.004504393 -0.040460862 0.01563925 -0.00014827398 -0.036399476 -0.013395691
-0.013251336 0.046650898 -0.00638697 -0.05867301 0.024020135 0.033954933 0.012824604 -0.037578158
-0.039986935 -0.042813685 0.023431538 0.006469485 -0.011730113 0.027914558 -0.0002745629 -0.03201406
-0.01067306 -0.03913757 -0.028479313 0.0029957648 0.036731027 -0.05646987 0.020157378 0.032820955
-0.029366488 0.0006155175 -0.028025946 0.036809254 0.016441397 -0.026086185 -0.08205407 0.025361987
0.0056620273 0.0036277063 -0.026580902 -0.014766041 -0.00038504697 -0.05020467 -0.056547355 -0.052370556
-0.015092749 -0.0056582093 -0.03283288 -0.0426684 -0.0027391852 -0.004307324 0.0022908926 -0.008313459
0.021737237 0.066685 -0.04680869 -0.055186134 0.0021803444 -0.010233289 -0.0023058406 -0.005161814
-0.0006597554 -0.0065375646 -0.047661785 -0.04673046 -0.033128664 -0.026941512 -0.008646873 -0.061758295
00000000: fc29 073d 82ec d5bc 8835 78bc d42c f0ba
00000010: 26e6 ac3c 57b5 373d afb3 a7bb 0cdb f03c
00000020: 2dc4 9e3c da39 563d 39ed db3c 4740 2bbd
00000030: f010 bfbc 04f1 00bc 4a2c d8bc a03a 3dbd
00000040: 4d30 81bd 0a12 53bd b8f2 3fbd 19d6 d63c
00000050: a8cb 3fbd 6e44 133c 34c1 8f3c ee4b 18bd
00000060: caff d4bc 2da8 123c ae2a 10bc 21f1 42bd
00000070: b37e 66bc 06bc a63c 905d 39bd e220 53bd
00000080: e53a 89bd f656 a83c dd54 9fbc a703 a6bd
00000090: e252 6c3c 334e 6cbb 54cd 013d 4dda 1f3c
000000a0: c83b 32bd 762a a53c f79b a9bc 6ec3 9bbc
000000b0: 1cac 0fba 25e2 83bd 4b60 60bd 59e4 5d3c
000000c0: a258 d1bb b5df 0cbc e8ef 3abd ca6a 58bc
000000d0: 08c5 b1bb 737b f239 5f4c 20bc afac bdbc
000000e0: cd49 03bb 60f6 3ebd 9d2b 013d 40d8 363c
000000f0: a57e 05bd a990 4dbd f197 cebc 830b eebc
00000100: 5141 45bc f490 7dbd 8026 443c ba86 dd3c
00000110: b99a d63b a62d 1fbd 8063 3ebc 9e3c 13bd
00000120: e55e 83bd 0996 103d 9061 b0bc 2827 37bd
00000130: 30af 473c d22d 5bbd cec4 94bd 45ff 873c
00000140: 0d9c 87bd df8c 28bd 214f 5d3b 53b9 63bd
00000150: 8786 b1bc 5e2a 15bd be21 98bd 03cd edbc
00000160: e362 e1bc 1c7d 82bc 83b1 63bc f054 bc3c
00000170: 1ec0 14bd df52 a1bc 8dd9 1cbc 2e8c 1fbd
00000180: 8eca 12bc ecbe 703d e6ec 153d f7a3 b03c
00000190: e491 073d 8c65 8e3a 4c1c 7cbd ef35 24bd
000001a0: 627c 633c 088b c33c 9dba ffbc 135c e53b
000001b0: 3b7b 6ebd 1614 a3bc 4679 15bc d50c 063d
000001c0: 5c61 77bd f815 b73d 1aea 5bbd 00ad b8bc
000001d0: 65a3 82bc 980e 3fbd 6520 83bd 0531 87bd
000001e0: ae59 1dbd be60 9abc c0f6 b3bc 7342 efbb
000001f0: 0f7a aebc 6871 343d c43e 733a 2d66 9d3c
00000200: ee41 a23c a0a7 c83a 1d15 0bbd f2ba 5dbd
00000210: 1dc2 83bd d1ca 483d 4fc5 afbb ff97 2fbd
00000220: 4c3d 033c 7064 bd3b 8bb4 ecbb e083 cfbc
00000230: 3de5 86b8 bfec bd3c b02e b9bc f006 30bc
00000240: 4806 3dbd 9e5d 1abd 31b5 46bc 971a a4bc
00000250: 666c 203d ed48 8cbd f5a8 123d 1256 e6bc
00000260: 48f2 b73c b49f 863c 3554 1d3b d84c 3ebc
00000270: 02e8 5cbd d7c9 be3b fd5a 03bd b208 50bd
00000280: aa97 50bb d7ea 2cbd e7ba 2ebd c4e9 7cba
00000290: b2d7 ec3c 7e5a b53c ef66 80bd 4f3e 203d
000002a0: 300e cdbc 4d2d 0ebd 658b 86bd adb1 063d
000002b0: 8180 4ebd cb21 f9bc 24ab 883c 87e4 aebc
000002c0: 8386 66bd 54f4 07bd 6607 1cbd 574e abbc
000002d0: 32b9 6f3c 6e3e 94bc 32a6 55bd 571e b3bc
000002e0: 39ed c2b9 a26f e23b 9699 933b 4aba 25bd
000002f0: e21d 803c fe79 1bb9 9e17 15bd 9a79 5bbc
00000300: 221c 59bc 0315 3f3d ca49 d1bb 1c53 70bd
00000310: e0c5 c43c 5414 0b3d 4a1e 523c 8eeb 19bd
00000320: 57c9 23bd 675d 2fbd 7ff3 bf3c f9fd d33b
00000330: a92f 40bc 12ad e43c 35f3 8fb9 2d21 03bd
00000340: 0fde 2ebc b74e 20bd 734d e9bc 9854 443b
00000350: 4673 163d f34c 67bd 1621 a53c 446f 063d
00000360: fd91 f0bc ae5a 213a ab96 e5bc 4dc5 163d
00000370: 1cb0 863c b2b2 d5bc f70b a8bd f1c3 cf3c
00000380: 8788 b93b d0be 6d3b 31c0 d9bc 44ed 71bc
00000390: 21e0 c9b9 69a3 4dbd 339e 67bd 8282 56bd
000003a0: 9447 77bc 8068 b9bb c57b 06bd 0fc5 2ebd
000003b0: e783 33bb 7424 8dbb cd22 163b 2d35 08bc
000003c0: 4a12 b23c 2592 883d 78ba 3fbd db0a 62bd
000003d0: 1ce4 0e3b 86a9 27bc 961d 17bb 6f24 a9bb
000003e0: 6ff3 2cba 1139 d6bb 0139 43bd 7068 3fbd
000003f0: ecb1 07bd 72b4 dcbc 9dab 0dbc 44f6 7cbd

fc2.bias f4 [300]
-0.07468097 -0.08053117 -0.07913493 -0.05183784 1.3482397 -0.14918908 -0.10036761 -0.002868127
0.6050975 -0.019585548 0.32153004 0.20285714 -0.11491712 -0.06556443 -0.039178547 -0.058658853
-0.09909058 0.23604804 0.27590716 0.32490224 -2.4488733 0.08072041 -0.08406573 1.5932052
-0.097320326 -0.092912555 -0.06285093 -0.06629161 0.9165339 -0.2648267 -0.059339836 -0.15002951
-0.14463231 -0.06623051 0.19879548 -0.04962725 -0.38549045 -0.063061036 -0.053672172 1.4933718
-0.14333293 0.068388194 -0.06505183 1.4619634 -0.110348426 -0.22173695 0.13418657 -0.0056034476
-0.06301931 -0.014805902 1.0790012 -0.041839894 0.14725192 -0.095629044 -0.042681064 -0.31931007
-0.064709105 -0.36992764 0.383595 -0.06326965 -0.24545664 -0.18902887 0.5687336 -0.20650795
2.1474535 -0.050390933 -0.38752705 -0.028984463 -0.09260261 1.4357451 -0.07920348 1.1855918
-0.076822266 -0.09405101 0.4188631 -0.3788872 -0.054911207 -1.5896393 1.3852923 -0.037655644
1.5480965 -0.07035665 1.0370556 -0.117993794 -0.12351957 0.03315386 -0.016487593 -0.09978647
-0.11532392 0.9037667 -0.090336144 -1.2410294 -0.3368828 -0.015287396 -0.009418381 -1.8184084
-0.072955415 -0.022695422 -0.09816522 -0.051024236 -0.06345294 -0.010649032 -0.025133254 2.1047444
1.777263 -0.01552302 -0.047287766 -0.016994232 -0.037686937 -0.15636252 -0.053547002 1.0334232
-0.034889985 0.4252706 -0.1967149 -0.12511848 -0.055195075 -0.14355943 -0.077592656 -0.0384387
1.4807132 -0.42288154 -0.2972763 -0.91773707 -0.11499759 2.0116773 1.3679178 -0.11164334
-0.0075267237 -0.2568814 -0.12450752 2.1854215 -0.03585186 -0.07737361 -0.04860801 -0.035941266
-0.03058634 -0.06975464 -0.018957835 -0.3659103 -0.08938396 -0.083775155 -0.04728553 -0.06378225
-0.072332546 -0.072182044 -0.000646484 0.51395345 -0.05079888 -0.13771518 -0.053485163 0.03554787
-0.07236384 1.7604294 0.22155353 0.3359285 -0.07574193 -0.068832256 -0.11023518 -0.061729237
-0.09554858 -0.36015248 -0.082520485 -0.15012786 -0.08116745 -0.024741353 -0.03890734 -0.27687278
-0.08423113 -0.07765524 -0.084403984 -0.015518617 -0.24666065 1.1497097 0.17887792 0.1555161
0.031917945 -0.08143891 1.3017006 0.08562012 0.011872977 -0.053787656 -0.35810804 -0.1213291
-0.02762436 -0.11206802 0.49491295 -0.13663037 -0.057861637 -0.085709326 -1.2155454 -0.08078449
0.3696117 -0.039238896 -0.34539682 -0.07816487 -0.05327282 -0.2507138 -0.08578681 0.0067552263
0.02978987 -0.42159897 -0.71633446 -0.16400681 -0.16466622 1.1169969 0.020840969 -0.048572246
0.590772 -0.06814233 -0.10016645 1.4923228 1.4371074 -0.03683459 -0.14318392 1.1376039
0.25554025 -0.49559224 -0.061156288 -0.12505142 -0.17793941 -0.0009191122 -0.1024359 -0.09439076
0.033069804 0.08509383 -0.20011832 0.18038484 0.29706484 -0.29003948 0.849876 -0.33451378
-0.09182924 -0.07649444 -0.45447242 -0.03503571 -0.093693376 -0.054529734 -0.20341384 -0.07165305
-0.072709545 -0.0013592318 -0.087923646 -0.41461298 -0.19456019 -0.08349352 -0.07768355 -0.034228373
0.014471928 -0.15315875 -0.13757212 0.17940754 0.16585752 -1.4077965 -0.012354285 -1.4517025
00000000: 56f2 98bd 87ed a4bd 7f11 a2bd ea53 54bd
00000010: 1e93 ac3f 06c5 18be 898d cdbd 30f7 3bbb
00000020: abe7 1a3f df71 a0bc 969f a43e c8b9 4f3e
00000030: ab59 ebbd a546 86bd af79 20bd 4444 70bd
00000040: 01f0 cabd 94b6 713e b443 8d3e 9659 a63e
00000050: 57ba 1cc0 be50 a53d a72a acbd 26ee cb3f
00000060: e14f c7bd f048 bebd fdb7 80bd e5c3 87bd
00000070: f7a1 6a3f 5d97 87be 540e 73bd 56a1 19be
00000080: 7e1a 14be dda3 87bd 0b91 4b3e f145 4bbd
00000090: 015f c5be 2526 81bd 5ad7 5bbd cf26 bf3f
000000a0: dec5 12be 1c0f 8c3d e539 85bd 9e21 bb3f
000000b0: 5bfe e1bd 030f 63be 3468 093e 209d b7bb
000000c0: 4510 81bd 7494 72bc b61c 8a3f 4f60 2bbd
000000d0: 35c9 163e 29d9 c3bd 57d2 2ebd 9c7c a3be
000000e0: 3586 84bd 2867 bdbe 9066 c43e 8593 81bd
000000f0: fc58 7bbe c990 41be 8698 113f d276 53be
00000100: e16f 0940 b966 4ebd f269 c6be d370 edbc
00000110: 70a6 bdbd 7fc6 b73f 6f35 a2bd 79c1 973f
00000120: fe54 9dbd d19d c0bd 3975 d63e 81fd c1be
00000130: 93ea 60bd 4d79 cbbf 4251 b13f ce3c 1abd
00000140: 0728 c63f 2617 90bd 3dbe 843f bba6 f1bd
00000150: d4f7 fcbd 58cc 073d fd10 87bc d95c ccbd
00000160: f32e ecbd 415d 673f 2802 b9bd 0dda 9ebf
00000170: e77b acbe fc77 7abc 8e4f 1abc 9bc1 e8bf
00000180: a669 95bd c0eb b9bc d90a c9bd cafe 50bd
00000190: 9df3 81bd 4779 2ebc 41e4 cdbc 22b4 0640
000001a0: 5b7d e33f 4454 7ebc d1b0 41bd 7d37 8bbc
000001b0: 9e5d 1abd 7f1d 20be 1a54 5bbd 3647 843f
000001c0: cde8 0ebd 11bd d93e a16f 49be 0f1f 00be
000001d0: 3b14 62bd 3e01 13be e6e8 9ebd e671 1dbd
000001e0: 0388 bd3f ee83 d8be 9934 98be d1f0 6abf
000001f0: db83 ebbd 52bf 0040 ee17 af3f 43a5 e4bd
00000200: bca2 f6bb f585 83be ccfd febd f2dd 0b40
00000210: 66d9 12bd 0e76 9ebd 3119 47bd 2637 13bd
00000220: 3490 fabc 85db 8ebd 764d 9bbc 9858 bbbe
00000230: f00e b7bd 4f92 abbd 79ae 41bd 45a0 82bd
00000240: 1623 94bd 2ed4 93bd cf78 29ba 7492 033f
00000250: 7d12 50bd 3505 0dbe 4213 5bbd a59a 113d
00000260: 7e33 94bd c055 e13f eede 623e d2fe ab3e
00000270: 961e 9bbd edf7 8cbd fbc2 e1bd ccd7 7cbd
00000280: f9ae c3bd e865 b8be 8000 a9bd 1ebb 19be
00000290: 1f3b a6bd 61ae cabc 4e5d 1fbd 45c2 8dbe
000002a0: 5f81 acbd b609 9fbd ffdb acbd cc41 7ebc
000002b0: 9c94 7cbe b029 933f c62b 373e 9d3f 1f3e
000002c0: 64bc 023d 71c9 a6bd 209e a63f 9a59 af3d
000002d0: e086 423c 7250 5cbd f059 b7be 647b f8bd
000002e0: 7b4c e2bc eb83 e5bd 3b65 fd3e d5e8 0bbe
000002f0: 5300 6dbd 5f88 afbd fe96 9bbf 5772 a5bd
00000300: bf3d bd3e f7b8 20bd dad7 b0be e714 a0bd
00000310: 9a34 5abd 8f5d 80be ffb0 afbd f25a dd3b
00000320: e309 f43c d2db d7be b261 37bf 67f1 27be
00000330: 439e 28be c1f9 8e3f aeba aa3c b1f3 46bd
00000340: d53c 173f 358e 8bbd 1124 cdbd 6f04 bf3f
00000350: 23f3 b73f dedf 16bd ce9e 12be 019d 913f
00000360: 2cd6 823e 44be fdbe 047f 7abd 7b0d 00be
00000370: c035 36be 93f0 70ba eac9 d1bd f14f c1bd
00000380: 3474 073d ad45 ae3d d1eb 4cbe ceb6 383e
00000390: e218 983e 0e80 94be 7991 593f 6445 abbe
000003a0: f810 bcbd 1ea9 9cbd 9cb0 e8be 9b81 0fbd
000003b0: 50e2 bfbd 925a 5fbd b84b 50be d6be 92bd
000003c0: bee8 94bd 4028 b2ba 5011 b4bd 2748 d4be
000003d0: c93a 47be a7fe aabd 8e18 9fbd 0d33 0cbd
000003e0: aa1b 6d3c a6d5 1cbe b5df 0cbe 9cb6 373e
000003f0: 8ed6 293e ad32 b4bf a169 4abc 63d1 b9bf

fc3.weight f4 [1, 300]
0.023992196 0.013989876 -0.010410613 0.030683197 0.22917445 -0.017949399 0.0045313076 0.03328364
-0.18893243 -0.027165774 -1.391335 -0.37447545 0.006149575 0.010661884 0.0169648 0.004948541
0.028293049 1.8230337 -0.99894494 -1.1379372 0.3955756 -0.031247577 -0.029129377 -0.42344928
0.024133014 0.020671843 0.007816738 -0.0024319415 -0.38935268 -0.12051251 0.018734315 0.017307157
0.008407336 -0.024510011 0.3295125 -0.008328733 -0.7366962 0.026495222 -0.20306277 -1.1913906
-0.7461018 0.03525432 0.024889993 0.26699436 -0.008832393 0.22946766 -1.0846505 0.009845487
-0.027858308 0.0086621465 0.5139569 0.01431081 -0.5462234 -0.018001178 0.0214169 0.81266975
0.001400373 -0.48488125 -0.06799778 0.0031586997 -0.030903732 0.03456737 -0.89663804 -1.8397229
-0.18043423 -0.007436385 -4.8089895 0.002911061 0.004730983 0.12025886 -0.011051923 -0.24331047
0.0015244717 -0.0038811276 -0.5597298 -0.19189745 0.02917408 0.82763433 0.114306845 -0.008303215
0.12891139 0.011250854 0.47365668 -0.47752208 -0.15003844 -0.48614666 -0.011253647 0.0283344
-0.024816977 -0.2542834 0.025112765 0.92648953 1.3584983 -0.027306218 -0.015472728 0.026364092
0.023937436 -0.8014507 0.019287523 -0.026273195 0.0043453225 -0.01596419 0.013834718 -0.47013733
0.41848415 0.012162247 -0.018838253 0.0234036 -0.01664182 0.0005622109 -0.02424887 0.11582192
0.024282025 -1.325525 -0.0109776035 0.025503177 -0.009681387 0.025814239 -0.038871575 0.024474995
0.26388663 -0.7888402 -0.3619897 0.49654314 -0.031104526 -0.6110073 -0.36254567 -0.018657576
0.007106976 -0.67011774 -0.020917712 -0.25841042 -0.022733793 -0.020935966 0.011349946 -0.30612674
0.013562771 -0.5019759 0.010092473 -0.8640476 0.008118627 0.030372508 -0.006758847 0.006421056
-0.035112757 -0.46323878 -0.031719763 -0.5745953 -0.6854228 0.018829312 0.00061502855 -0.019379908
0.007742511 0.22911666 0.43959126 -0.51741505 -0.002239251 0.002256108 -0.02077019 0.0061273165
-0.0033079446 0.6849712 -0.004646885 -0.008997424 -0.16634926 0.010398878 -0.027182538 -0.63783586
1.900019 -0.017947908 0.020076914 -0.85677135 -0.04494157 0.2167348 -0.58046705 -1.0231862
1.472987 -0.2866629 -0.48498592 -0.30598736 0.006795169 0.024672063 0.71001714 -0.014099772
0.018030236 -0.007586514 0.17603579 -0.3417644 -0.00047387776 -0.030983083 0.15238276 0.02704135
-1.1784922 0.024331944 -0.13374397 0.013128402 -0.02434312 0.22162667 -0.009872868 -0.33737516
-0.0076242327 0.63509405 0.11839816 -0.095609665 -0.28019437 -0.35567766 -0.46175462 0.017113067
-1.1426102 -0.016024912 -0.028164899 -0.7563777 0.17475188 -0.017396564 0.0070715854 0.16050397
-0.8688398 0.99052876 -0.014926415 0.017963555 0.005147099 -0.88846636 0.0130170155 0.027217183
-0.3969524 -0.64650536 0.01711046 0.5429497 0.6422116 -0.37715173 -0.3490364 -0.30718878
0.011663243 -0.024696277 -2.419765 -0.49625164 -0.032958046 -0.010431475 -0.3102647 0.030242123
0.020271374 -0.0012621644 0.028804904 0.2578829 -0.9131261 -0.028890958 0.0044254162 -0.02874828
-0.004496663 0.029486634 -0.0035084584 -0.7656198 -0.56150603 0.19274506 0.015101317 -0.23369038
00000000: 488b c43c cb35 653c 4791 2abc 545b fb3c
00000010: b5ac 6a3e 9e0a 93bc 5d7b 943b 6d54 083d
00000020: 8177 41be c28a debc 4417 b2bf 3fbb bfbe
00000030: 6082 c93b 2faf 2e3c c4f9 8a3c 5f27 a23b
00000040: d3c6 e73c 2b59 e93f dbba 7fbf eda7 91bf
00000050: e388 ca3e ebfa ffbc bba0 eebc 58ce d8be
00000060: 99b2 c53c ff57 a93c c711 003c 3561 1fbb
00000070: 3c59 c7be 43cf f6bd b578 993c bdc7 8d3c
00000080: ecbe 093c 38c9 c8bc ddb5 a83e 3d75 08bc
00000090: 1f98 3cbf 820c d93c b0ef 4fbe 7d7f 98bf
000000a0: 8700 3fbf d566 103d 19e6 cb3c 7cb3 883e
000000b0: beb5 10bc 92f9 6a3e d4d5 8abf f74e 213c
000000c0: 1b37 e4bc adeb 0d3c ae92 033f e377 6a3c
000000d0: 4cd5 0bbf 3577 93bc 7f72 af3c 200b 503f
000000e0: b88c b73a 5b42 f8be 6c42 8bbd 3002 4f3b
000000f0: d329 fdbc 8496 0d3d 128a 65bf 0a7c ebbf
00000100: c0c3 38be ebac f3bb 3ee3 99c0 80c7 3e3b
00000110: 5d06 9b3b 474a f63d 2013 35bc 6126 79be
00000120: c8d0 c73a 845a 7ebb 744a 0fbf c480 44be
00000130: 7bfe ee3c d8df 533f b519 ea3d 350a 08bc
00000140: 5901 043e 8055 383c 2183 f23e c67d f4be
00000150: ada3 19be 37e8 f8be 3761 38bc 8b1d e83c
00000160: f94c cbbc 6f31 82be 49b9 cd3c 6b2e 6d3f
00000170: 46e3 ad3f 4ab1 dfbc 5381 7dbc 82f9 d73c
00000180: 7118 c43c e02b 4dbf de00 9e3c e23a d7bc
00000190: 3563 8e3b 55c7 82bc 03ab 623c d7b5 f0be
000001a0: 8e43 d63e 2944 473c ae52 9abc e8b8 bf3c
000001b0: 6d54 88bc 5661 133a 91a5 c6bc 0b34 ed3d
000001c0: 19eb c63c ceaa a9bf 68db 33bc 0aec d03c
000001d0: ae9e 1ebc 6278 d33c cd37 1fbd c97f c83c
000001e0: 261c 873e 6ef1 49bf b756 b9be e73a fe3e
000001f0: ebce febc f96a 1cbf 969f b9be c6d7 98bc
00000200: a3e1 e83b d68c 2bbf 9f5b abbc 5f4e 84be
00000210: 383c babc e781 abbc 20f5 393c a5bc 9cbe
00000220: 6236 5e3c 7e81 00bf e65a 253c 3932 5dbf
00000230: fd03 053c c4cf f83c 5179 ddbb b967 d23b
00000240: 65d2 0fbd a22d edbe 95ec 01bd ad18 13bf
00000250: de77 2fbf ee3f 9a3c de39 213a 9dc2 9ebc
00000260: e4b4 fd3b 8f9d 6a3e 1b12 e13e 5075 04bf
00000270: 66c0 12bb 36db 133b 3f26 aabc a8c7 c83b
00000280: 1aca 58bb 465a 2f3f e644 98bb ee69 13bc
00000290: 7657 2abe 0e60 2a3c eaad debc 3649 23bf
000002a0: d333 f33f 7e07 93bc 5778 a43c 5e55 5bbf
000002b0: a714 38bd baef 5d3e 7d99 14bf c4f7 82bf
000002c0: d78a bc3f 7bc5 92be 1350 f8be 60aa 9cbe
000002d0: 02aa de3b 111d ca3c afc3 353f bb02 67bc
000002e0: 25b4 933c 4b98 f8bb ba42 343e befb aebe
000002f0: cc72 f8b9 3cd0 fdbc 3a0a 1c3e d285 dd3c
00000300: d5d8 96bf c953 c73c 2ef4 08be 8218 573c
00000310: 396b c7bc 1af2 623e cfc1 21bc 70bc acbe
00000320: b3d4 f9bb 8695 223f bc7a f23d 00cf c3bd
00000330: a375 8fbe 621b b6be 1a6b ecbe b430 8c3c
00000340: 0d41 92bf ad46 83bc 13ba e6bc f8a1 41bf
00000350: 28f2 323e 3d83 8ebc c2b8 e73b 275b 243e
00000360: 496c 5ebf 4b93 7d3f ec8d 74bc 4e28 933c
00000370: ffa8 a83b 8872 63bf 5245 553c 92f6 de3c
00000380: 583d cbbe 6081 25bf 3c2b 8c3c c0fe 0a3f
00000390: fb67 243f 081a c1be e6b4 b2be d947 9dbe
000003a0: 3017 3f3c d94f cabc 6edd 1ac0 b214 febe
000003b0: 04ff 06bd c7e8 2abc 04db 9ebe 54be f73c
000003c0: 2710 a63c 366f a5ba 43f8 eb3c 3a09 843e
000003d0: a2c2 69bf bbac ecbc 1503 913b 8381 ebbc
000003e0: be58 93bb f48d f13c 2aee 65bb a9ff 43bf
000003f0: dcbe 0fbf f65e 453e 846b 773c 884c 6fbe
