Char10 TD3/expTD3_BipedalWalker-v2.pyBipedalWalker-v2./critic_2_target.pth (torch_old, 529901 bytes, 5 tensors)

fc1.weight f4 [400, 28]
0.012359686 -0.07871323 0.026372658 0.13941987 -0.061133932 0.055227853 0.2052473 0.04620072
-0.006118283 -0.09662891 0.046706613 0.24430627 -0.10966595 -0.09856457 -0.2767357 -0.3233585
-0.44521436 -0.11608388 -0.18226075 -0.31934115 -0.39762 -0.22413008 -0.25150505 -0.15647279
0.19730498 -0.23395589 -0.023834243 -0.17920302 -0.0777913 -0.17067331 -3.8807023 2.691399
-1.1448566 0.0638718 1.8870728 0.24623282 0.06629427 0.15629147 -0.07374411 -0.16293943
0.25344777 -0.104401134 0.10680992 0.31005624 0.16608159 0.053473644 0.39422202 0.2238334
0.49204895 0.7036157 0.51897645 -0.08503266 0.42890817 0.4113231 0.2523718 0.32804975
1.2507575 10.8536825 -1.3380367 5.7492604 0.8730649 0.47828504 -0.12409252 0.14679626
0.39953607 0.28294277 0.55307955 0.2801054 0.2386685 0.03046036 0.7566201 0.51376206
0.5933913 0.848335 0.69773805 0.80476105 0.47007567 0.689151 -0.17591298 -0.66535085
-0.060903803 -0.010807655 -0.3036266 -0.119803004 -0.6977747 0.6761698 1.3449752 1.2311808
0.3567847 -0.6055252 -0.95523643 1.6017177 -3.4736428 -1.7828645 0.109995045 -2.7778275
-1.8834568 -0.14762434 -1.8981622 -1.8927764 -2.053534 -2.02297 -1.881521 -1.434635
-1.5131965 -0.9914608 -1.2307559 -1.7458951 0.3032215 0.48504037 0.9842361 1.3479376
-3.2281077 -0.5983716 0.6731839 1.0325049 -0.3848048 0.6634488 -0.74498105 0.5382787
-1.2430711 -2.150789 -0.06664449 -0.38272968 -0.01516526 1.1471874 -0.5011296 -0.18632866
-0.1771032 -0.2831915 -0.049229965 0.0031740183 0.03689795 0.10097136 0.06401666 -0.88481104
0.94033647 0.5981379 0.57987577 0.8855803 0.037169863 -0.033641268 -0.2679857 -0.006392185
-0.037119944 -0.08060269 -0.14999373 0.14181001 -0.16553865 -0.12659293 0.14972253 0.004243436
0.009107692 -0.10768409 -0.27724236 -0.22755139 -0.20552745 -0.26475516 -0.45054302 -0.46798334
-0.18849541 -0.2390402 -0.37067866 -0.18252897 0.1460658 0.007359737 0.2769264 -0.051477227
-0.087738864 -0.19853282 -0.041788485 0.06583265 0.03437515 0.14399154 0.005444284 -0.003959662
-0.08163386 0.09543085 0.18784572 0.07184676 0.036208738 -0.047493402 -0.35935974 -0.40914756
-0.18921067 -0.32897922 -0.22246115 -0.380132 -0.2728733 -0.057822894 -0.34497118 -0.30463666
-0.06939551 0.11381145 -0.023324624 0.017454676 -0.53645945 -1.4434756 -1.0837482 -1.1952682
2.204018 -0.5743089 -3.5226054 -0.25538778 -0.002025521 0.8540664 -0.09863272 0.19676639
-0.08770892 0.25916904 -0.5269399 -0.38794243 -0.2750761 -0.1288581 -0.10371428 -0.108530454
-0.28466043 -0.2249657 -0.13609158 -0.18795003 -0.02411789 -0.6428193 0.051087208 -0.01473974
-0.22440723 0.38251022 -0.5639142 0.17430651 0.003664502 0.3359887 0.61108524 0.70437855
-0.07264546 -0.10076398 -0.5678838 -0.1327352 -0.52676845 -0.9862492 -0.7715412 -1.0436426
-1.0155569 -0.7710286 -0.75370747 -1.1092316 -1.0644804 -0.9938071 -0.7907577 -0.78473765
-0.07405362 -0.39195755 0.5773729 -0.49899563 -2.3705196 2.2450466 5.7435617 -2.9595973
00000000: 4880 4a3c 6734 a1bd 790b d83c 15c4 0e3e
00000010: 9367 7abd 9a36 623d 592c 523e f73c 3d3d
00000020: e17b c8bb 61e5 c5bd 6f4f 3f3d 6c2b 7a3e
00000030: 8b98 e0bd 39dc c9bd 4db0 8dbe 3f8f a5be
00000040: 23f3 e3be 63bd edbd 90a2 3abe af80 a3be
00000050: d994 cbbe 5b82 65be 45c5 80be 673a 20be
00000060: 510a 4a3e 2292 6fbe 0840 c3bc ff80 37be
00000070: 0c51 9fbd fcc4 2ebe 6d5d 78c0 e23f 2c40
00000080: a98a 92bf 38cf 823d 9a8b f13f 7524 7c3e
00000090: 4ac5 873d df0a 203e 2707 97bd 98d9 26be
000000a0: e8c3 813e 43d0 d5bd 29bf da3d b1bf 9e3e
000000b0: 4b11 2a3e 2e07 5b3d 78d7 c93e 9534 653e
000000c0: d7ed fb3e 2920 343f a4db 043f 9a25 aebd
000000d0: da99 db3e f198 d23e e036 813e 23f6 a73e
000000e0: d218 a03f afa8 2d41 c944 abbf f1f9 b740
000000f0: 2e81 5f3f c7e1 f43e 3824 febd c251 163e
00000100: fe8f cc3e e0dd 903e 9f96 0d3f fa69 8f3e
00000110: 8465 743e 0188 f93c dbb1 413f e985 033f
00000120: 7ee8 173f 7c2c 593f f69e 323f d204 4e3f
00000130: c2ad f03e 336c 303f 8822 34be 6f54 2abf
00000140: 4476 79bd 9712 31bc f274 9bbe 475b f5bd
00000150: 5da1 32bf 7719 2d3f 2628 ac3f 5597 9d3f
00000160: 7cac b63e b303 1bbf 608a 74bf 1605 cd3f
00000170: 2a50 5ec0 e734 e4bf 1545 e13d edc7 31c0
00000180: 1d15 f1bf d62a 17be fbf6 f2bf 7f46 f2bf
00000190: 1a6d 03c0 5778 01c0 aed5 f0bf 1fa2 b7bf
000001a0: 6cb0 c1bf 60d0 7dbf 6989 9dbf 7e79 dfbf
000001b0: d93f 9b3e 3657 f83e e6f6 7b3f 3889 ac3f
000001c0: 5199 4ec0 e22e 19bf c855 2c3f 1f29 843f
000001d0: 2205 c5be c8d7 293f 14b7 3ebf a2cc 093f
000001e0: f41c 9fbf 87a6 09c0 e87c 88bd 25f5 c3be
000001f0: b677 78bc 09d7 923f 084a 00bf f1cc 3ebe
00000200: 8b5a 35be 7afe 90be 5ca5 49bd 3103 503b
00000210: 4e22 173d 13ca ce3d 2b1b 833d fa82 62bf
00000220: e4b9 703f 911f 193f bd72 143f 64b5 623f
00000230: 6d3f 183d 6dcb 09bd 6c35 89be 8975 d1bb
00000240: 150b 18bd 0613 a5bd f597 19be a536 113e
00000250: f782 29be 94a1 01be dd50 193e 850c 8b3b
00000260: 6e38 153c 7a89 dcbd b6f2 8dbe 3b03 69be
00000270: ca75 52be fd8d 87be 93ad e6be 839b efbe
00000280: f104 41be f4c6 74be 98c9 bdbe e0e8 3abe
00000290: 4692 153e f329 f13b 4cc9 8d3e c9d9 52bd
000002a0: 6fb0 b3bd 304c 4bbe 672a 2bbd 45d3 863d
000002b0: f5cc 0c3d 8572 133e f765 b23b 0dc0 81bb
000002c0: a72f a7bd 4071 c33d a15a 403e 6524 933d
000002d0: 9d4f 143d 7188 42bd 00fe b7be ca7b d1be
000002e0: 71c0 41be f76f a8be dbcc 63be a9a0 c2be
000002f0: 0db6 8bbe b3d7 6cbd 10a0 b0be 56f9 9bbe
00000300: 3c1f 8ebd fa15 e93d 4813 bfbc 1cfd 8e3c
00000310: 6855 09bf cfc3 b8bf 43b8 8abf 8cfe 98bf
00000320: a20e 0d40 e805 13bf 5e72 61c0 30c2 82be
00000330: 9abe 04bb 18a4 5a3f f4ff c9bd 217d 493e
00000340: bca0 b3bd ceb1 843e 89e5 06bf 64a0 c6be
00000350: c6d6 8cbe 61f3 03be 2768 d4bd 3745 debd
00000360: 03bf 91be 695d 66be 975b 0bbe f975 40be
00000370: e292 c5bc ce8f 24bf d240 513d f37e 71bc
00000380: 02cb 65be 61d8 c33e ae5c 10bf 687d 323e
00000390: 2428 703b b606 ac3e 1570 1c3f 2752 343f
000003a0: 25c7 94bd 585d cebd d560 11bf bceb 07be
000003b0: 4cda 06bf d47a 7cbf b983 45bf 1596 85bf
000003c0: c5fd 81bf 2162 45bf f9f2 40bf 4dfb 8dbf
000003d0: e540 88bf 246a 7ebf 196f 4abf 91e4 48bf
000003e0: 6da9 97bd a9ae c8be b6ce 133f 5b7c ffbe
000003f0: 98b6 17c0 d8ae 0f40 42cb b740 0b6a 3dc0

fc1.bias f4 [400]
-0.2032744 -0.74613553 -1.290561 -1.7178712 -1.2165762 -0.12856884 -0.3494296 0.109034434
-0.48556674 0.058223087 -0.6354642 -1.606025 -0.84412366 -0.10553312 0.18491058 -0.5064151
-1.3279959 -0.27823177 -1.2836308 0.35193202 -0.7271036 -1.4238788 -0.26583996 -0.9308486
0.13762975 -1.3423588 -0.18505025 -0.2368527 -1.2201127 -0.8367456 -1.3841012 -0.22657666
-1.194985 -1.0769863 -0.3806473 0.46810874 -0.7527563 -0.046096303 -0.88976294 -1.4418788
-0.234242 -0.49603885 0.12401867 -0.08325068 0.26653844 -0.0035311917 -0.5850732 0.08598541
-0.19433288 -1.5177537 -1.4492209 -0.63380015 -0.68274206 -0.3390928 0.27922794 -0.831885
0.5685427 -0.25546876 -0.215125 -0.24551922 -0.957961 -1.4252158 -0.2357819 -1.1557205
-0.8314543 -1.1413566 0.9315589 0.0897259 -0.9871143 -0.26925427 -1.1992213 -0.277064
-1.3322097 -1.929538 -0.70467705 -1.1233869 -0.6718001 -0.57921255 -1.3567367 -0.42294466
-0.31726095 -0.5860611 -0.25842345 -1.1619052 0.0537802 -0.67613465 -0.22882868 -0.12612768
-1.4000074 0.52211344 -0.8547111 -1.1242876 -0.5982982 0.015295404 -0.68766546 0.020873006
-0.51241535 -0.20374528 -0.23032896 -0.59031785 -0.543001 0.19050463 -1.441891 -0.22266683
-0.89127153 -0.34519094 -0.78041404 -0.98963606 -0.97079057 -0.5532936 1.409723 -1.5036446
0.0029892977 0.16614363 -0.25215474 -0.3120455 -1.486031 -0.17304885 -0.43533587 -0.47965395
-0.72779185 -0.09704535 -0.7960273 0.6599608 -1.3670009 -0.8311206 -1.4609709 -0.16621566
-0.026987234 0.032313455 -0.09882981 -0.1936542 -0.94068664 -0.7617599 0.31524864 -0.9259816
-1.1116635 -0.31585428 -1.1508003 -0.0007961128 -0.18662776 -0.5339806 -0.16822383 -1.4884725
-1.1945341 0.6000477 -0.38582075 -0.03265332 -0.70761776 -1.0459484 -1.0943092 -0.20675531
-0.3661487 -0.2360585 -1.1530181 0.20873442 -0.558633 -2.0271413 -0.80592376 -1.1993301
-0.54643947 -1.206945 -0.959408 -0.7893188 -0.26758638 -1.0775946 -0.31916577 -1.4105332
-0.9181001 -0.22016005 -1.087163 -0.4851759 -0.41747946 0.7236381 -1.1097505 0.71934825
-1.8649355 -1.5829922 -0.6100138 -0.19145285 -0.97101426 -0.3755634 -0.11695709 -0.22243965
-0.06938062 -0.32168958 0.099364825 -0.2707931 -0.0037301215 0.59728134 -0.91888875 -0.7543867
-0.8496547 -1.1875501 -0.6587917 0.23493421 -0.028666971 0.006446295 -0.33081034 -0.81742156
-0.13190879 -0.3144476 1.0127085 0.5126854 0.013402173 -0.23466825 -0.39161184 -1.150421
0.4891008 -1.4608394 -0.6335737 -0.7952059 -0.98830664 -1.0993134 0.2054149 -0.038922243
-0.8801519 -0.7328092 -0.73470765 -0.38929102 -1.4047993 -1.155124 -0.1653257 -0.3082474
-0.41621667 0.024272338 -1.2630885 0.41052464 -1.0737292 -0.6961973 -0.16849801 -0.23295562
-1.3921046 -0.6098676 -0.51248074 -1.6896085 -0.75967985 -0.8480219 -0.6984658 0.3354952
-0.41636917 -0.27852058 -1.4217036 -0.38138428 -1.2533833 -0.6455528 -1.3352553 -1.1812456
-1.0369775 -1.4811053 -0.10878421 -1.1317384 -0.26687708 0.38847047 -0.61335063 -0.38168827
00000000: 2a27 50be bd02 3fbf 1a31 a5bf 34e3 dbbf
00000010: c5b8 9bbf 8da7 03be 70e8 b2be 724d df3d
00000020: 349c f8be 557b 6e3d c8ad 22bf 3a92 cdbf
00000030: 7d18 58bf c021 d8bd 3359 3d3e 6ca4 01bf
00000040: c5fb a9bf 6574 8ebe 044e a4bf 6f30 b43e
00000050: 7623 3abf a941 b6bf 2d1c 88be 184c 6ebf
00000060: d0ee 0c3e 6ad2 abbf d07d 3dbe 8489 72be
00000070: a72c 9cbf f634 56bf 3a2a b1bf b603 68be
00000080: 45f5 98bf b0da 89bf 34e4 c2be f3ab ef3e
00000090: a3b4 40bf 7acf 3cbd 81c7 63bf 7c8f b8bf
000000a0: 23dd 6fbe cef8 fdbe 80fd fd3d 557f aabd
000000b0: ba77 883e 916b 67bb 5bc7 15bf 1e19 b03d
000000c0: 33ff 46be c145 c2bf 1280 b9bf ba40 22bf
000000d0: 2fc8 2ebf 929d adbe f7f6 8e3e 6af6 54bf
000000e0: 048c 113f cdcc 82be ba49 5cbe 6469 7bbe
000000f0: ef3c 75bf 796d b6bf cf70 71be a6ee 93bf
00000100: 30da 54bf f917 92bf a57a 6e3f 36c2 b73d
00000110: 86b3 7cbf b2db 89be 1580 99bf 55db 8dbe
00000120: d985 aabf 1afb f6bf b765 34bf 24cb 8fbf
00000130: 17fb 2bbf 4647 14bf 8ca9 adbf 348c d8be
00000140: 0770 a2be 1a08 16bf 1450 84be 4fb9 94bf
00000150: a148 5c3d 2917 2dbf 1152 6abe 9d27 01be
00000160: 7133 b3bf 3aa9 053f 59ce 5abf a8e8 8fbf
00000170: 122a 19bf 9399 7a3c d80a 30bf defd aa3c
00000180: a72d 03bf 9aa2 50be 5bdb 6bbe 121f 17bf
00000190: 1d02 0bbf a513 433e e28f b8bf c602 64be
000001a0: 5f2a 64bf debc b0be 37c9 47bf ca58 7dbf
000001b0: bb85 78bf a6a4 0dbf ce71 b43f 6d77 c0bf
000001c0: 18e8 433b 8e21 2a3e 6d1a 81be 6ec4 9fbe
000001d0: 4436 bebf b833 31be 58e4 debe 3495 f5be
000001e0: 9150 3abf b6bf c6bd 72c8 4bbf 31f3 283f
000001f0: e3f9 aebf 52c4 54bf 1801 bbbf 7034 2abe
00000200: 5514 ddbc 1d5b 043d 4967 cabd 494d 46be
00000210: d7d0 70bf b202 43bf 4568 a13e 210d 6dbf
00000220: fd4a 8ebf a7b7 a1be 6d4d 93bf 3ab2 50ba
00000230: 591b 3fbe f4b2 08bf de42 2cbe 4486 bebf
00000240: 7ee6 98bf ba9c 193f 4c8a c5be 7dbf 05bd
00000250: 7026 35bf a3e1 85bf 5312 8cbf aab7 53be
00000260: d877 bbbe 52b9 71be 1996 93bf 7abe 553e
00000270: 9302 0fbf afbc 01c0 0551 4ebf a683 99bf
00000280: 75e3 0bbf 2c7d 9abf c39b 75bf cc10 4abf
00000290: 1501 89be 9fee 89bf b269 a3be 5a8c b4bf
000002a0: 9c08 6bbf a371 61be 2828 8bbf fa68 f8be
000002b0: debf d5be 5940 393f 4e0c 8ebf 3527 383f
000002c0: 35b6 eebf 7d9f cabf dd29 1cbf 370c 44be
000002d0: 6494 78bf d949 c0be 3387 efbd 38c7 63be
000002e0: 6d17 8ebd 7fb4 a4be c97f cb3d 65a5 8abe
000002f0: 0e75 74bb 6ee7 183f 4b3c 6bbf 7d1f 41bf
00000300: f882 59bf a401 98bf 93a6 28bf 9892 703e
00000310: ffd6 eabc 713b d33b f95f a9be 8a42 51bf
00000320: 1913 07be 47ff a0be 6fa0 813f 5a3f 033f
00000330: ca94 5b3c e04c 70be 5981 c8be ff40 93bf
00000340: 6c6b fa3e c9fc babf e331 22bf 9d92 4bbf
00000350: aa01 7dbf 4db6 8cbf 4958 523e ee6c 1fbd
00000360: a351 61bf 6299 3bbf cd15 3cbf 2751 c7be
00000370: 77d0 b3bf 1adb 93bf 244b 29be 9ad2 9dbe
00000380: 5a1a d5be c8d6 c63c e2ac a1bf 4930 d23e
00000390: f56f 89bf fc39 32bf be8a 2cbe eb8b 6ebe
000003a0: 7c30 b2bf 4820 1cbf f031 03bf 1745 d8bf
000003b0: 617a 42bf f717 59bf a8ce 32bf 07c6 ab3e
000003c0: 572e d5be 409a 8ebe 62fa b5bf cd44 c3be
000003d0: dd6e a0bf f342 25bf a5e9 aabf 0e33 97bf
000003e0: aebb 84bf dc94 bdbf 42ca debd cedc 90bf
000003f0: 1da4 88be 9ae5 c63e 8c04 1dbf a56c c3be

fc2.weight f4 [300, 400]
-0.015625095 -0.10316159 -0.44678792 -0.05092067 -0.38382152 0.035121694 -0.042688515 0.13043147
-0.16008185 -0.3307912 -0.14543995 -0.26593533 -0.36213732 -0.17951894 -0.056744795 0.2498912
0.0969612 0.19509959 -0.16965435 0.10144347 -0.5487626 -0.3112349 0.08276932 0.201671
-0.09401823 -0.014818195 -0.031331737 0.27248585 0.039057095 0.09562904 -0.29556483 0.12850028
-0.5661911 0.057607573 0.43242913 0.06080685 -0.14990136 0.43260792 -0.18857886 -0.22617452
0.1863228 -0.113418065 -0.07820659 -0.32735798 0.1115569 -0.18657613 -0.057865363 -0.014387178
0.17806159 -0.13368292 -0.1487957 0.15101595 -0.16016231 -0.17196703 0.11405732 -0.18984842
-0.16592906 -0.073231086 -0.075785145 0.48860654 0.058899503 -0.71408224 -0.14622375 -0.027786782
-0.005952042 0.040021203 -0.05635513 0.04546013 -0.10347302 0.10096812 -0.16647445 -0.24854116
-0.07912897 -0.33718082 -0.31191438 -0.19041468 0.03153871 -0.21829775 0.4459117 -0.27795163
-0.00061786914 -0.28234452 0.0009418882 0.23490362 0.25011474 -0.10303642 -0.010088935 -0.12305018
-0.4090045 0.12078669 -0.22213332 -0.0076266546 -0.3739748 0.23524038 -0.25786486 -0.05931078
0.20542611 0.09838575 0.11308427 -0.1403944 0.06189091 0.1651065 -0.08551114 -0.046535254
-0.46818003 -0.05475847 0.0757002 -0.3072533 -0.048070077 0.15380545 0.02713746 -0.23715073
-0.28015104 0.013386377 -0.22709243 -0.035542656 -0.15501544 -0.019520726 0.042917244 0.15408857
-0.30873746 -0.19448268 0.07232658 -0.10698821 -0.09792382 -0.082592 -0.016418302 -0.2852115
-0.022819474 -0.016888807 0.10726238 0.028228601 -0.53117925 0.03905188 -0.16388164 -0.42773825
-0.18622446 0.05006832 -0.18381643 0.045244064 -0.2153205 0.08038215 0.14492139 -0.14684662
0.16162261 -0.10830398 -0.13871057 0.22865108 -0.2712938 -0.20124187 -0.1558946 0.31318396
0.027778212 -0.14949307 0.09348475 -0.046264797 0.16529426 -0.0696697 -0.18198955 0.40178633
0.1138189 -0.31442973 -0.012236566 -0.003855004 0.07302097 -0.114587806 -0.09812201 0.07055334
-0.04602489 -0.16181932 0.12221423 -0.15126035 0.19602942 0.010040507 0.02160838 -0.8316108
-0.026845027 -0.22241347 0.1053744 -0.32478902 0.20137 -0.118187934 -0.055852216 0.24819843
0.12571675 0.050644994 -0.0983038 -0.04149642 0.32336447 -0.107082084 -0.20641258 0.16102658
-0.066898085 -0.33771726 -0.13840957 -0.09122574 0.17692016 0.19838679 -0.06654195 -0.49026954
-0.13117653 0.08382879 -0.0025294514 -0.23718649 -0.28404325 -0.13336106 0.18405782 0.21340121
-0.13544722 0.065843076 -0.26871887 0.004426534 -0.024779724 -0.060493186 0.12119498 0.15902683
-0.039042942 -0.3622625 -0.10191585 -0.4622136 -0.08628154 0.025747182 -0.099503346 -0.50759965
0.026233705 -0.0059974906 -0.17912257 0.03381412 -0.15691386 0.031974573 0.05052951 -0.10487671
-0.051493622 -0.06706051 0.13747078 -0.3872249 -0.035072524 0.1266883 0.26870096 -0.096938856
-0.10636087 -0.1372145 -0.04590791 -0.11594232 -0.035938285 0.2163576 -0.14958546 0.11839654
-0.048973087 -0.13033612 -0.16241537 0.1661615 -0.18249619 -0.15540881 0.22320023 0.10448779
00000000: 3300 80bc 6246 d3bd 63c1 e4be 3192 50bd
00000010: 4184 c4be c4db 0f3d 27da 2ebd d48f 053e
00000020: 7fec 23be 775d a9be 36ee 14be ad28 88be
00000030: 106a b9be d0d3 37be 3b6d 68bd 7be3 7f3e
00000040: 9893 c63d 30c8 473e dfb9 2dbe 98c1 cf3d
00000050: b57b 0cbf 2e5a 9fbe f682 a93d d882 4e3e
00000060: a18c c0bd 04c8 72bc b555 00bd 4483 8b3e
00000070: 55fa 1f3d 28d9 c33d 4654 97be 9495 033e
00000080: e6f1 10bf ebf5 6b3d 5a67 dd3e 9b10 793d
00000090: be7f 19be c97e dd3e d11a 41be 4b9a 67be
000000a0: 67cb 3e3e bb47 e8bd c72a a0bd 779b a7be
000000b0: f277 e43d d00d 3fbe 3b04 6dbd 33b8 6bbc
000000c0: c755 363e 2de4 08be e65d 18be eda3 1a3e
000000d0: 9701 24be 2018 30be e296 e93d a067 42be
000000e0: 4fe9 29be 2efa 95bd 3e35 9bbd a32a fa3e
000000f0: 9b40 713d 18ce 36bf aebb 15be 1ba1 e3bc
00000100: 5909 c3bb 46ed 233d a3d4 66bd 6734 3a3d
00000110: aae9 d3bd 60c8 ce3d 4778 2abe 9381 7ebe
00000120: 5f0e a2bd f7a2 acbe 3eb3 9fbe 11fc 42be
00000130: bc2e 013d 7289 5fbe 8a4e e43e ad4f 8ebe
00000140: 7ff8 21ba 768f 90be 0ce9 763a 938a 703e
00000150: 0a0f 803e c204 d3bd 0f4c 25bc bc01 fcbd
00000160: 0a69 d1be 035f f73d eb76 63be 04e9 f9bb
00000170: a079 bfbe dbe2 703e dd06 84be dcef 72bd
00000180: 395b 523e 787e c93d ba98 e73d 8dc3 0fbe
00000190: 5381 7d3d ae11 293e 7720 afbd c09b 3ebd
000001a0: 4bb5 efbe 6b4a 60bd b508 9b3d 4e50 9dbe
000001b0: 21e5 44bd 2d7f 1d3e 614f de3c a4d7 72be
000001c0: f56f 8fbe 8952 5b3c eb8a 68be 2d95 11bd
000001d0: 5ebc 1ebe eee9 9fbc fec9 2f3d 65c9 1d3e
000001e0: d612 9ebe 7826 47be f51f 943d a21c dbbd
000001f0: 498c c8bd ff25 a9bd ad7f 86bc 3e07 92be
00000200: e8ef babc 655a 8abc 61ac db3d ab3f e73c
00000210: 5dfb 07bf ddf4 1f3d 97d0 27be 8200 dbbe
00000220: a0b1 3ebe 7014 4d3d 603a 3cbe d751 393d
00000230: fa7c 5cbe 669f a43d 4666 143e f65e 16be
00000240: 6680 253e 7ace ddbd 250a 0ebe 8223 6a3e
00000250: 05e7 8abe 5912 4ebe d6a2 1fbe a659 a03e
00000260: 228f e33c b614 19be ef74 bf3d 2880 3dbd
00000270: e642 293e fdae 8ebd 785b 3abe f0b6 cd3e
00000280: e219 e93d effc a0be e17b 48bc 3ca4 7cbb
00000290: 058c 953d 03ad eabd 31f4 c8bd 457e 903d
000002a0: 9884 3cbd f7b3 25be 744b fa3d fee3 1abe
000002b0: f0bb 483e f080 243c 0f04 b13c 72e4 54bf
000002c0: 1aea dbbc 5bc0 63be 89ce d73d bf4a a6be
000002d0: f033 4e3e 840c f2bd 4bc5 64bd bb27 7e3e
000002e0: e4bb 003e 2071 4f3d 8153 c9bd 26f8 29bd
000002f0: 0790 a53e da4d dbbd d25d 53be 27e4 243e
00000300: dd01 89bd 47e9 acbe 3dbb 0dbe 90d4 babd
00000310: 8f2a 353e e825 4b3e 2547 88bd 9c04 fbbe
00000320: 2453 06be 6eae ab3d 27c5 25bb 04e1 72be
00000330: 1e6e 91be cd8f 08be a779 3c3e d985 5a3e
00000340: adb2 0abe bcd8 863d 8595 89be 750c 913b
00000350: d9fe cabc b4c7 77bd 1335 f83d eed7 223e
00000360: 7eeb 1fbd 787a b9be 42b9 d0bd 43a7 ecbe
00000370: 60b4 b0bd c1eb d23c 69c8 cbbd 0df2 01bf
00000380: 11e8 d63c 9986 c4bb e86b 37be ad80 0a3d
00000390: 07ae 20be c5f7 023d 08f8 4e3d 9ac9 d6bd
000003a0: faea 52bd 0557 89bd 24c5 0c3e 5842 c6be
000003b0: 35a8 0fbd 94ba 013e 2c93 893e e187 c6bd
000003c0: bad3 d9bd f581 0cbe ef09 3cbd 2b73 edbd
000003d0: 0634 13bd d98c 5d3e ee2c 19be e379 f23d
000003e0: 0198 48bd d576 05be 3750 26be 3e26 2a3e
000003f0: 48e0 3abe 7d23 1fbe 9a8e 643e b2fd d53d

fc2.bias f4 [300]
-0.025855962 -0.39223173 -0.1460807 -0.11596169 0.0010640719 0.24073893 -0.50287896 -0.073093995
-0.93918866 -0.05455134 -0.1019844 -0.13141795 -0.2324479 -0.11300679 -0.062110707 -0.11506762
-0.08399271 -0.08205407 1.8506285 0.7012195 0.5374973 -0.042935874 0.14306171 0.056990314
0.66134816 -0.07494472 -0.060672 -0.12400684 -0.5955555 -0.02968482 2.3180263 -0.11095043
-0.060188457 -0.21707742 -0.114951394 -0.08909339 0.6242107 0.37633845 -0.06218894 -0.07772677
-0.14234945 1.901082 -0.047866676 -0.29070705 1.0302994 -0.19537379 -0.30454218 -0.09055221
-0.851781 0.084128305 -0.3329042 -1.6873248 0.0027376954 1.3505343 -0.15551612 -0.018953737
-1.1575296 0.92599213 -0.013663726 -0.13743503 -0.012881042 0.007151493 -0.11525389 0.16247635
-0.0719779 -0.6153053 0.20882955 -0.11992094 0.34987065 -0.4572885 1.1694233 2.0079036
-0.028348183 0.054332957 -0.14172658 -0.2012359 -0.0657656 -0.006102078 -0.15576646 -0.055027436
-0.18768181 0.85626405 0.0014639123 -0.009670956 -0.107615545 -0.06800971 -0.06744943 -0.21693578
-0.119099885 -0.30623406 -0.25711384 -0.05339352 -0.17681885 -0.104906514 -0.07573895 -0.09412701
-0.11143323 -0.13836189 -0.016638467 -0.12026963 -0.11543568 0.3278169 -0.1970755 -0.10270561
-0.0604306 -0.15176699 0.33659568 -0.08280211 -0.058018845 0.59412175 -0.012768539 0.28064752
-0.046042025 -0.057728272 0.7541127 -0.09058946 -0.10648753 -0.1906531 1.201762 -0.045603186
-0.07391952 1.1052022 -0.05774988 -0.0046808785 -0.015467141 -2.626787 -0.11863646 0.1279533
-0.04709554 -0.08277827 0.0630506 -0.049519215 -0.03442001 -0.06435366 0.28909174 -0.10635193
0.055658497 -0.20770302 -0.17999578 -0.21383336 -0.12799366 -0.07647656 -0.09649778 -0.020431189
-0.10703887 -0.28695792 -0.019728972 -0.22604637 -0.113126 -0.03547784 1.5013388 2.2068577
-0.09139562 -0.0281798 0.37179324 -0.124759346 0.87675536 0.70448935 -0.14030798 -0.16630457
-0.089330316 0.024802443 -0.13587935 -0.22292905 -0.06448857 -0.17516482 -0.0848391 -0.09414042
-0.0791856 -0.059567824 -0.016961077 -0.087537706 -0.11324372 -0.18806924 -0.006873773 -0.13815625
0.5593102 0.25292352 -1.04744 -0.0682228 -0.03933501 -0.10306026 0.74339396 -0.038928203
-0.10805662 -0.36317444 1.3384359 -0.12736781 0.028348926 -0.12967451 0.007707493 0.023859203
0.5974976 -0.01957698 -0.07088983 -0.046027124 -0.07987105 -0.074073 -0.10211255 -0.12530921
-0.20382276 0.97134745 -0.033154 1.0449538 -0.09828443 -0.034860928 -0.09579892 -0.11634465
-0.0946709 0.10820264 -0.07366173 0.35027596 -0.077571794 -0.023435265 -0.072456226 -0.08685225
0.8399051 -0.02276285 1.6905378 -0.037105046 -0.043908924 -0.21361282 -0.099762626 -0.274578
0.0005707674 1.7053554 -0.08489274 -0.11117395 -1.3146294 0.3000488 -0.03174733 1.2411793
0.19831648 0.10693438 -0.11977044 0.19045421 -0.081601076 -0.12080905 0.27426544 -0.04279357
0.05964022 0.15621139 -0.030000724 -0.094240256 0.14008576 -0.14135107 -0.12571676 -0.04083779
-0.08486742 -0.79376775 -0.0659608 -0.017446855 -0.09381557 -0.09366059 1.591176 -0.091873944
00000000: e2cf d3bc 99d2 c8be 2e96 15be 537d edbd
00000010: 5478 8b3a 4484 763e adbc 00bf 4eb2 95bd
00000020: ab6e 70bf 3a71 5fbd 32dd d0bd 6d92 06be
00000030: d306 6ebe 1b70 e7bd cc67 7ebd 93a8 ebbd
00000040: 5f04 acbd f70b a8bd 65e1 ec3f 1f83 333f
00000050: 6c99 093f 87dd 2fbd c57e 123e ad6e 693d
00000060: 1d4e 293f 9e7c 99bd 3483 78bd 4cf7 fdbd
00000070: 5376 18bf 942d f3bc 8b5a 1440 fb39 e3bd
00000080: 2c88 76bd 8b49 5ebe a36b ebbd 9876 b6bd
00000090: 46cc 1f3f 6faf c03e d4b9 7ebd 362f 9fbd
000000a0: 0ec4 11be a856 f33f d90f 44bd 8ed7 94be
000000b0: dae0 833f 1110 48be f4ec 9bbe 7073 b9bd
000000c0: 520e 5abf 764b ac3d 6b72 aabe 42fa d7bf
000000d0: e86a 333b 4fde ac3f 9e3f 1fbe de44 9bbc
000000e0: ee29 94bf d20d 6d3f d2dd 5fbc c5bb 0cbe
000000f0: 020b 53bc 1257 ea3b 3b0a ecbd 3360 263e
00000100: 2669 93bd a684 1dbf 6ad7 553e 1c99 f5bd
00000110: 3f22 b33e b821 eabe aaaf 953f 7e81 0040
00000120: 733a e8bc 3c8c 5e3d c620 11be c910 4ebe
00000130: 1db0 86bd f1f3 c7bb 3e81 1fbe 7364 61bd
00000140: a92f 40be 1f34 5b3f bfe0 bf3a ee72 1ebc
00000150: 8a65 dcbd ad48 8bbd ed22 8abd 6a24 5ebe
00000160: a4ea f3bd b6ca 9cbe 6da4 83be 2ab3 5abd
00000170: 0010 35be 3ad9 d6bd 061d 9bbd a9c5 c0bd
00000180: 1b37 e4bd bdae 0dbe 654d 88bc ec4f f6bd
00000190: 8b69 ecbd 9ed7 a73e 29ce 49be 5257 d2bd
000001a0: 1486 77bd ce68 1bbe 4556 ac3e 2794 a9bd
000001b0: 2ba5 6dbd 5d18 183f 2233 51bc 08b1 8f3e
000001c0: 9096 3cbd 7b74 6cbd 880d 413f f886 b9bd
000001d0: 2216 dabd 913a 43be 56d3 993f 68ca 3abd
000001e0: 1e63 97bd 4477 8d3f 238b 6cbd 0e62 99bb
000001f0: e469 7dbc 471d 28c0 acf7 f2bd 3106 033e
00000200: 41e7 40bd a787 a9bd ac20 813d a9d4 4abd
00000210: fffb 0cbd dacb 83bd d503 943e 0acf d9bd
00000220: 2afa 633d 1ab0 54be d050 38be 22f7 5abe
00000230: c510 03be be9f 9cbd a1a0 c5bd 4f5f a7bc
00000240: 3237 dbbd 26ec 92be a79e a1bc b378 67be
00000250: 9bae e7bd 3651 11bd df2b c03f 283d 0d40
00000260: a02d bbbd 53d9 e6bc af5b be3e d481 ffbd
00000270: 0a73 603f 6a59 343f e5ac 0fbe bf4b 2abe
00000280: d0f2 b6bd 7e2e cb3c f523 0bbe 8347 64be
00000290: 9512 84bd 685e 33be 1fc0 adbd b1cc c0bd
000002a0: 0f2c a2bd 64fd 73bd f5f1 8abc f846 b3bd
000002b0: 53ec e7bd 3995 40be 633d e1bb d578 0dbe
000002c0: f42e 0f3f 317f 813e 8412 86bf 65b8 8bbd
000002d0: bf1d 21bd 4211 d3bd 114f 3e3f 2e73 1fbd
000002e0: ca4c ddbd 00f2 b9be de51 ab3f b56c 02be
000002f0: 023c e83c 65c9 04be 238f fc3b 6074 c33c
00000300: 9af5 183f e75f a0bc b02e 91bd f086 3cbd
00000310: 6f93 a3bd 96b3 97bd 6220 d1bd 0f51 00be
00000320: eab6 50be 3aaa 783f 7dcc 07bd 0cc1 853f
00000330: 5949 c9bd 55ca 0ebd 3932 c4bd 1b46 eebd
00000340: d1e2 c1bd 5999 dd3d f6db 96bd 5f57 b33e
00000350: f6dd 9ebd 50fb bfbc ee63 94bd 98df b1bd
00000360: 0504 573f 2879 babc 8b63 d83f 76fb 17bd
00000370: d8d9 33bd 52bd 5abe 5950 ccbd 7d95 8cbe
00000380: 8d9f 153a 1649 da3f 3fdc adbd 2baf e3bd
00000390: c745 a8bf ff9f 993e 7d09 02bd f7de 9e3f
000003a0: 7a13 4b3e 6a00 db3d 344a f5bd 6e06 433e
000003b0: 771e a7bd bc6a f7bd 856c 8c3e 4f48 2fbd
000003c0: 4e49 743d e1f5 1f3e 14c4 f5bc 0901 c1bd
000003d0: a472 0f3e 56be 10be e5bb 00be 8745 27bd
000003e0: f8ce adbd 5d34 4bbf 7516 87bd b5ec 8ebc
000003f0: 6122 c0bd 20d1 bfbd a8ab cb3f 6828 bcbd

fc3.weight f4 [1, 300]
-0.13893408 0.6140416 -0.3964994 -0.11405583 0.0043405723 -2.1333954 0.791008 -0.007955458
-0.49021566 0.009555285 -0.017947534 0.007986937 -0.0064361435 -0.37781334 0.024511501 -0.02167432
-0.21225978 -0.44985157 -0.4784392 -1.0221133 -0.34572217 -0.27850592 -0.68442285 -0.40324938
0.32125452 -0.016815046 0.027808389 -0.016776301 0.6319478 0.031170093 -0.18717895 -0.007587725
0.004040687 0.41100213 -0.0080586495 -0.025578056 -0.4270833 -0.47547925 -0.029707916 -0.023888262
-2.070262 0.23235555 0.024795743 0.43808562 -0.4577398 -0.19356775 0.18811508 0.01999533
0.18871593 2.2689126 -0.61420035 0.088128105 0.012462133 0.29974246 -0.021356551 -0.37577486
0.34919718 -0.5828753 -0.015749985 0.009767255 -0.0062312526 -0.00097527605 -0.104618914 0.20697817
-0.0040237363 0.71122116 -0.72110367 0.0113585135 1.2398373 0.54448605 0.1368139 -1.9226927
0.03027118 -0.3802019 -2.4591121e-05 -0.6545609 0.019564314 -0.0032165353 -0.027258534 -0.44209105
-0.04821834 -0.1647694 -0.026463555 -0.0063566086 0.0021195759 0.019055065 -0.031158172 0.14072521
0.0052162963 0.030792348 -0.63293636 -0.2236413 -0.047585785 0.015517432 -0.022719264 -0.010096943
-0.01662431 -0.050495982 0.0027370434 0.011132203 -0.04337546 -0.5398576 -0.09940946 0.023493381
-0.012800575 0.0021589708 -1.3637503 -0.012886817 0.005164235 -1.036943 -0.0017481756 0.3256711
0.018979067 0.003395489 -0.42409042 -0.00012612302 -0.013291569 0.0030241238 -3.0785353 -0.0067003598
-0.012971381 -0.7066793 0.008457255 -0.0118903 0.014461684 0.5999736 -0.009194304 -0.79559255
-0.0033603315 -0.010398505 -0.017889049 -0.007171517 0.43825686 0.97024035 -0.61764175 0.012758853
-0.7980652 -0.04430976 -0.0015521321 -0.5844658 -0.030771114 -0.028996384 -0.017635357 -0.028800434
-0.0044386415 -0.55291104 0.019416045 0.3046426 -0.0029322489 -0.030222377 0.21104906 -0.54915416
0.025866393 -0.0085755335 -0.0761681 0.002172149 -0.39406157 -0.23238657 0.6358808 -0.029919513
-0.10056877 -0.30130586 -0.33359855 -0.35305354 0.03037586 0.0030439608 0.02012944 0.023423344
0.0130218575 -0.08057885 0.006375515 -0.024397137 -0.024045097 -0.2534839 0.027646339 -0.005304865
-0.27197263 -0.339954 0.33502147 0.01255899 -0.047991846 0.015173588 -0.53562665 -0.0058556492
-0.03115929 -0.65885246 -0.5538474 -0.2392339 0.0020905186 0.00644732 -0.0017228437 -0.3335747
-0.98943293 0.024452271 -0.6263272 0.0022007872 0.006892492 -0.021991715 -0.00838573 -0.07854186
0.047797382 -0.35619304 -0.0038736302 -1.7116681 -0.21545161 -0.0058413073 -0.005612761 0.024822192
-0.8012004 -1.0877738 0.0025399285 -2.8551366 0.010345235 -0.018799508 -0.020214748 0.026304115
-0.41788933 -0.30355182 0.16240297 -0.00096990936 -0.020661412 0.03035649 -0.44839722 0.43679813
-0.0070076967 -0.95277905 0.026118223 -0.014711279 -0.71730083 -0.46907482 0.012129278 0.1619859
0.5501868 0.19070987 -0.016569922 0.5320149 0.001288521 0.004123761 -0.39257887 -0.02040921
-0.2617215 0.20419557 0.002037433 -0.009881995 -0.7675686 -0.0827872 -0.0030420984 0.029903494
-0.026954178 0.48996252 0.029913925 0.01860654 0.00040672353 -0.21644105 0.3135074 0.02639911
00000000: bc44 0ebe d531 1d3f f801 cbbe 1a96 e9bd
00000010: 5c3b 8e3b 8d89 08c0 807f 4a3f 9c57 02bc
00000020: 8cfd fabe c58d 1c3c b506 93bc a4db 023c
00000030: 49e6 d2bb c070 c1be 58cc c83c 588e b1bc
00000040: a15a 59be f252 e6be fcf5 f4be 9cd4 82bf
00000050: 7f02 b1be 5498 8ebe 5636 2fbf b476 cebe
00000060: 797b a43e b5bf 89bc 6bce e33c 746e 89bc
00000070: 55c7 213f 6c58 ff3c d7ab 3fbe 73a2 f8bb
00000080: bd67 843b df6e d23e 6d08 04bc 1289 d1bc
00000090: aaaa dabe 0472 f3be 045e f3bc 51b1 c3bc
000000a0: 2c7f 04c0 9dee 6d3e 7120 cb3c c24c e03e
000000b0: df5c eabe a036 46be 3da1 403e 3fcd a33c
000000c0: c03e 413e dd35 1140 3c3c 1dbf 827c b43d
000000d0: f92d 4c3c d877 993e eff3 aebc 9065 c0be
000000e0: f9c9 b23e 5137 15bf 1d06 81bc d606 203c
000000f0: 892f ccbb aba9 7fba 7142 d6bd 16f2 533e
00000100: 8cd9 83bb 9712 363f 409a 38bf 0f19 3a3c
00000110: fdb2 9e3f 7063 0b3f f118 0c3e cb1a f6bf
00000120: 44fb f73c d3a9 c2be 0849 ceb7 4e91 27bf
00000130: 5745 a03c 82cc 52bb 4a4d dfbc c259 e2be
00000140: 9880 45bd 4fb9 28be 19ca d8bc 194b d0bb
00000150: 95e8 0a3b 5e19 9c3c 6c3f ffbc 451a 103e
00000160: 77ed aa3b 3c40 fc3c 1e08 22bf 3a02 65be
00000170: 50e9 42bd d43c 7e3c c01d babc a66d 25bc
00000180: b42f 88bc e0d4 4ebd f85f 333b d863 363c
00000190: 77aa 31bd 1c34 0abf 3097 cbbd 3175 c03c
000001a0: 81b9 51bc 857d 0d3b 5f8f aebf 3a23 53bc
000001b0: be38 a93b 8cba 84bf 0a23 e5ba 5dbe a63e
000001c0: fd79 9b3c da86 5e3b 6122 d9be e43f 04b9
000001d0: e2c4 59bc 6130 463b b906 45c0 b18e dbbb
000001e0: ea85 54bc efe8 34bf 4c90 0a3c 88cf 42bc
000001f0: b3f0 6c3c df97 193f b5a3 16bc f4ab 4bbf
00000200: 0239 5cbb 7e5e 2abc 0e8c 92bc 0bff eabb
00000210: 3463 e03e ac61 783f c51d 1ebf 820a 513c
00000220: 004e 4cbf 277e 35bd e970 cbba 8d9f 15bf
00000230: b413 fcbc d389 edbc 0678 90bc e3ee ebbc
00000240: 0672 91bb 948b 0dbf 660e 9f3c 1dfa 9b3e
00000250: f92a 40bb eb94 f7bc 3f1d 583e 5e95 0cbf
00000260: c2e5 d33c 6580 0cbc 05fe 9bbd 9d5a 0e3b
00000270: 70c2 c9be bff6 6dbe 16c9 223f c419 f5bc
00000280: 00f7 cdbd c344 9abe 6ecd aabe 6fc3 b4be
00000290: ccd6 f83c 307d 473b 7fe6 a43c 50e2 bf3c
000002a0: a159 553c 8606 a5bd b2e9 d03b 81dc c7bc
000002b0: 39fa c4bc a4c8 81be 937a e23c 6fd4 adbb
000002c0: ff3f 8bbe 730e aebe ef87 ab3e 39c4 4d3c
000002d0: 1993 44bd a49a 783c d41e 09bf bfe0 bfbb
000002e0: c441 ffbc 8eaa 28bf f1c8 0dbf bbf9 74be
000002f0: 1501 093b 0a44 d33b 0bd1 e1ba 4eca aabe
00000300: 7a4b 7dbf 2150 c83c fb56 20bf 153b 103b
00000310: 6ada e13b f827 b4bc 4d64 09bc 8eda a0bd
00000320: 30c7 433d ef5e b6be bbdc 7dbb f117 dbbf
00000330: 599f 5cbe 7068 bfbb 40eb b7bb e957 cb3c
00000340: 781b 4dbf 2c3c 8bbf ee74 263b 8fba 36c0
00000350: 0f7f 293c 6d01 9abc 6699 a5bc ba7b d73c
00000360: 97f5 d5be 256b 9bbe f74c 263e 8441 7eba
00000370: 1f42 a9bc 2cae f83c 5294 e5be 01a4 df3e
00000380: d2a0 e5bb 54e9 73bf e2f5 d53c 9407 71bc
00000390: 07a1 37bf 932a f0be e1b9 463c a2df 253e
000003a0: 0bd9 0c3f 7349 433e a5bd 87bc 2132 083f
000003b0: 97e3 a83a 9d20 873b 1900 c9be 3731 a7bc
000003c0: 5c00 86be a518 513e 7486 053b 17e8 21bc
000003d0: 607f 44bf 568c a9bd f15d 47bb 2cf8 f43c
000003e0: 02cf dcbc 5edc fa3e 0c0e f53c be6c 983c
000003f0: 823d d539 b9a2 5dbe 0b84 a03e f242 d83c
