Char10 TD3/expTD3_BipedalWalker-v2.pyBipedalWalker-v2./critic_1.pth (torch_old, 529901 bytes, 5 tensors)

fc1.weight f4 [400, 28]
0	0xbf56a130	-0.838397
1	0xbfa323d5	-1.274531
2	0xbf8687cb	-1.0510191
3	0x3f300849	0.6876264
4	0x3e2024a2	0.15638974
5	0xbef4f19e	-0.4784059
6	0x3f85dd20	1.0458107
7	0xbf90926a	-1.1294682
8	0xbf18cd2f	-0.59688085
9	0x3f2525e5	0.6451095
10	0xbed0cf10	-0.40782976
11	0xbf9ad407	-1.2095956
12	0xbef7590f	-0.48310134
13	0x3ff5e73b	1.9211191
14	0xbfd7a9c2	-1.6848681
15	0xc0007cee	-2.007625
16	0xbfebcebf	-1.8422469
17	0xbff811aa	-1.9380391
18	0xbff48d35	-1.9105593
19	0xbff03785	-1.8766943
20	0xbfef40ea	-1.8691685
21	0xbff224a3	-1.8917431
22	0xbfe5b3b3	-1.7945465
23	0xbf9dfebc	-1.2343364
24	0x3dacb835	0.08433572
25	0x3eb6b40a	0.35684234
26	0x3f6c5c35	0.92328197
27	0xbec6c3ea	-0.38821346
28	0x3f2a4798	0.66515493
29	0x3ee47ff0	0.4462886
30	0x3f1559d7	0.5834021
31	0xc0953786	-4.663028
32	0x3eb9ffcb	0.36327967
33	0x3f1df567	0.6170258
34	0xbf47cb8b	-0.78044957
35	0x3de276cd	0.11057816
36	0x3fc67115	1.550326
37	0xbff275ce	-1.8942201
38	0x3f3c39a2	0.7352544
39	0x401f3979	2.4878829
40	0x3f858f27	1.0434312
41	0x3f09b5d8	0.53793097
42	0xbf7989bf	-0.9747581
43	0xbf91efaf	-1.1401271
44	0xbf8fc14d	-1.1230866
45	0xbf837ec0	-1.0273056
46	0xbf85698a	-1.0422833
47	0xbf8d1898	-1.102313
48	0xbf5b49a8	-0.85659266
49	0xbf91faa2	-1.1404612
50	0xbe9150b7	-0.28381893
51	0xbe62c4d0	-0.2214539
52	0x3d0ce310	0.03439623
53	0xbe5d3774	-0.21603185
54	0xbf6b8d19	-0.9201217
55	0x3f1f3f3f	0.6220588
56	0xbd7b822f	-0.06140345
57	0x3d7167ca	0.05893687
58	0x3c843e23	0.01614291
59	0x3d105eb2	0.03524656
60	0x3c620baf	0.013796731
61	0x3d24250f	0.040074404
62	0xbe26f971	-0.16306092
63	0xbc052f27	-0.008128918
64	0xbe09fa5a	-0.13474408
65	0x3dd775fb	0.1052055
66	0x3ddaef1f	0.1069014
67	0xbc9e0bf2	-0.019292805
68	0x3d0329f2	0.032022424
69	0x3e2f14d3	0.17097788
70	0xbe5f40f1	-0.21802117
71	0x3c8592b0	0.016305298
72	0xbdef127e	-0.11673449
73	0xbd597459	-0.053089473
74	0xbe0b8a89	-0.13627066
75	0xbe4bbc69	-0.19896092
76	0xbd85f226	-0.06540327
77	0xbe87479d	-0.26421824
78	0xbe9754bc	-0.29556835
79	0xbe484d72	-0.19560793
80	0xbd706d87	-0.058698203
81	0x3d84f246	0.064915225
82	0xbd30908d	-0.043106604
83	0xbdd40e80	-0.10354328
84	0x4019c16f	2.4024312
85	0x406324ef	3.5491292
86	0xbf7b02d6	-0.980512
87	0xbf6fcc7e	-0.93671405
88	0x3f9bc420	1.2169228
89	0x3f04ea6e	0.5192021
90	0x3eb7abe1	0.3587332
91	0x3efdc7fa	0.49566633
92	0x3e897c4b	0.2685264
93	0x3f2df2ab	0.67948407
94	0x3f59d890	0.85096073
95	0x3e77c586	0.24196443
96	0xbe5fc4e2	-0.21852449
97	0xbfd6fa3a	-1.6795113
98	0xbfafc05e	-1.3730581
99	0xbf990de3	-1.1957363
100	0xbfab562c	-1.3385673
101	0xbfadd473	-1.3580459
102	0xbf96b899	-1.1775085
103	0xbf8ee6a9	-1.1164142
104	0xbfa121ca	-1.2588437
105	0xbfb1937a	-1.3873131
106	0xbf972389	-1.180772
107	0xbf77d05d	-0.9680231
108	0xbe401c0c	-0.18760699
109	0xbe893f5e	-0.26806158
110	0x3ed25d46	0.41086787
111	0x3d9c4169	0.076296635
112	0xbee35c64	-0.44406426
113	0xc11770c0	-9.465027
114	0x3f88c8be	1.0686262
115	0x40e05832	7.010766
116	0xbeb6cb24	-0.3570186
117	0xbef956de	-0.48699087
118	0xbfaed092	-1.3657401
119	0xbf011906	-0.5042881
120	0xbeb18425	-0.3467113
121	0xbf648daf	-0.8927869
122	0xbe864fbb	-0.26232705
123	0xbf11909f	-0.568613
124	0xbe03d68e	-0.12874815
125	0xbe260ec1	-0.16216566
126	0x3e8d0e83	0.27550134
127	0x3edbc7c7	0.42925856
128	0x3ee631d3	0.44959888
129	0x3f032284	0.5122454
130	0x3edb3d85	0.42820373
131	0x3e864ef2	0.26232105
132	0x3f08f12f	0.53493017
133	0x3eb39d2d	0.35080853
134	0x3ea49157	0.32142136
135	0xbf13714b	-0.57594746
136	0x3f0b6684	0.544533
137	0xbeb320c5	-0.3498594
138	0xbe99672b	-0.29961523
139	0xbe789104	-0.24274069
140	0xbf8d98c8	-1.106225
141	0xbfe64089	-1.7988445
142	0xbfeebc74	-1.8651261
143	0xc0271f67	-2.6112916
144	0x3ed948db	0.42438397
145	0xbf0e3c1d	-0.55560476
146	0xc07890a4	-3.8838282
147	0x3f4ff657	0.8123526
148	0xbde9891f	-0.11403107
149	0xc028ebcd	-2.6393921
150	0x3ebc5615	0.36784425
151	0x3f8cb95e	1.099407
152	0xbeb80622	-0.3594218
153	0xbe026cb0	-0.12736773
154	0xbf8c7b1d	-1.0975071
155	0xbfa9b951	-1.3259679
156	0xbf976907	-1.1828927
157	0xbfa8d170	-1.3188915
158	0xbfa48d6a	-1.2855656
159	0xbf86d89e	-1.0534856
160	0xbf8e1f9a	-1.1103394
161	0xbfb324d0	-1.3995609
162	0xbf11a321	-0.5688954
163	0xbf45440d	-0.7705696
164	0xbf96eacb	-1.1790403
165	0xbf307dad	-0.68941766
166	0xbf720475	-0.9453805
167	0xbf65aac0	-0.8971367
168	0xbf8aa96f	-1.0832957
169	0xbffef36e	-1.9918039
170	0xc02c8b28	-2.6959934
171	0xbf889431	-1.0670224
172	0xbfd1fd89	-1.6405498
173	0xbf053bac	-0.5204418
174	0x4034a534	2.8225832
175	0xbead0bbe	-0.3379802
176	0xbff650cb	-1.9243406
177	0x3fa4940e	1.2857683
178	0xbf49ee5c	-0.7887933
179	0xbf471797	-0.7777037
180	0xbfece3fc	-1.8507075
181	0xc03e8bbf	-2.9772794
182	0xbe175d4d	-0.14781685
183	0xbe22044a	-0.15821949
184	0x3b20df7e	0.0024547274
185	0xbbcb29fc	-0.0062000733
186	0xbda7812d	-0.08178935
187	0xbe520f79	-0.20513715
188	0x3da890ba	0.082307294
189	0xbbafa2c2	-0.0053599784
190	0xbefaa0c8	-0.4895079
191	0xbf9dbf7c	-1.2324061
192	0x3f306aba	0.6891285
193	0x3dc6b39e	0.09702228
194	0xbf6d8878	-0.9278636
195	0x3f17985c	0.59216857
196	0x3f0f2aa0	0.55924416
197	0x40917d53	4.5465484
198	0xbf8cad97	-1.0990475
199	0x3f01328b	0.5046775
200	0xbf81d0e1	-1.014187
201	0x3e00405c	0.12524551
202	0x3f23fe49	0.64059883
203	0xbe8d42e2	-0.2759009
204	0x3e6fd2fd	0.2342033
205	0x3e401e57	0.18761574
206	0x3f468955	0.775533
207	0xbf721a1d	-0.94571096
208	0xbf9b1a28	-1.2117357
209	0xbf1c8f8a	-0.61156523
210	0xbe2b8f60	-0.16753912
211	0xbe4fc166	-0.2028862
212	0xbe075591	-0.13216235
213	0xbe419785	-0.18905456
214	0xbe1ea29d	-0.1549172
215	0xbea20f35	-0.31652227
216	0xbeb23312	-0.3480459
217	0xbe350c1d	-0.17680402
218	0xbecb1877	-0.39667103
219	0xbf2ba642	-0.67050564
220	0x3fc50808	1.5393076
221	0xbe449637	-0.19197927
222	0x3fa6dd93	1.3036369
223	0x3f8a690f	1.0813311
224	0xc01a7017	-2.4130914
225	0xc08b8254	-4.359659
226	0x40265e33	2.5994995
227	0xbfe6821e	-1.8008459
228	0xbebcc3d4	-0.36868155
229	0x3e333ea6	0.17504367
230	0x3d06e56c	0.032933637
231	0x3ba4fc64	0.00503497
232	0xbf522228	-0.8208337
233	0xc0506329	-3.2560523
234	0xbe64b794	-0.22335654
235	0x3c286286	0.010277396
236	0x3d86e478	0.06586546
237	0x3d26b859	0.04070315
238	0x3c7e27d0	0.015512422
239	0x3d10eb0f	0.03538042
240	0x3dd4f8af	0.10398995
241	0xbd1e4b4c	-0.038646027
242	0x3bf1cc69	0.007379104
243	0xbe261307	-0.16218196
244	0xbe452f59	-0.19256343
245	0xbedc65e4	-0.43046486
246	0xbed96ccc	-0.42465818
247	0x3f48a659	0.78378826
248	0xbd2343f5	-0.03985973
249	0x3db0b9fc	0.08629224
250	0x3e0fe88d	0.14053555
251	0x3db42bea	0.087974384
252	0xbbf72e22	-0.0075433413
253	0x3f150b47	0.5822033
254	0xbfbb56f9	-1.4635917
255	0xbeaf6775	-0.3425862

fc1.bias f4 [400]
0	0xbf7d0882	-0.98841107
1	0x3f40228c	0.75052714
2	0xbe36d498	-0.17854536
3	0x3f10aaf8	0.5651088
4	0xbf66f3a1	-0.902155
5	0xbf23a08a	-0.6391684
6	0xbfaeb67f	-1.3649443
7	0xbf95a00e	-1.168947
8	0x3f8dc32f	1.107519
9	0xbf81b612	-1.0133688
10	0xbf7d327e	-0.9890517
11	0xbd93c9b9	-0.0721621
12	0xbeb1539d	-0.34634104
13	0xbe6af1b8	-0.22943771
14	0xbf80312f	-1.001501
15	0xbe1bbcf9	-0.15208806
16	0x3cf501b5	0.02990804
17	0xbf10c105	-0.56544524
18	0xbf5123d8	-0.8169532
19	0xbe9f865b	-0.31157193
20	0xbf4e796c	-0.80654025
21	0xbf4bc9f9	-0.7960506
22	0xbf9ba253	-1.2158912
23	0xbf8995dd	-1.074886
24	0xbf6f1b05	-0.93400604
25	0xbf316af3	-0.69303817
26	0xbf060022	-0.5234395
27	0x3d0a8794	0.033820704
28	0x3e54afc4	0.20770174
29	0x3dfbffe2	0.12304665
30	0xbf8d33be	-1.1031415
31	0xbfa68b3f	-1.3011245
32	0xbf6e828e	-0.9316796
33	0xbf677bea	-0.9042345
34	0xbe91601d	-0.2839364
35	0xbfaaacf1	-1.3334028
36	0x3d999c9e	0.075005755
37	0x3e49d002	0.19708255
38	0xbfb66185	-1.4248511
39	0x3f5f07fd	0.87121564
40	0xbe8aa926	-0.27082175
41	0x3e340897	0.17581402
42	0xbefd1392	-0.49428993
43	0xbf21c368	-0.6318879
44	0xbee1fcf1	-0.4413829
45	0xbf155c3d	-0.5834387
46	0xbc619a29	-0.013769665
47	0xbec18036	-0.3779313
48	0x3f160fb1	0.58617693
49	0xbdd49d2f	-0.10381543
50	0xbe71e95d	-0.23624177
51	0x3e8d7719	0.27629927
52	0xbd542855	-0.051796276
53	0xbee1fb28	-0.4413693
54	0xbf4a83bf	-0.7910728
55	0x3e85c745	0.26128593
56	0xbef11a15	-0.47090212
57	0xbf8c6978	-1.0969687
58	0xbf8136ca	-1.0094845
59	0xbf7fb881	-0.99890906
60	0xbf975d41	-1.1825334
61	0xbef76895	-0.48321977
62	0xbebe7b91	-0.3720365
63	0xbf090099	-0.53516537
64	0x3dbdc824	0.092666894
65	0xbefdd52d	-0.49576703
66	0x3db05398	0.08609694
67	0xbf6f8f34	-0.93577886
68	0x3e0675ba	0.13130847
69	0xbdb036b2	-0.08604182
70	0xbe2de622	-0.1698232
71	0xbf32c667	-0.6983399
72	0x3ea1075d	0.3145093
73	0xbe93a56c	-0.28837144
74	0xbe2304f9	-0.15919866
75	0x3f13ce1d	0.5773638
76	0xbf1dcade	-0.61637676
77	0xbf6ddf42	-0.9291879
78	0xbf9dbb0e	-1.232271
79	0xbe7bd792	-0.24593952
80	0xbfae7ce0	-1.3631859
81	0xbfa0be79	-1.2558128
82	0xbf2a666c	-0.66562533
83	0x3d40cd49	0.047070775
84	0xbe00dcff	-0.12584303
85	0xbde663b0	-0.11249483
86	0x3e7cf53e	0.24702927
87	0xbf970001	-1.1796876
88	0xbf04e357	-0.51909393
89	0xbe13d658	-0.14437234
90	0xbf1d2a09	-0.61392266
91	0x3c9bf6cc	0.01903858
92	0xbeda1a1c	-0.42598045
93	0xbe83cca7	-0.25742075
94	0xbf764bad	-0.9620922
95	0x3e3fc447	0.18727218
96	0xbdc94d25	-0.09829167
97	0xbf7d0228	-0.98831415
98	0xbf9ff41a	-1.2496369
99	0x3daa23ed	0.083076335
100	0xbf08d540	-0.53450394
101	0xbf5ec1ae	-0.8701428
102	0xbd1820ce	-0.03714066
103	0xbf28545b	-0.65753716
104	0x3f281895	0.6566251
105	0x3f016f66	0.50560606
106	0xbf9447b8	-1.1584387
107	0xbecf356e	-0.4047045
108	0xbf10e5a9	-0.56600434
109	0xbecb28b5	-0.39679495
110	0xbe5dbe90	-0.21654725
111	0xbf174956	-0.59096277
112	0xbe6578d4	-0.22409374
113	0x3ea8c318	0.32961345
114	0xbf11da57	-0.56973785
115	0xbf9cbe5b	-1.2245592
116	0xbf1da973	-0.61586684
117	0xbf82e0df	-1.0224875
118	0xbf6e7a98	-0.93155813
119	0xbf03dece	-0.5151185
120	0xbf25faaa	-0.6483561
121	0x3ea2bc99	0.31784514
122	0xbebab4ab	-0.36465964
123	0x3d91a657	0.07111805
124	0xbf6a93eb	-0.91631955
125	0xbe75da55	-0.24009068
126	0xbf6f8229	-0.93557984
127	0x3e880920	0.26569462
128	0xbde4ded6	-0.11175315
129	0xbef3f494	-0.47647536
130	0xbecf6d16	-0.40512913
131	0x3ea6afce	0.32556003
132	0x3eb97d2f	0.3622832
133	0xbe498f8e	-0.19683668
134	0x3ee80376	0.4531514
135	0x3d72318c	0.059129283
136	0xbc02d736	-0.007985881
137	0xbf2fd03a	-0.68677104
138	0xbf7ae8f9	-0.9801174
139	0xbfadc3ad	-1.357534
140	0xbfe88fc8	-1.8168879
141	0x3f44a14e	0.7680863
142	0x3c32691a	0.010889316
143	0xbfb586fd	-1.418182
144	0xbeb362b8	-0.35036254
145	0xbe48f7b7	-0.19625746
146	0xbe86a6fc	-0.26299274
147	0xbfae74fe	-1.3629453
148	0xbeb0a09e	-0.3449754
149	0x3d9563d7	0.072944336
150	0x3ed865aa	0.42265064
151	0xbf31a0e2	-0.6938611
152	0xbf01b332	-0.50664055
153	0xbe70a878	-0.23501766
154	0xbf757a99	-0.95890194
155	0xbd98e9df	-0.07466482
156	0x3f18378f	0.59459776
157	0xbd6c0e1c	-0.057630643
158	0x3e80cf60	0.25158215
159	0xbf5e3cbc	-0.86811423
160	0xbf508f07	-0.8146824
161	0xbf54d5dc	-0.83138824
162	0x3d432a11	0.04764754
163	0xbd730e56	-0.059339844
164	0xbf0a5699	-0.5403839
165	0xbe4874f2	-0.19575861
166	0xbe2df23c	-0.16986936
167	0xbed6d4f4	-0.41959345
168	0xbe8704f7	-0.26370975
169	0xbe9ed832	-0.3102432
170	0xbf295940	-0.6615181
171	0x3e0fa69c	0.140284
172	0xbf6c891e	-0.92396724
173	0xbe3ce49d	-0.18446584
174	0x3fac7f16	1.3476284
175	0xbe586dc6	-0.21135625
176	0xbeb6a818	-0.3567512
177	0xbe25139f	-0.16120766
178	0xbf8ef782	-1.1169283
179	0xbda44834	-0.08021584
180	0xbf7690df	-0.96314806
181	0xbf323de5	-0.69625694
182	0xbf472a29	-0.77798706
183	0xbfb99a58	-1.4500227
184	0xbee0e17e	-0.43922037
185	0xbde11c7a	-0.109917596
186	0xbf8307ca	-1.0236752
187	0xbeb4068f	-0.35161254
188	0xbe89637e	-0.2683372
189	0xbf01744f	-0.505681
190	0xbf13c870	-0.5772772
191	0xbe708352	-0.23487595
192	0xbf7fbc44	-0.99896646
193	0xbe6b5713	-0.22982435
194	0xbfbf95f5	-1.4967638
195	0xbf2e522d	-0.6809414
196	0xbe6faf59	-0.23406734
197	0x3f0256f8	0.50913954
198	0x3ced8d19	0.028997945
199	0xbfadb3f9	-1.3570548
200	0xbec9b6e1	-0.39397338
201	0x3e99e51f	0.30057618
202	0xbe1b2af0	-0.15153098
203	0xbf035621	-0.513033
204	0xbf87bfe3	-1.0605434
205	0xbe860d5c	-0.26182067
206	0x3db98a62	0.090595976
207	0x3e2035f6	0.15645584
208	0xbf85910f	-1.0434893
209	0xbe60b135	-0.21942599
210	0xbf309d8f	-0.68990415
211	0xbeaf9cd8	-0.3429935
212	0xbf527a9d	-0.82218343
213	0xbed91cfd	-0.4240493
214	0xbe9602bc	-0.2929896
215	0xbf49f943	-0.7889597
216	0xbe49405e	-0.1965346
217	0x3d81f62e	0.06345783
218	0xbe921c55	-0.2853724
219	0xbee4837a	-0.4463156
220	0xbf3ef840	-0.7459755
221	0xbde7e9ec	-0.11323914
222	0xbedd1584	-0.43180478
223	0xbfb4e03f	-1.4130934
224	0xbe98e07f	-0.29858777
225	0xbdd7b78a	-0.10533054
226	0xbf314ec4	-0.6926081
227	0x3eb7f956	0.35932416
228	0x3eb289e5	0.3487083
229	0xbf895852	-1.0730078
230	0xbeb314b5	-0.34976736
231	0x3f5c89f9	0.8614803
232	0xbf9819ce	-1.1882875
233	0xbd10dcf4	-0.035366967
234	0xbf14b5e3	-0.5809004
235	0xbf7f6425	-0.99762183
236	0xbf23196f	-0.63710684
237	0xbf6c6fa5	-0.92357856
238	0x3e9b4605	0.30326858
239	0xbd21a25f	-0.03946149
240	0xbd516822	-0.0511247
241	0xbf06f2b2	-0.52714074
242	0xbc6f9662	-0.014623256
243	0x3f2d455b	0.67683953
244	0xbd438d72	-0.047742315
245	0xbfb7fa72	-1.4373305
246	0xbf7f9da8	-0.9984994
247	0x3f765fb7	0.962398
248	0xbdc63591	-0.09678186
249	0xbf99a551	-1.2003576
250	0xbf15506a	-0.5832583
251	0x3b6c87dc	0.003609172
252	0xbf9f4845	-1.244393
253	0xbfad5fb8	-1.3544836
254	0xbf95ea93	-1.1712211
255	0xbf4a1139	-0.7893253

fc2.weight f4 [300, 400]
0	0x3d0729a2	0.03299869
1	0xbcd5ecb1	-0.02611384
2	0xbc783588	-0.015149482
3	0xbaf02cf1	-0.001832394
4	0x3cace617	0.02110581
5	0x3d37b4f1	0.044850294
6	0xbba7b3d3	-0.0051178723
7	0x3cf0db04	0.02940131
8	0x3c9ec3fe	0.019380566
9	0x3d5639ef	0.052301344
10	0x3cdbecb9	0.026846277
11	0xbd2b40a6	-0.0418097
12	0xbcbf117f	-0.023323772
13	0xbc00f074	-0.0078698285
14	0xbcd82cc3	-0.026388532
15	0xbd3d3b51	-0.046199147
16	0xbd813050	-0.06308043
17	0xbd53127d	-0.051531304
18	0xbd3ff2f1	-0.046862546
19	0x3cd6d60a	0.026225109
20	0xbd3fcc2d	-0.046825577
21	0x3c1344a1	0.00898853
22	0x3c8fc07f	0.017547844
23	0xbd184c96	-0.037182413
24	0xbcd4ffe9	-0.026000934
25	0x3c12a7ca	0.008951137
26	0xbc102b22	-0.008799346
27	0xbd42f165	-0.047593493
28	0xbc667f5a	-0.014068449
29	0x3ca6bbb0	0.020353168
30	0xbd395dfe	-0.045255654
31	0xbd532117	-0.05154523
32	0xbd893b4d	-0.06700764
33	0x3ca856ab	0.020549139
34	0xbc9f54dd	-0.019449646
35	0xbda60429	-0.08106262
36	0x3c6c5295	0.014423986
37	0xbb6c4e7f	-0.003605753
38	0x3d01cc85	0.031689186
39	0x3c1fd9bc	0.009756502
40	0xbd323c79	-0.043514702
41	0x3ca529e4	0.020161577
42	0xbca99c1b	-0.02070432
43	0xbc9bc422	-0.019014422
44	0xba0fab81	-0.0005480573
45	0xbd83e22e	-0.06439625
46	0xbd60605c	-0.054779395
47	0x3c5de3f8	0.0135431215
48	0xbbd158f1	-0.0063887765
49	0xbc0ce008	-0.008598335
50	0xbd3af015	-0.045639116
51	0xbc586b15	-0.013209124
52	0xbbb1c571	-0.005425148
53	0x39f27b1e	0.00046249566
54	0xbc204c91	-0.00978388
55	0xbcbdac7e	-0.02315354
56	0xbb034a3d	-0.0020033263
57	0xbd3ef670	-0.04662174
58	0x3d012bf4	0.031536058
59	0x3c36d87f	0.011160015
60	0xbd057ec3	-0.032591593
61	0xbd4d90e3	-0.050187003
62	0xbcce9891	-0.025219234
63	0xbcee0bfd	-0.02905845
64	0xbc4541b7	-0.012039593
65	0xbd7d919b	-0.06190644
66	0x3c442668	0.011972047
67	0x3cdd86ba	0.027041782
68	0x3bd69a46	0.0065491525
69	0xbd1f2dff	-0.038862225
70	0xbc3e63ac	-0.011620443
71	0xbd133d0b	-0.035946887
72	0xbd835f75	-0.06414691
73	0x3d109609	0.035299335
74	0xbcb061bf	-0.021530984
75	0xbd3727c6	-0.044715665
76	0x3c47aeee	0.012187703
77	0xbd5b2e54	-0.05351098
78	0xbd94c52d	-0.07264171
79	0x3c87ff57	0.016601248
80	0xbd879cb4	-0.066216856
81	0xbd288d7e	-0.041150562
82	0x3b5d4e8f	0.0033768748
83	0xbd63b9ca	-0.055597104
84	0xbcb18608	-0.021670356
85	0xbd152aae	-0.036417656
86	0xbd98226a	-0.07428439
87	0xbcedcd8f	-0.029028682
88	0xbce16395	-0.027513305
89	0xbc827d0b	-0.015928766
90	0xbc63b206	-0.013897425
91	0x3cbc5549	0.022989886
92	0xbd14c093	-0.036316466
93	0xbca15385	-0.019693146
94	0xbc1cd922	-0.009573253
95	0xbd1f8c74	-0.038952306
96	0xbc12cafd	-0.008959529
97	0x3d70bf67	0.058776285
98	0x3d15ed83	0.036603462
99	0x3cb0a38f	0.021562366
100	0x3d079181	0.033097748
101	0x3a8e6505	0.0010863846
102	0xbd7c1cd3	-0.061550926
103	0xbd2436a4	-0.04009117
104	0x3c637bf2	0.013884531
105	0x3cc38a53	0.023869669
106	0xbcffba9d	-0.031216914
107	0x3be55ca7	0.0069995704
108	0xbd6e7b66	-0.05822315
109	0xbca313f3	-0.019906973
110	0xbc15795c	-0.009123173
111	0x3d060d61	0.032727603
112	0xbd776152	-0.060395546
113	0x3db71625	0.089397706
114	0xbd5bea25	-0.053690095
115	0xbcb8ad22	-0.022543494
116	0xbc82a41f	-0.0159474
117	0xbd3f0eb1	-0.04664487
118	0xbd832089	-0.0640269
119	0xbd87314e	-0.06601201
120	0xbd1d5a48	-0.038416177
121	0xbc9a6174	-0.018845297
122	0xbcb3f75f	-0.021968542
123	0xbbef42c6	-0.007301661
124	0xbcae7aab	-0.021298727
125	0x3d3471b7	0.04405376
126	0x3a733f30	0.000927913
127	0x3c9d6564	0.019213386
128	0x3ca24125	0.019806454
129	0x3ac8a78b	0.0015308721
130	0xbd0b15c4	-0.033956304
131	0xbd5dbb49	-0.054133687
132	0xbd83c2b3	-0.0643362
133	0x3d48cad1	0.049021546
134	0xbbafc54a	-0.005364095
135	0xbd2f986f	-0.04286998
136	0x3c033cb7	0.008010081
137	0x3bbd6470	0.0057797953
138	0xbbecb4c9	-0.0072236997
139	0xbccf8377	-0.025331242
140	0xb886e5bf	-6.4324115e-05
141	0x3cbdec51	0.023183974
142	0xbcb92f1f	-0.022605477
143	0xbc300772	-0.010743963
144	0xbd3d0669	-0.04614869
145	0xbd1a5de1	-0.037687186
146	0xbc46b5ab	-0.012128274
147	0xbca41b1d	-0.02003246
148	0x3d206c40	0.039165735
149	0xbd8c4978	-0.068499506
150	0x3d12a82c	0.035804912
151	0xbce6553c	-0.028116815
152	0x3cb7f2f5	0.022454718
153	0x3c869f26	0.01643331
154	0x3b1d5419	0.0024006425
155	0xbc3e4d5f	-0.011615126
156	0xbd5ce8b6	-0.053932868
157	0x3bbec9c4	0.005822392
158	0xbd035b63	-0.032069575
159	0xbd5008ea	-0.05078975
160	0xbb50984c	-0.0031829057
161	0xbd2ceb71	-0.042216722
162	0xbd2ebaf8	-0.042658776
163	0xba7cea27	-0.00096479285
164	0x3cecd747	0.028911246
165	0x3cb55a7e	0.022137877
166	0xbd80674a	-0.06269701
167	0x3d203ed9	0.039122436
168	0xbccd0e13	-0.025031125
169	0xbd0e2db9	-0.034711573
170	0xbd868b70	-0.06569564
171	0x3d06b1af	0.032884296
172	0xbd4e809c	-0.05041562
173	0xbcf9218c	-0.030411504
174	0x3c88aaa9	0.01668294
175	0xbcaee487	-0.021349205
176	0xbd668692	-0.05628068
177	0xbd07f3d6	-0.033191524
178	0xbd1c07b8	-0.0380933
179	0xbcab4e6e	-0.020911422
180	0x3c6fb89e	0.0146314185
181	0xbc943e89	-0.018096225
182	0xbd55a65a	-0.0521606
183	0xbcb31dad	-0.021864736
184	0xb9c2eda1	-0.0003717961
185	0x3be26eff	0.0069102044
186	0x3b9399bb	0.00450441
187	0xbd25ba4a	-0.040460862
188	0x3c801d54	0.015638985
189	0xb91b7a66	-0.00014827549
190	0xbd151833	-0.03640003
191	0xbc5b7a0a	-0.013395796
192	0xbc591c19	-0.013251328
193	0x3d3f1503	0.046650898
194	0xbbd14a64	-0.006387042
195	0xbd705397	-0.058673467
196	0x3cc4c536	0.024019819
197	0x3d0b13c1	0.033954386
198	0x3c521e7c	0.012824651
199	0xbd19ec11	-0.037578646
200	0xbd23c96d	-0.039987016
201	0xbd2f5d97	-0.042813864
202	0x3cbff311	0.023431333
203	0x3bd3fd5b	0.0064694113
204	0xbc402fc4	-0.011730138
205	0x3ce4ac9c	0.027914338
206	0xb98ff3cb	-0.00027456725
207	0xbd032135	-0.03201409
208	0xbc2ede0e	-0.010673059
209	0xbd204ebc	-0.039137587
210	0xbce94d82	-0.028479341
211	0x3b445481	0.0029957595
212	0x3d1673eb	0.03673164
213	0xbd674cfd	-0.056469906
214	0x3ca5205c	0.020157032
215	0x3d066ecd	0.03282051
216	0xbcf091fd	-0.029366488
217	0x3a2159e7	0.0006155059
218	0xbce596fe	-0.0280261
219	0x3d16c4bb	0.03680871
220	0x3c86af51	0.01644102
221	0xbcd5b346	-0.02608646
222	0xbda80ca0	-0.08205533
223	0x3ccfc40c	0.025362037
224	0x3bb98824	0.005661981
225	0x3b6dbed0	0.0036277063
226	0xbcd9bf79	-0.02658056
227	0xbc71edcf	-0.014766171
228	0xb9c9e039	-0.00038504766
229	0xbd4da3b4	-0.050204948
230	0xbd679e3a	-0.05654738
231	0xbd568282	-0.052370556
232	0xbc774815	-0.015092869
233	0xbbb96893	-0.005658218
234	0xbd067c5d	-0.032833446
235	0xbd2ec54c	-0.042668626
236	0xbb33833b	-0.0027391452
237	0xbb8d2426	-0.0043072877
238	0x3b16221c	0.0022908514
239	0xbc0835c6	-0.008313602
240	0x3cb2124a	0.021737237
241	0x3d889243	0.06668522
242	0xbd3fba78	-0.04680869
243	0xbd620b42	-0.055186518
244	0x3b0ee35c	0.0021802997
245	0xbc27a96f	-0.010233267
246	0xbb171de1	-0.002305858
247	0xbba924cb	-0.0051618568
248	0xba2cf36a	-0.0006597551
249	0xbbd638f1	-0.0065375497
250	0xbd433971	-0.047662202
251	0xbd3f688d	-0.046730567
252	0xbd07b149	-0.033128057
253	0xbcdcb4d4	-0.026941694
254	0xbc0dac57	-0.008647046
255	0xbd7cf63d	-0.06175827

fc2.bias f4 [300]
0	0xbd98f261	-0.07468105
1	0xbda4eda5	-0.080531396
2	0xbda21177	-0.079134874
3	0xbd545409	-0.051837955
4	0x3fac866e	1.3478525
5	0xbe18c59a	-0.14919129
6	0xbdcd8d8f	-0.10036766
7	0xbb3bf7bb	-0.0028681594
8	0x3f1a8ab5	0.603679
9	0xbca0729b	-0.019585898
10	0x3ea400f7	0.32031986
11	0x3e4fb923	0.20285468
12	0xbdeb5a16	-0.11491792
13	0xbd864715	-0.065565266
14	0xbd207a59	-0.03917918
15	0xbd7044d8	-0.058659405
16	0xbdcaf00c	-0.099090666
17	0x3e71b694	0.23604804
18	0x3e8d4322	0.2759028
19	0x3ea6590d	0.32489815
20	0xc01c0267	-2.4376466
21	0x3da55018	0.08071917
22	0xbdac2b41	-0.084066875
23	0x3fcbb41e	1.5914342
24	0xbdc7507c	-0.09732148
25	0xbdbe491f	-0.092912905
26	0xbd80b86f	-0.06285178
27	0xbd87c3e0	-0.06629157
28	0x3f696386	0.91167486
29	0xbe879796	-0.26482838
30	0xbd730e8e	-0.059340052
31	0xbe19a1a2	-0.15003064
32	0xbe141a7e	-0.14463231
33	0xbd87a3d5	-0.06623045
34	0x3e492d79	0.19646253
35	0xbd4b45fc	-0.04962729
36	0xbec55f75	-0.3854939
37	0xbd81264e	-0.06306134
38	0xbd5bd76a	-0.05367223
39	0x3fbf2628	1.4933519
40	0xbe12c62f	-0.14333414
41	0x3d8c0ead	0.06838737
42	0xbd853a86	-0.06505303
43	0x3fbb14c7	1.4615716
44	0xbde1fe52	-0.11034836
45	0xbe630f59	-0.22173823
46	0x3e09678c	0.13418406
47	0xbbb79dd1	-0.00560353
48	0xbd8110a4	-0.06302002
49	0xbc729502	-0.014806034
50	0x3f8806cc	1.0627074
51	0xbd2b60fe	-0.041840546
52	0x3e16c92a	0.14725175
53	0xbdc3d9c4	-0.0956302
54	0xbd2ed309	-0.042681728
55	0xbe9c2d2e	-0.3050322
56	0xbd8486bd	-0.06471012
57	0xbebd6782	-0.36993033
58	0x3ec46649	0.38359287
59	0xbd8193ad	-0.06326995
60	0xbe7b593c	-0.24545759
61	0xbe419175	-0.18903144
62	0x3f0ff085	0.5622638
63	0xbe5376f0	-0.2065084
64	0x40093e11	2.1444132
65	0xbd4e674a	-0.050391473
66	0xbec4e2cd	-0.38454285
67	0xbced70eb	-0.028984508
68	0xbdbda672	-0.092602625
69	0x3fb7dbf7	1.4364003
70	0xbda23629	-0.079204865
71	0x3f983442	1.1890948
72	0xbd9d5593	-0.076823376
73	0xbdc09e79	-0.09405226
74	0x3ed674fd	0.4188613
75	0xbec26b2a	-0.37972385
76	0xbd60ea8e	-0.05491119
77	0xbfcb10bb	-1.5864481
78	0x3fb1a7dc	1.3879352
79	0xbd1a3cea	-0.03765575
80	0x3fc6472c	1.549047
81	0xbd90174c	-0.070356935
82	0x3f84eb52	1.0384314
83	0xbdfe7c78	-0.12426084
84	0xbdfcf7cb	-0.1235195
85	0x3cb7cbe3	0.022436088
86	0xbc871107	-0.016487611
87	0xbdcc5d5f	-0.099787466
88	0xbdec2f95	-0.11532513
89	0x3f674ad2	0.9034854
90	0xbdb90235	-0.09033624
91	0xbf9ed9cc	-1.2410216
92	0xbeac7c2f	-0.33688495
93	0xbc7a7811	-0.015287415
94	0xbc1a4f98	-0.009418391
95	0xbfe8c200	-1.8184204
96	0xbd9569a9	-0.07295544
97	0xbcb9ec63	-0.022695726
98	0xbdc90ae4	-0.0981653
99	0xbd50ff6c	-0.05102484
100	0xbd81f3c8	-0.06345326
101	0xbc2e7994	-0.010649104
102	0xbccde44f	-0.02513328
103	0x4006e92e	2.1079822
104	0x3fe38f25	1.7778059
105	0xbc7e5487	-0.015523083
106	0xbd41b180	-0.047288418
107	0xbc8b37ce	-0.016994383
108	0xbd1a5dfe	-0.037687294
109	0xbe201e1b	-0.15636484
110	0xbd5b5432	-0.05354709
111	0x3f846b16	1.034518
112	0xbd0ee917	-0.03489026
113	0x3ed9bc47	0.42526457
114	0xbe496fb5	-0.19671519
115	0xbe001f78	-0.12512004
116	0xbd6214a2	-0.05519546
117	0xbe1301a7	-0.14356099
118	0xbd9ee9a2	-0.07759406
119	0xbd1d7253	-0.038439106
120	0x3fbdacc8	1.4818354
121	0xbed8f831	-0.42376855
122	0xbe96c7d4	-0.29449332
123	0xbf6ce63a	-0.925388
124	0xbdeb8446	-0.114998385
125	0x4000dc26	2.0134368
126	0x3faec7ca	1.3654721
127	0xbde4a5c7	-0.11164432
128	0xbbf6a310	-0.007526763
129	0xbe8386b1	-0.256887
130	0xbdfefe45	-0.12450842
131	0x400c38b7	2.1909616
132	0xbd12d9fc	-0.035852417
133	0xbd9e76b3	-0.07737484
134	0xbd4719cd	-0.04860859
135	0xbd1337c8	-0.03594187
136	0xbcfa9097	-0.030586524
137	0xbd8edbbe	-0.06975506
138	0xbc9b4db9	-0.01895796
139	0xbebb58a8	-0.36591077
140	0xbdb70f29	-0.089384384
141	0xbdab9296	-0.083775684
142	0xbd41aec3	-0.047285806
143	0xbd82a071	-0.06378258
144	0xbd94238e	-0.07233344
145	0xbd93d4a3	-0.072182916
146	0xba29798b	-0.00064649497
147	0x3f039258	0.5139518
148	0xbd598d94	-0.053113535
149	0xbe0d05df	-0.13771771
150	0xbd5b135f	-0.05348527
151	0x3d119a82	0.03554774
152	0xbd94339e	-0.07236408
153	0x3fe1691a	1.76102
154	0x3e5d4f72	0.21612337
155	0x3eaca066	0.33716124
156	0xbd9b1edd	-0.07574246
157	0xbd8cf80b	-0.06883248
158	0xbde1c39d	-0.110236384
159	0xbd7cd7d3	-0.061729264
160	0xbdc3afa4	-0.09554985
161	0xbeb86623	-0.36015424
162	0xbda9013c	-0.082521886
163	0xbe19bb6c	-0.15012902
164	0xbda63b8d	-0.08116827
165	0xbccaaef0	-0.02474162
166	0xbd1f5d82	-0.038907535
167	0xbe8dc2c7	-0.27687666
168	0xbdac8196	-0.08423154
169	0xbd9f0a4b	-0.07765635
170	0xbdacdc8b	-0.08440503
171	0xbaa8c96b	-0.001287741
172	0xbe7c94cc	-0.24666137
173	0x3f9343d8	1.1505079
174	0x3e34cda2	0.17656568
175	0x3e1f3ecd	0.155513
176	0x3d02bbfc	0.031917557
177	0xbdb6fb65	-0.089346685
178	0x3fa6d482	1.3033602
179	0x3dad7f41	0.084715374
180	0x3c42864a	0.011872837
181	0xbd5c50db	-0.053788047
182	0xbeb75a4a	-0.35811073
183	0xbdf87bd5	-0.12132994
184	0xbce24cfb	-0.027624598
185	0xbde58491	-0.11206926
186	0x3efcc56f	0.4936938
187	0xbe0be8da	-0.13663045
188	0xbd6d00d6	-0.057862125
189	0xbdaf8881	-0.08570958
190	0xbf9b699c	-1.2141604
191	0xbda572cc	-0.080785364
192	0x3ebd3d66	0.36960906
193	0xbd20b943	-0.03923918
194	0xbeb1284b	-0.34601054
195	0xbda01585	-0.078166045
196	0xbd5a3512	-0.053273268
197	0xbe805df8	-0.25071692
198	0xbdafb1a8	-0.08578807
199	0x3b9eca96	0.0048459275
200	0x3cf40955	0.029789606
201	0xbed7dc7f	-0.42160413
202	0xbf374454	-0.71588635
203	0xbe27f218	-0.16400945
204	0xbe2cb361	-0.16865303
205	0x3f8f4966	1.1194274
206	0x3caaba3a	0.020840753
207	0xbd46f3b0	-0.048572242
208	0x3f173cad	0.5907696
209	0xbd8b8ebc	-0.06814334
210	0xbdcd2441	-0.100166805
211	0x3fbf03a1	1.4922982
212	0x3fb7fda6	1.4374282
213	0xbd16e077	-0.03683516
214	0xbe129f0b	-0.14318483
215	0x3f91b4a8	1.1383257
216	0x3e82d592	0.25553566
217	0xbefdbe59	-0.49559286
218	0xbd7a7f99	-0.061156843
219	0xbe000dd9	-0.12505282
220	0xbe3635c1	-0.17793943
221	0xbb1b7436	-0.002372039
222	0xbdd1ca06	-0.10243611
223	0xbdc15006	-0.094390914
224	0x3d07736f	0.03306907
225	0x3d7e9713	0.062155794
226	0xbe4cec0b	-0.20011918
227	0x3e34ba2d	0.17649145
228	0x3e97b217	0.2962806
229	0xbe94808a	-0.29004318
230	0x3f5927c6	0.84826314
231	0xbeab10cb	-0.3341125
232	0xbdbc11a4	-0.09183052
233	0xbd9ca97f	-0.07649516
234	0xbee89272	-0.4542423
235	0xbd0edcfd	-0.03487872
236	0xbdbfe2da	-0.093694404
237	0xbd5f5a90	-0.054529727
238	0xbe457cd0	-0.19285893
239	0xbd92bef9	-0.071653314
240	0xbd94e974	-0.0727109
241	0xbab22844	-0.0013592322
242	0xbdb411a4	-0.08792427
243	0xbed20495	-0.4101912
244	0xbe473b3b	-0.19456188
245	0xbdaafeb8	-0.08349365
246	0xbd9f1920	-0.07768464
247	0xbd0c33b1	-0.034228984
248	0x3c6d1ae5	0.014471744
249	0xbe1cd627	-0.15316068
250	0xbe0cdffc	-0.13757318
251	0x3e36dfa7	0.17858754
252	0x3e29d66e	0.16585705
253	0xbfb32e4d	-1.3998505
254	0xbc4a69d2	-0.012354331
255	0xbfba36db	-1.454799

fc3.weight f4 [1, 300]
0	0x3cc48b0e	0.023992088
1	0x3c65361f	0.013989954
2	0xbc2a9164	-0.01041064
3	0x3cfb5b4a	0.030683178
4	0x3e6a4e54	0.22881442
5	0xbc930add	-0.017949516
6	0x3b947ae7	0.0045312527
7	0x3d0854e6	0.03328409
8	0xbe3bbae1	-0.18333007
9	0xbcde8b70	-0.027166098
10	0xbfb2422f	-1.3926448
11	0xbebfbae9	-0.3744729
12	0x3bc98193	0.0061494797
13	0x3c2eaf2e	0.010661883
14	0x3c8af90d	0.01696446
15	0x3ba227b3	0.00494858
16	0x3ce7c78b	0.028293392
17	0x3fe9595c	1.8230395
18	0xbf7fba74	-0.9989388
19	0xbf91a78a	-1.1379254
20	0x3ec98edd	0.3936681
21	0xbcfffa46	-0.03124727
22	0xbceea144	-0.029129632
23	0xbedc6416	-0.4304511
24	0x3cc5b32c	0.024133287
25	0x3ca9581b	0.020671895
26	0x3c0011f6	0.007816782
27	0xbb1f60e4	-0.0024319226
28	0xbec4038c	-0.38283956
29	0xbdf6cf20	-0.12051225
30	0x3c9977fb	0.018733969
31	0x3c8dc80b	0.017307302
32	0x3c09bea0	0.008407265
33	0xbcc8c8f9	-0.024509894
34	0x3ea7b92e	0.32758468
35	0xbc087578	-0.008328788
36	0xbf3c97cd	-0.7366913
37	0x3cd90d0f	0.026495485
38	0xbe4feeea	-0.20305982
39	0xbf987f6e	-1.1913888
40	0xbf3f001e	-0.74609554
41	0x3d106666	0.035253905
42	0x3ccbe694	0.024890222
43	0x3e88cd30	0.26719046
44	0xbc10b663	-0.008832547
45	0x3e6af966	0.229467
46	0xbf8ad517	-1.084628
47	0x3c214f25	0.00984553
48	0xbce437aa	-0.027858574
49	0x3c0dec1a	0.008662248
50	0x3eff8cc3	0.4991208
51	0x3c6a77ff	0.014310836
52	0xbf0bd481	-0.5462113
53	0xbc93770e	-0.018001106
54	0x3caf72fe	0.021417137
55	0x3f54e1c1	0.83156973
56	0x3ab78d50	0.0014003906
57	0xbef84217	-0.48487923
58	0xbd8b41bf	-0.067996494
59	0x3b4f0165	0.0031586525
60	0xbcfd294c	-0.030903481
61	0x3d0d962e	0.03456705
62	0xbf64b77e	-0.89342487
63	0xbfeb7b6d	-1.8397042
64	0xbe37d3d9	-0.17951907
65	0xbbf3ac73	-0.007436329
66	0xc099e06c	-4.8086452
67	0x3b3ec7ad	0.0029110715
68	0x3b9b063f	0.004730969
69	0x3df81cd3	0.12114873
70	0xbc3513b9	-0.0110520655
71	0xbe7b3e84	-0.24535567
72	0x3ac7d054	0.0015244582
73	0xbb7e5af6	-0.003881154
74	0xbf0f49b4	-0.5597184
75	0xbe45275a	-0.19253293
76	0x3ceeff2b	0.029174408
77	0x3f5470ba	0.8298451
78	0x3de77f9c	0.113036364
79	0xbc080a80	-0.008303285
80	0x3e037dce	0.1284096
81	0x3c385625	0.011251007
82	0x3ef22010	0.47290087
83	0xbef50d30	-0.47861624
84	0xbe19a355	-0.15003712
85	0xbef74eff	-0.48302457
86	0xbc3860d0	-0.011253551
87	0x3ce81d9c	0.028334431
88	0xbccb4d6d	-0.024817193
89	0xbe82d640	-0.25554085
90	0x3ccdb99b	0.025112918
91	0x3f6d2e96	0.9264921
92	0x3fade2e0	1.3584862
93	0xbcdfb1f7	-0.02730654
94	0xbc7d811e	-0.0154726785
95	0x3cd7f97d	0.026364082
96	0x3cc418a0	0.023937523
97	0xbf4d2b53	-0.8014423
98	0x3c9e00e3	0.019287532
99	0xbcd73b43	-0.026273375
100	0x3b8e63a7	0.0043453756
101	0xbc82c78b	-0.01596429
102	0x3c62ab82	0.013834836
103	0xbef42eff	-0.47692105
104	0x3ed64a22	0.41853434
105	0x3c4744c3	0.01216239
106	0xbc9a52ff	-0.018838404
107	0x3cbfb8e8	0.0234036
108	0xbc88549d	-0.01664191
109	0x3a1361f7	0.0005622203
110	0xbcc6a63f	-0.024249194
111	0x3ddef6b8	0.108869016
112	0x3cc6ebb3	0.024282312
113	0xbfa9aaa0	-1.3255196
114	0xbc33dc0e	-0.010977758
115	0x3cd0ec7c	0.02550339
116	0xbc1e9f5e	-0.009681551
117	0x3cd37894	0.025814332
118	0xbd1f3760	-0.03887117
119	0x3cc8800d	0.024475122
120	0x3e87408e	0.2641644
121	0xbf4c1e9d	-0.7973421
122	0xbeb8b408	-0.36074853
123	0x3efaec69	0.49008492
124	0xbcfece49	-0.031104224
125	0xbf1c7972	-0.6112281
126	0xbebac023	-0.36474714
127	0xbc98d87b	-0.018657913
128	0x3be8e21b	0.007107032
129	0xbf2b8c62	-0.6701108
130	0xbcab5bce	-0.0209178
131	0xbe847b75	-0.2587544
132	0xbcba3c97	-0.02273397
133	0xbcab824f	-0.02093616
134	0x3c39f574	0.0113500245
135	0xbe9cbc53	-0.3061243
136	0x3c5e3719	0.013562941
137	0xbf00813c	-0.50197196
138	0x3c255a91	0.0100923935
139	0xbf5d31ab	-0.8640391
140	0x3c050441	0.00811869
141	0x3cf8d029	0.030372696
142	0xbbdd792c	-0.0067588296
143	0x3bd2671d	0.0064209835
144	0xbd0fd2bd	-0.035113085
145	0xbeed2cf2	-0.46323353
146	0xbd01ec9a	-0.03171978
147	0xbf1317e4	-0.5745833
148	0xbf3072b9	-0.6892505
149	0x3c9a409f	0.018829642
150	0x3a213935	0.0006150187
151	0xbc9ec1e3	-0.019379562
152	0x3bfdb53d	0.0077425526
153	0x3e6b4fca	0.22979656
154	0x3edf5c83	0.43625268
155	0xbf050262	-0.5195676
156	0xbb12c0e7	-0.002239281
157	0x3b13db8e	0.0022561285
158	0xbcaa26ad	-0.020770395
159	0x3bc8c760	0.006127283
160	0xbb58ca70	-0.0033079647
161	0x3f2f5975	0.68495876
162	0xbb984539	-0.004646924
163	0xbc136a4d	-0.008997512
164	0xbe2a56b5	-0.16634639
165	0x3c2a5fb3	0.010398793
166	0xbcdeae8d	-0.027182842
167	0xbf2348a1	-0.637827
168	0x3ff33376	1.900008
169	0xbc9307a4	-0.01794798
170	0x3ca478ca	0.020077128
171	0xbf5e578a	-0.86852324
172	0xbd381418	-0.044941038
173	0x3e5d7fe4	0.21630818
174	0xbf14b65e	-0.5809077
175	0xbf82f720	-1.0231667
176	0x3fbc8abc	1.4729838
177	0xbe8d9b83	-0.2765771
178	0xbef97857	-0.48724625
179	0xbe9c5f90	-0.30541658
180	0x3bdeaa10	0.0067951754
181	0x3cca1d7f	0.024672268
182	0x3f35c345	0.7100108
183	0xbc670309	-0.014099845
184	0x3c93b3fa	0.018030155
185	0xbbf897d4	-0.0075864587
186	0x3e328302	0.17432788
187	0xbeaefb40	-0.34176064
188	0xb9f87346	-0.00047388131
189	0xbcfdd07d	-0.030983204
190	0x3e20a11c	0.15686458
191	0x3cdd8662	0.027041618
192	0xbf96d89b	-1.1784853
193	0x3cc753cd	0.024331952
194	0xbe0a3d88	-0.13500035
195	0x3c5718a4	0.013128433
196	0xbcc76bac	-0.024343334
197	0x3e62f154	0.22162372
198	0xbc21c24b	-0.009872983
199	0xbeaa787a	-0.3329504
200	0xbbf9d451	-0.007624187
201	0x3f22953e	0.63508976
202	0x3df4ffa2	0.119628206
203	0xbdc3ce8e	-0.095608816
204	0xbe90103f	-0.28137395
205	0xbeb90754	-0.36138403
206	0xbeec6ab8	-0.4617517
207	0x3c8c3045	0.01711286
208	0xbf9240ed	-1.1426064
209	0xbc834736	-0.016025167
210	0xbce6ba1f	-0.028164921
211	0xbf41a18d	-0.7563713
212	0x3e3442be	0.17603585
213	0xbc8e838d	-0.017396713
214	0x3be7b83f	0.0070715244
215	0x3e242066	0.16027984
216	0xbf5e6be3	-0.8688337
217	0x3f7d92d3	0.9905216
218	0xbc748e83	-0.014926556
219	0x3c9328f7	0.01796387
220	0x3ba8a913	0.0051471083
221	0xbf61ac58	-0.881536
222	0x3c5545b7	0.01301711
223	0x3cdef697	0.027217193
224	0xbecb3d27	-0.39695093
225	0xbf213aa8	-0.6298013
226	0x3c8c2ab6	0.01711021
227	0x3f0908df	0.5352916
228	0x3f230c1d	0.6369036
229	0xbec119ca	-0.37714988
230	0xbeb288c8	-0.3486998
231	0xbe9b0f09	-0.30284908
232	0x3c3f17e3	0.01166341
233	0xbcca5005	-0.02469636
234	0xc01af302	-2.421082
235	0xbeff631c	-0.49880302
236	0xbd06fede	-0.032957904
237	0xbc2ae8fe	-0.010431526
238	0xbea3cf29	-0.31993988
239	0x3cf7bee5	0.030242393
240	0x3ca610c8	0.020271674
241	0xbaa56e8c	-0.0012621447
242	0x3cebf8d6	0.028805178
243	0x3e859e1c	0.2609719
244	0xbf69c21a	-0.913118
245	0xbcecad05	-0.028891096
246	0x3b91028a	0.0044253515
247	0xbceb817e	-0.02874827
248	0xbb93590b	-0.0044966987
249	0x3cf18e6d	0.02948686
250	0xbb65ed75	-0.0035084162
251	0xbf445922	-0.76698506
252	0xbf0fbe11	-0.56149393
253	0x3e453e77	0.1926211
254	0x3c776c3a	0.015101487
255	0xbe6da0fd	-0.23205943
